experiments/bgame_intent_pre_ctrl/v1/model/central/central-500000.pth (torch, 292979 bytes, 14 tensors)

Q1.moduleList.0.linear_1.weight f4 [128, 20]
000000 20 e6 22 bc 9f a2 92 3e ab 67 4b be 09 84 41 3f
       -0.009942561 0.28639695 -0.19863765 0.75592095
000010 02 4f f3 3e a0 12 66 3d 05 ea 2a 3d 00 e6 3a 3e
       0.47521216 0.056170106 0.041727085 0.182518
000020 c6 08 ab bd 02 e2 71 bd 0f 9b 3c be b1 a0 0b be
       -0.08351283 -0.05905343 -0.18418525 -0.13635518
000030 10 af fb bd 74 10 ff bd cb a1 4a be 1d a9 78 bb
       -0.1228925 -0.1245431 -0.19788282 -0.0037942596
000040 65 ed 4b 3e 79 e9 26 3e 06 71 05 be 4e 01 cd bc
       0.19914778 0.163 -0.13031396 -0.025025036
000050 1a e0 92 3d 8f c0 2e 3e 09 89 1d bd 6a 8d 68 3f
       0.0717165 0.17065643 -0.038460765 0.9084078
000060 61 5f db 3e cb da 83 3c 55 73 38 3e 2f 45 46 be
       0.42846206 0.01609554 0.18012746 -0.19362329
000070 ab 94 51 be a8 1a f7 bd e9 ed 48 be fa e0 ed 3d
       -0.20466869 -0.12065631 -0.19622006 0.116151765
000080 8e 41 b4 bd 20 3a b6 bd 77 f2 5b be 7f ef 46 bd
       -0.08801566 -0.08897805 -0.21479212 -0.048568245
000090 19 ef ef bd 06 fa d2 3d ad 7f 0e 3e c6 4a e5 3d
       -0.11715526 0.103015944 0.13915892 0.111959025
0000a0 2a 0e 38 3c c3 59 e0 bd e4 0e 14 3d ad 22 4c be
       0.011233846 -0.10954621 0.036147013 -0.19935103
0000b0 90 e2 1d be 9d 92 e1 bd aa 1e 0a 3e 6f 0b 00 3e
       -0.15418458 -0.110142924 0.1348826 0.12504362
0000c0 8b 21 c2 bd c6 30 fc bb 90 e5 0b 3e 13 5b 59 3e
       -0.09479054 -0.007696244 0.1366179 0.21226148
0000d0 7a 79 ad 3d 19 6d ec 3c 65 a0 12 3e df 9c 00 be
       0.084704354 0.028860616 0.14318998 -0.12559842
0000e0 a8 15 23 3d 48 93 29 be 9d bf 17 be 69 06 e2 bd
       0.039815575 -0.1656009 -0.14819188 -0.11036379
0000f0 67 a6 c5 3d 9c 9c 02 3e db 3d 00 be 88 2c 12 3f
       0.09650879 0.12755054 -0.12523596 0.570992
000100 f2 4b 93 3e fb ae a6 bc 97 ce 6a 3c d0 38 37 3d
       0.2876888 -0.020347109 0.014331481 0.044731915
000110 97 93 f0 3d 2f b8 21 3e 88 7b 08 be ab f7 5b bd
       0.117469005 0.15792917 -0.13328373 -0.05370299
000120 f3 40 cd 3d de ba 4e 3e bf 7a 25 3e ae 75 ec 3d
       0.10022154 0.20188472 0.16160105 0.11545883
000130 35 e6 98 bd cf 27 86 be a8 e5 e0 ba 5e 44 82 bd
       -0.074657835 -0.26202247 -0.0017158287 -0.06360696
000140 4b 6e 32 be 81 b7 54 3e 9a 32 35 3e 39 25 a9 be
       -0.17424886 0.20773126 0.17695084 -0.3303621
000150 8f cb fd 3d d5 33 87 bc 95 e3 19 bc 31 3a 5a bd
       0.12392341 -0.016504208 -0.009392639 -0.053278152
000160 c8 6b 8d 3d 5e 22 ee bd c2 8e 52 3d 0d 79 81 3d
       0.06905323 -0.11627649 0.051405676 0.06321917
000170 7e c3 82 3e cd 84 89 3d 81 e8 62 be 14 07 05 be
       0.25539774 0.06714783 -0.22159006 -0.12990981
000180 83 3a a2 3d 8d 79 d3 3d e8 dc 4b be da 4e 86 bd
       0.079213165 0.10325918 -0.19908488 -0.065580085
000190 e5 5c 35 3e 85 b1 89 3e df 37 1c be f4 9a 43 3f
       0.17711218 0.2689325 -0.15255688 0.76408315
0001a0 73 ed 6a 3e 76 51 6f bc fd ab 5b be 3d b0 af be
       0.22942142 -0.014606824 -0.21452327 -0.34314147
0001b0 bf 10 36 3e 6a d2 07 3d 30 9e 93 3d f4 d5 bd 3e
       0.17779826 0.03315965 0.07207906 0.37077296
0001c0 c5 7c 57 3c 95 2c 38 3e 6a 57 27 bd ca c8 d9 be
       0.013152306 0.17985757 -0.04085485 -0.42536002
0001d0 96 d9 f2 be e2 74 a8 be 50 74 51 3c 7e 06 bb 3d
       -0.4743163 -0.32901675 0.012784079 0.09132098
0001e0 c0 13 a5 3d bc 79 1e 3c 84 bd db bd 5e b9 d1 3d
       0.08060408 0.009672578 -0.107295066 0.10240434
0001f0 bd 46 4f be df c1 04 be 32 23 4e bd d9 33 db bd
       -0.20241828 -0.12964581 -0.050326534 -0.107032485
000200 c5 2a 99 bd 0b 83 36 be f7 0a 3a bd e9 eb 3a 3d
       -0.07478861 -0.17823426 -0.045420613 0.045635138
000210 9e 59 0e be 64 bc 33 bc b5 7c 1c 3e b3 06 b4 bc
       -0.13901374 -0.010970209 0.15281947 -0.02197585
000220 a5 a5 c2 3b 18 21 97 bc 83 82 24 3d 9e f0 07 3e
       0.0059401565 -0.018448398 0.04016353 0.13275382
000230 1c 6d 48 3e 41 1a 59 3e 15 b7 5d 3e 8e 94 80 3e
       0.19572872 0.21201421 0.21651872 0.25113338
000240 1f d5 81 bd f5 22 f4 bd 26 f3 2b 3e 22 3e 3a 3c
       -0.06339478 -0.1192073 0.16791973 0.011367353
000250 fb af 5e be d9 33 d3 be a5 a8 00 bf 42 4c 63 be
       -0.21746819 -0.41250494 -0.5025733 -0.22197059
000260 c1 c0 33 bc b0 59 52 3e 0e 4a 31 3c 7d 56 76 be
       -0.010971249 0.20542026 0.010820879 -0.2405643
000270 3f 1f ad 3e 59 e4 a3 bd 38 8b ca 3d 84 3e 2a bc
       0.338129 -0.08002538 0.09889835 -0.010390881
000280 fa 8e 28 bd 1d b0 2b bd 09 59 44 be fb bc 3c be
       -0.041151978 -0.041916 -0.19174589 -0.18431465
000290 d5 15 09 bd 2d 23 35 3b a5 ba c6 bd e7 eb a4 3d
       -0.033468086 0.0027639375 -0.09703568 0.08052807
0002a0 74 ec 44 be 96 35 6c bc c6 65 40 3e 35 84 b2 bd
       -0.19230825 -0.014417073 0.18788823 -0.08716623
0002b0 bd 8c 45 3e ad 42 9e 3d 3a 6f 45 be 7b 7b 0a 3e
       0.19291969 0.07727561 -0.19280711 0.13523667
0002c0 a7 d5 c9 bc 20 62 c3 bd ac d2 2e 3e 83 c1 30 be
       -0.02463801 -0.095402 0.17072552 -0.17261319
0002d0 3e c6 3e 3c c9 88 41 bd 9a eb 16 3e bc 9c 4c 3f
       0.011643944 -0.04724959 0.14738312 0.7992666
0002e0 f2 25 e8 3e d3 b9 85 3d 66 55 87 bd 66 f0 dd 3d
       0.4534145 0.06529584 -0.06608085 0.10836868
0002f0 27 7d d4 be 9e 22 a5 3d 82 b2 74 3c 10 09 08 3c
       -0.41501734 0.08063243 0.014935138 0.008302942
000300 3c 20 54 be 75 e5 5b bd 6a 68 22 be 84 1f be bc
       -0.20715421 -0.053685624 -0.15860143 -0.023208387
000310 47 17 a0 3d 67 72 17 3e 44 64 d4 bc 71 c5 45 3c
       0.0781694 0.14789735 -0.025926717 0.0120709995
000320 df 51 4b bb ee c8 29 3e ce ee 36 be 9c 6c 06 bf
       -0.003102414 0.16580555 -0.17864534 -0.52509475
000330 39 ba a7 be cb cf 10 3e 61 22 ea bd 0a a8 3c 3d
       -0.32759264 0.14141767 -0.114323385 0.046058692
000340 a7 e6 8f 3e d4 8e 60 3e 78 c8 3d 3e a1 d4 55 3d
       0.2810566 0.21929485 0.18533504 0.05220473
000350 fb 12 5b 3d d7 2a 83 bd f8 98 19 bd ac 01 29 be
       0.053484898 -0.064046554 -0.037499398 -0.16504544
000360 52 e9 fc be c7 99 be be 6b e9 d4 3d dc ba b5 bd
       -0.4939676 -0.37226698 0.103960834 -0.08873531
000370 6a 79 39 bd 46 bb a2 3e 10 eb 80 3c 40 2e c9 3e
       -0.045281805 0.31783503 0.015737087 0.39293098
000380 cf ba 22 3e 80 d2 b1 3d 91 cc 4c be 06 7a 3a be
       0.15891574 0.08682728 -0.19999911 -0.18210611
000390 7e db fa 3d 67 91 2f 3e cc 12 8e 3e 2b 12 aa 3e
       0.12248896 0.1714531 0.27748716 0.33216986
0003a0 bf f5 f0 bc b9 03 aa bd ed b4 bd 38 c8 a4 6a bd
       -0.029414056 -0.08301491 9.045922e-05 -0.057286054
0003b0 b0 cb ae be ce 3e 0a bf a7 0b 63 bd 60 79 35 3d
       -0.34139776 -0.5400208 -0.055431034 0.044305205
0003c0 3c 50 90 3d 11 32 24 3e e2 c6 8c bd 4d 66 b3 39
       0.070465535 0.16034724 -0.068738714 0.0003421776
0003d0 f9 44 e1 3d ae 93 53 be a5 f8 1d 3e 4a fb 34 be
       0.109994836 -0.20661804 0.15426882 -0.17673984
0003e0 bc 01 41 3b fd d1 14 bd 4e 5b e6 bd 59 38 e7 3c
       0.0029450497 -0.036333073 -0.11247884 0.02822511
0003f0 18 fb 34 3e 5a 5b 7f bd 9c bb 01 be a2 c7 a1 bd
       0.1767391 -0.06234298 -0.12669224 -0.07899405

Q1.moduleList.0.linear_1.bias f4 [128]
000000 71 6e 2d be a0 2e 3c be 93 3f 11 3e 41 6f a0 bd
       -0.16936661 -0.18377161 0.14184408 -0.0783372
000010 64 5a 74 3b ac 66 83 3d 78 73 09 be 99 4e 0c bd
       0.0037285322 0.064160675 -0.13422954 -0.034254644
000020 2b fd 01 3e 35 83 2e be 85 8b cb 3d ff eb 0d 3d
       0.12694232 -0.17042239 0.099387206 0.03464889
000030 97 90 f0 3d 55 40 11 3e 17 1c 40 3d 5f 89 d3 3b
       0.11746328 0.14184697 0.04690179 0.006455585
000040 f3 b4 86 be 7d a8 09 3e eb f7 21 3e 5a c4 b4 bd
       -0.26309928 0.1344318 0.1581723 -0.088265136
000050 56 77 4e be 8d 46 31 3e b6 e9 06 be 7f 0b 00 bd
       -0.2016271 0.17312069 -0.13175091 -0.031260964
000060 13 47 59 bd f1 84 0b 3e d3 c6 6f 3e 58 40 e8 3d
       -0.053046297 0.13624932 0.23415689 0.113403976
000070 07 a1 62 bd 23 5a 19 3e 91 73 d5 3d 43 aa aa 3c
       -0.05532935 0.1497579 0.10422433 0.02083314
000080 46 c7 2b be 99 c4 88 bd 51 e0 57 be 84 3f 12 3e
       -0.16775236 -0.06678123 -0.21081664 0.14282042
000090 a0 f0 5f 3e 77 a1 ca 3d 07 ca 8b 3d c8 ce 4e 3d
       0.21869135 0.09894078 0.06825643 0.05049017
0000a0 ff 16 35 3e 2b 51 df bd ee d8 92 bd f1 5b 31 be
       0.17684554 -0.109041534 -0.07170282 -0.17320229
0000b0 50 e6 89 3c a4 78 31 bd a8 8c 6f 3d 11 1e 0d be
       0.016833454 -0.043327942 0.05848375 -0.13781
0000c0 67 27 0a bd 38 5d 34 be cf 69 0d be fd 14 e4 3c
       -0.033728983 -0.17613685 -0.13809894 0.02784204
0000d0 35 52 5a be ed e1 68 3d 12 6f 4a be ed ee 3e be
       -0.21320422 0.056856085 -0.19768932 -0.1864583
0000e0 f5 a0 35 bd cf d6 50 be 61 a6 30 3e 9b 55 33 3e
       -0.044342954 -0.20394443 0.17250969 0.17513125
0000f0 0a e6 2e be 68 40 eb 3c ed df df 3d 80 6e 63 3d
       -0.1707994 0.028717235 0.10931382 0.055525303
000100 e8 57 ea bc e4 10 2a be 9e 92 09 3e a0 dd 3f be
       -0.02860637 -0.16608006 0.13434836 -0.18736887
000110 3f 22 27 bd d6 2e ea 3b fa 21 f4 bd 90 ca 7e bd
       -0.040804144 0.0071466966 -0.11920543 -0.062204897
000120 45 e4 17 be e3 e4 40 3c e3 03 83 bd 24 9f 2f 3e
       -0.14833172 0.011773321 -0.06397226 0.17150551
000130 3c f8 00 be e5 49 2b 3e 5b d3 25 3c 23 9b c4 bd
       -0.12594694 0.16727407 0.010121192 -0.095999025
000140 12 16 11 bd 7a d0 81 bd 28 a5 5c bc aa b8 33 bd
       -0.03542144 -0.06338592 -0.013467111 -0.04387728
000150 f0 b2 81 3d fb 42 34 3e 0f 6b ac 3c 98 49 9e 3d
       0.06332958 0.17603676 0.021047143 0.07728881
000160 3d 30 07 3e 8f 15 d2 3c 8c 17 9b 3d 0d 72 e5 3d
       0.13201995 0.025645046 0.075728506 0.11203394
000170 95 aa 4c 3e 07 9a 47 be e2 98 9d 3d eb de b3 3b
       0.19986947 -0.1949235 0.07695176 0.0054892204
000180 ed 12 b2 bd 76 2f e8 bd 8a 93 cc 3d 36 61 44 3e
       -0.08695016 -0.113371775 0.09989078 0.19177708
000190 c9 a0 48 be ba d9 1a 3e 7d 99 07 3e b4 a3 ad 3d
       -0.19592585 0.15122119 0.13242145 0.084784895
0001a0 ac 09 25 3b aa 3d 89 3d 14 31 3a 3d 12 1e 5a bd
       0.0025182767 0.067012146 0.04545696 -0.053251334
0001b0 03 88 59 bd 90 88 b8 3d 6c da aa 3d 35 13 41 bb
       -0.053108227 0.09010422 0.08342442 -0.0029460911
0001c0 0a 98 a5 3d 49 a2 6b 3d 9f 34 31 be e4 e7 59 3d
       0.0808564 0.057527814 -0.1730523 0.053199664
0001d0 7b f3 93 3d 5f bc c7 bc 9d 79 a4 bc 28 ec e5 3d
       0.072241746 -0.024381815 -0.020077521 0.11226684
0001e0 00 3e 7a be f6 a5 c7 bd af 5c 8b bd 88 64 3b 3e
       -0.24437714 -0.097484514 -0.06804787 0.18300068
0001f0 c5 9a 53 be 29 ef 81 3c 0c eb 53 be c1 20 e6 bb
       -0.20664509 0.01586111 -0.20695132 -0.0070229475

Q1.moduleList.1.linear_1.weight f4 [128, 128]
000000 0d 53 cd 3b 63 bc 1f bd 4e ec a7 3d 86 51 9e bc
       0.006266004 -0.03899802 0.081993684 -0.019325983
000010 14 f2 af bd 6c 9c 8d 3c 0d 63 40 3d e5 69 9f bb
       -0.085910946 0.017286502 0.046969462 -0.0048649185
000020 d9 f5 93 3d 1d 38 93 bd 37 d9 6e 3d 14 54 90 3d
       0.07224626 -0.07188437 0.05831262 0.07047287
000030 56 ae 2b 3d 38 c7 01 b8 fd 28 a3 3c f0 cd 87 bd
       0.041914307 -3.0941534e-05 0.019917006 -0.06631076
000040 54 52 af bd 77 da 4e 3b 06 f3 b3 bc 43 cc 73 3d
       -0.08560625 0.003156332 -0.021966469 0.05952097
000050 c6 7f 58 bc be 71 6a 3d fa af ae bc e8 d5 0f bb
       -0.013214057 0.05723738 -0.021324147 -0.0021947566
000060 cb 69 18 be 8a fd f9 3c 25 52 2d 3d b0 12 b7 bd
       -0.14884107 0.030516405 0.042314667 -0.08939111
000070 d6 af cc bd 37 f0 91 bd be 77 08 bd 69 a0 59 bd
       -0.099944755 -0.071258955 -0.03331732 -0.053131495
000080 a4 a9 89 bc b0 e6 e3 3d 78 d0 80 bc fb 43 8f 3d
       -0.016804524 0.111279845 -0.015724406 0.06995388
000090 61 c4 ec 3b 6f 24 6f 3d c4 68 ca bc a7 01 77 bd
       0.0072255586 0.058384355 -0.02470816 -0.06030431
0000a0 91 7d 7c bd 4d af 4e 3d 34 28 d5 bc 9f 36 c8 bd
       -0.061643187 0.05046015 -0.026020147 -0.09776043
0000b0 17 7d 77 3d 70 a7 2c bc 27 5c 67 bd 96 8c a9 bd
       0.06042203 -0.010537967 -0.056484368 -0.08278768
0000c0 70 84 0a 3d 7a c6 97 bd d3 ca 07 3e 36 85 6e 3d
       0.03381771 -0.07410903 0.13260965 0.05823251
0000d0 34 2c 63 3c 93 61 93 bd 11 d5 d7 bc 13 c7 03 be
       0.013865519 -0.07196345 -0.026346715 -0.1286891
0000e0 1d 6f ee 3c c8 ab b7 bc 35 0d 94 bc f4 c2 d7 bc
       0.029105717 -0.022420779 -0.018072704 -0.026338078
0000f0 c4 50 9a 3d 47 d7 3a 3d 7d ac 97 3c 2a 37 ad 3d
       0.07534936 0.04561546 0.018514866 0.08457787
000100 5b e6 08 bc 04 98 bb bc 99 6a 40 bd 2b c2 a8 3d
       -0.008355702 -0.022899635 -0.04697666 0.082401596
000110 83 f9 0d bd 8d a6 5a 3d a4 de f2 bd 91 36 db 3d
       -0.03466178 0.05338149 -0.118588716 0.10703767
000120 b7 61 e0 bb 2b 9f 9e bd 57 46 20 3d 36 40 65 bd
       -0.006847586 -0.07745203 0.03912958 -0.05596944
000130 e0 3f e6 3b 5c 2c 72 bc ab 42 46 3d d3 1d a8 3d
       0.0070266575 -0.014781084 0.048403423 0.082088135
000140 76 52 4a 3d ff 31 7d bc 8e 36 12 bd 87 c7 c8 3d
       0.049395047 -0.0154538145 -0.03569656 0.09803682
000150 a3 94 26 bd b1 b0 0e 3d 6c 50 3a bd 70 8a 6a 3d
       -0.040669095 0.034836475 -0.045486853 0.05726093
000160 1d a4 84 3d 74 ca 70 3d 87 6b 97 bc 75 4e 20 3d
       0.064766146 0.058786824 -0.01848389 0.039137322
000170 bb 6e 9d bd 61 38 8c 3d e1 6f a4 3c 3a 03 55 bd
       -0.07687136 0.06846691 0.02007288 -0.05200503
000180 ff e1 ab bd d0 96 c3 bc 91 75 52 bd 57 80 80 3d
       -0.08392715 -0.023875624 -0.05138165 0.06274479
000190 6a 73 a2 bd 64 f0 d5 3c 2b 07 42 bd 4b 5c 43 3c
       -0.0793217 0.026115604 -0.047370117 0.01192386
0001a0 a0 69 91 bd d7 86 dd bd f7 25 ef bb d5 5e 9f 3d
       -0.071002245 -0.10816734 -0.007298227 0.0778176
0001b0 60 87 6c bd cc ea 72 3d 16 92 81 3d 24 9b 5b bd
       -0.05774629 0.05930595 0.06326692 -0.05361475
0001c0 57 7d a8 3c ac 7d 78 bd 46 ba 57 3c 26 7b 41 bc
       0.02056758 -0.060666725 0.01316697 -0.011809146
0001d0 4a bb 15 3d 2c 8a af 3c 48 06 ff 3d 7a d5 02 bd
       0.036555566 0.02142819 0.1245237 -0.03194187
0001e0 45 4c a5 bb 53 6a a4 3c 3f 46 25 3c 21 6a a2 bb
       -0.0050444924 0.02007023 0.010087549 -0.004956499
0001f0 47 17 0c bd d2 ec 84 3d 51 c8 0d bc 1b 02 31 bc
       -0.034201887 0.064904824 -0.008653716 -0.010803725
000200 0d dd 39 bd 25 9f 69 bd ab 04 2c 3b ab 1c 98 bb
       -0.045376826 -0.057036538 0.00262479 -0.0046420894
000210 04 f6 84 bd 26 f8 20 3d 99 f1 ba bb d6 49 12 3d
       -0.06492236 0.039299153 -0.00570507 0.035714947
000220 cc 91 91 3d d4 02 4e bd 90 b3 2a bd 54 30 ef bc
       0.07107887 -0.050295666 -0.04167515 -0.02919785
000230 31 3a ea bb 43 d5 2c bd 6a f4 c0 bc 2e 61 1f bb
       -0.0071480502 -0.04219557 -0.023554046 -0.0024319398
000240 ce e4 09 3d 8d 7d 91 3d e9 0b 93 3d 81 26 e6 3b
       0.03366547 0.07104025 0.07180006 0.007023633
000250 0f 8d a9 bc b2 32 b1 3c 60 c7 4b 3b 63 37 45 bb
       -0.020697145 0.021630619 0.0031094179 -0.0030092828
000260 71 0b c7 3d f2 a5 8c bd 4a 12 ba 3c 1a b3 b0 bd
       0.09718979 -0.06867589 0.022713799 -0.08627911
000270 d5 d7 1d be 7d fe 2a bd 96 ee a0 bd cb 99 67 3d
       -0.15414365 -0.041746605 -0.07858007 0.056543153
000280 c6 b2 bf bc b6 3a 50 bd 43 d5 16 bd 14 ec b5 3c
       -0.023400676 -0.05083724 -0.036824476 0.022207297
000290 8d 55 7a bd 46 e8 f8 bb f9 a8 88 ba 89 a1 eb 3c
       -0.061116744 -0.0075960485 -0.0010426334 0.02876355
0002a0 4a 41 fd 3c 61 96 7a bd 92 6d 15 3d 55 f7 a5 3d
       0.030914921 -0.06117857 0.036481448 0.081038155
0002b0 2d ed 47 3c 95 72 1a 3d 25 db 02 bd 7b 8a 59 bb
       0.012202543 0.03770693 -0.031947274 -0.0033194113
0002c0 dd b7 a9 3c ef a1 1f bd 50 39 2c 3d 0e 91 a3 bd
       0.020717556 -0.03897279 0.042046845 -0.07986651
0002d0 2a a6 7e bd 04 5d 4b bd 73 d6 66 bd 1e eb bc bd
       -0.062170185 -0.049649253 -0.05635686 -0.092245325
0002e0 76 fc a2 bd 38 7d 6d 3c 7f 02 89 bc f4 85 91 bd
       -0.07958309 0.0144951865 -0.016724823 -0.07105628
0002f0 b3 9e 76 3c 3b fc 9c bc 9e 83 0e 3d cc 07 a4 bd
       0.015052485 -0.019163242 0.03479349 -0.080093
000300 c6 b4 c2 bc 3d dc 3a bc 1d b3 f1 3c 43 66 d1 3b
       -0.02376784 -0.011405048 0.029504353 0.0063903644
000310 fb 90 ef 3c fd 27 a7 3d 60 d0 63 bc 3d bc 04 3e
       0.029243937 0.08161924 -0.013904661 0.12962432
000320 92 22 8b bd 70 0d 99 bd db 07 90 3c 22 34 2d 3d
       -0.06793703 -0.07473266 0.01758187 0.042286046
000330 3a 02 98 bc 82 a2 36 3d 97 13 3c 3b 86 99 83 3d
       -0.01855575 0.044588573 0.00286982 0.06425767
000340 0e 56 41 bd 02 9f 46 bd 43 a1 80 3d e0 3e d7 ba
       -0.04720121 -0.048491485 0.06280758 -0.0016421936
000350 d6 1b 93 3d f6 9c ab 3c e6 7d 37 3d 5b 96 57 3d
       0.07183044 0.020948868 0.0447978 0.052633625
000360 25 da 68 3c d9 47 53 bc 5e 91 06 3c ce 29 71 bd
       0.014212166 -0.012895548 0.008213369 -0.05887776
000370 b5 ed 3c 3b 2b 62 de bc ed cd c8 bd de 2c 70 bd
       0.0028828208 -0.02714642 -0.09804902 -0.05863654
000380 1e cd fd 3c ca 4c be bd f5 b2 65 3d 5f 45 37 3d
       0.030981597 -0.0929199 0.05607887 0.04474389
000390 fe fb 7a bd 80 76 73 3c 6d f7 66 bd 18 ce b3 bc
       -0.061275475 0.014859796 -0.056388307 -0.02194886
0003a0 d1 54 33 3d a9 cf 0f bd f5 ee c1 3d 15 ac 18 bd
       0.04378206 -0.03511015 0.094694056 -0.037273485
0003b0 08 ed 0a ba af c9 6b bd 04 65 45 bd 14 8e cb 3d
       -0.00052996026 -0.057565387 -0.04819204 0.099392086
0003c0 2b ba 6e 3d e5 99 cb 3b 27 80 e3 3b 16 b7 92 bd
       0.058283012 0.006213414 0.006942767 -0.07163827
0003d0 ae fe 19 3b 4c b0 ab bc 38 4d 00 bd c0 22 72 bd
       0.0023497748 -0.020958088 -0.03132364 -0.05911517
0003e0 9f c9 90 3d 69 16 24 3d 46 06 46 3d 02 2a 86 bb
       0.07069706 0.040060434 0.048345827 -0.004094363
0003f0 31 a2 6a bd 89 67 21 3d 82 6d 1f 3c d9 09 e8 3c
       -0.057283584 0.03940538 0.009730699 0.028325008

Q1.moduleList.1.linear_1.bias f4 [128]
000000 63 80 ce 3d 0f 65 a2 3d d9 1e dc bd 9e 2a 96 bd
       0.100830816 0.07929432 -0.10748071 -0.07332347
000010 d4 8f 57 bd 58 12 86 3d d2 9f 53 bd 41 ab 9a 3d
       -0.0526274 0.065464675 -0.05166609 0.07552195
000020 9a 42 b3 bd a3 0e bc 3d 12 4e 49 bd 7c 9c 03 bd
       -0.087529376 0.09182479 -0.04914672 -0.032131657
000030 ee e5 ba 3d 8d e2 a7 3d da a9 17 bd 28 ee 76 3d
       0.09125887 0.08197508 -0.037027217 0.060285717
000040 48 21 aa bd 2b 55 83 bd 04 5e 7b 3b c2 1d 7b 3c
       -0.08307129 -0.06412729 0.0038355598 0.015326919
000050 c6 f9 21 3d d5 12 81 3d a5 d2 48 3d 50 d7 48 3d
       0.039544843 0.0630242 0.04902901 0.049033463
000060 da 49 13 3d 2e 22 a9 bd b3 47 a0 bd b9 44 8e bd
       0.035959102 -0.082584724 -0.078261755 -0.069467016
000070 e7 8e 89 bb d4 94 59 3c 27 20 e0 3b e4 28 a4 bd
       -0.0041979435 0.013280112 0.0068397704 -0.08015612
000080 d4 11 3c 3c 0b 1e 8a bd d4 04 58 bd eb d5 9f 3c
       0.01147886 -0.067440115 -0.05273898 0.019511184
000090 22 d7 93 bb c4 03 43 bd d7 a1 d8 3d 9a 05 15 3d
       -0.00451173 -0.047611013 0.105777435 0.036382295
0000a0 b4 b8 8b bd 56 e9 0b bc 4a 4f 8b 3d 9e 49 d1 3d
       -0.06822339 -0.008539518 0.068022326 0.102191195
0000b0 33 f4 b7 3c e2 89 f3 bc 15 48 05 bd 10 4f 85 bd
       0.02245531 -0.029728834 -0.032539446 -0.065092206
0000c0 1e 7b 35 bd 99 61 7a 3d 93 01 74 3d 28 6a e1 bc
       -0.044306867 0.061128233 0.059571814 -0.02751644
0000d0 c8 42 fd 3b 84 76 83 3c 98 a1 8b bd 06 3c 5d 3d
       0.007728908 0.016047724 -0.06817931 0.05401232
0000e0 4e 00 0a 3e 85 58 6f bc 74 1a 8a bd 71 c2 0c bc
       0.13476679 -0.014608507 -0.06743327 -0.00859128
0000f0 b6 e9 19 bd 6f 9f 2e 3b 03 da 5c 3d c1 09 06 3b
       -0.0375764 0.0026645323 0.05391885 0.002045259
000100 f5 93 34 3d 21 ca 4f bd 4e 42 bc bb 5e e1 5c 3d
       0.044086415 -0.050729875 -0.005745209 0.053925864
000110 f8 e1 a2 ba e7 4a ad bd b7 a3 d6 3d ed a0 90 39
       -0.0012426963 -0.08461552 0.10480445 0.0002758572
000120 e2 aa 19 3e 7c 4c 87 bb 67 1b 44 bc 55 56 45 bc
       0.15006593 -0.0041289907 -0.011969424 -0.012044509
000130 a0 ab 9b b9 02 b7 4d bd 39 99 9e bc 3d b7 8d bd
       -0.00029691774 -0.050223358 -0.019360172 -0.069197156
000140 f1 4a 59 3d 99 b7 fa 3d 7c a1 84 3c 04 63 9b 3d
       0.053049985 0.1224205 0.016190283 0.07587245
000150 45 41 b6 3d d7 88 6a 3d 18 9f 9f bc ca 6d c0 3c
       0.08899168 0.057259407 -0.019485041 0.023489852
000160 f6 a8 c8 3c 39 23 c0 bb 40 b7 f3 3d fa 83 86 bd
       0.02449463 -0.005863574 0.119001865 -0.06568141
000170 a5 dc 44 bb 9c 2a a9 bd 23 83 c1 3d c1 d7 b2 3a
       -0.003003874 -0.0826008 0.094488405 0.0013644622
000180 88 4e f3 3c 7b a4 99 3c e4 99 96 3d c3 4c 64 bd
       0.029700533 0.018755188 0.07353571 -0.05573727
000190 92 c4 68 bb 53 aa 1a 3d de fb 75 bd 3c 3a e5 3b
       -0.0035517556 0.03776009 -0.060054652 0.0069954675
0001a0 81 fa 40 bc 57 d3 97 3c 7c 9f 63 3d 32 05 6b 3c
       -0.011778475 0.018533392 0.055572018 0.0143445
0001b0 03 83 bb 3c 4c 9d 91 3d 94 b4 3d 3b d8 e7 5e 3c
       0.02288962 0.0711008 0.0028946744 0.013605081
0001c0 e1 0c 84 3d 0e b8 5d 3c 74 a2 42 3d de 0d cd 3d
       0.06447769 0.013532652 0.04751821 0.100124106
0001d0 24 a9 cb 3c 3c a1 e4 bd 5a 31 da 3d 39 f3 5a 3d
       0.024860926 -0.111635655 0.10653944 0.05345461
0001e0 25 3e d9 3c 54 37 4d 3d 67 aa fc 3c 1c 41 99 3c
       0.02651889 0.050101593 0.030842973 0.018707804
0001f0 16 ee 9f 3d bb 07 26 bd ce a0 5c 3c 58 81 8b bd
       0.07809083 -0.040534716 0.013466073 -0.0681178

Q1.moduleList.2.linear_1.weight f4 [128, 128]
000000 50 c7 95 3d 5c d5 fb 3c 67 4f 8b 3d 33 b4 89 bd
       0.073134065 0.030741386 0.06802254 -0.067238234
000010 cd 0f 86 3d 6f 4c 58 3d 54 b9 96 3d ed 40 1d bd
       0.065459825 0.052807268 0.07359567 -0.038391996
000020 b6 f0 80 bd 62 3a b9 bc 84 2d 87 3d 13 a9 a9 3d
       -0.06295912 -0.022610847 0.06600478 0.082842015
000030 98 85 18 bc 09 31 1d 3c 46 13 fb bb 1e df dc bb
       -0.009309195 0.00959421 -0.0076622097 -0.006740465
000040 b4 3d a9 3c 3b e3 21 3d 68 6d dd bc 7e 7d 95 bd
       0.020659305 0.039523344 -0.027029708 -0.07299326
000050 8f 31 2a bc e3 db 3e 3d 6c 3f 99 bd 68 fe a1 3d
       -0.010387792 0.04659642 -0.074828 0.07909852
000060 63 b2 f6 3c 4e 20 23 3d cf 7c 27 3d 75 33 6e 3d
       0.030114358 0.03982573 0.04089051 0.058154542
000070 db ad 89 3d ee 9d 18 bd 17 8c b5 3c 20 ed 4f 3d
       0.067226134 -0.03725999 0.022161527 0.05076325
000080 6c 23 ab bd ba 43 48 3d 00 23 a0 bd 06 aa 61 bd
       -0.083563656 0.048892714 -0.07819176 -0.055093788
000090 bd be 4a bd bc 85 85 bd c9 8c 8b bd e8 f3 4b 3d
       -0.04949831 -0.065196484 -0.06813962 0.049793154
0000a0 18 b4 a5 bd 73 10 28 bd b1 cd a1 bd 69 d5 0c bd
       -0.08090991 -0.041031312 -0.07900561 -0.03438321
0000b0 6c 4d 65 3b 53 2b f9 3c fe af 50 bd 4a cd dd 3b
       0.0034988774 0.030416166 -0.05094909 0.006768857
0000c0 3a 1f 28 3d 53 67 85 3d a8 1a 86 bc 0e c0 6a bd
       0.041045405 0.06513848 -0.016370133 -0.057312064
0000d0 2d 24 54 3d 33 c0 07 bd fe 9c a5 bd 8a fa 03 bd
       0.051792312 -0.03314228 -0.080865845 -0.032221355
0000e0 e6 7b ab bc f3 a1 98 3c 24 65 83 3d 79 52 5b 3d
       -0.020933103 0.01863191 0.064157754 0.05354545
0000f0 a3 bf 1f bd e7 0b 8c 3d 15 38 bd 3c 99 52 b2 3c
       -0.03900112 0.06838208 0.023098031 0.021767901
000100 d0 79 90 bd 6b c2 bf bc ed d9 f6 3c 04 f0 05 bd
       -0.07054484 -0.023408135 0.030133212 -0.0326996
000110 d6 7d 12 3d d7 71 21 3d a0 25 7c bd c7 2b 76 3d
       0.035764538 0.039415207 -0.06155932 0.060100343
000120 29 49 8a 3a 3b c5 94 bb dd 45 23 bc 33 35 d5 bb
       0.0010550368 -0.0045401133 -0.009965387 -0.006506586
000130 64 35 8f bc 69 7a e7 bc e8 b1 65 3b 45 92 b8 bc
       -0.017481513 -0.028256612 0.0035048667 -0.022530684
000140 7e 01 8c 3d 98 2f e6 bc cd 85 9e bd 5c 57 ab 3d
       0.06836222 -0.028098866 -0.07740364 0.08366272
000150 d8 e1 43 3d 0b 13 84 bd f0 bc 88 3d 7b f7 8c bd
       0.047822803 -0.06448945 0.06676662 -0.06883141
000160 5f e1 47 bd db 4f 33 bd 8e b4 c9 3b c5 a3 bb 3c
       -0.048798915 -0.043777328 0.006155557 0.02290524
000170 af 14 0d bd 23 df 0b bd 0b 88 3c bd bb 6e 80 3d
       -0.034443554 -0.034148347 -0.04602818 0.0627112
000180 9a 72 28 3d fd a8 04 3a 77 d4 77 bb ca db 25 3c
       0.041124918 0.00050605816 -0.0037815848 0.010123203
000190 14 e6 9e bc d4 8f 1c bd 4c 1e 8b 3d d8 39 07 bd
       -0.01939682 -0.038223103 0.06792888 -0.03301415
0001a0 ca 86 52 bd c8 1f 0a bc 54 11 d5 3c e4 ca 93 bd
       -0.051398076 -0.008430429 0.02600924 -0.07216433
0001b0 df 91 d4 3c 51 cb 83 bb 47 af 20 bd 61 ff 31 3b
       0.025948463 -0.00402204 -0.039229658 0.0027160274
0001c0 dd 10 0a 3c 6d 98 b3 bd 68 a6 22 3d bc b5 fd 3c
       0.008426872 -0.08769307 0.03970948 0.030970447
0001d0 77 2d 70 bd 59 85 99 3c 65 be 3b bd 8b 6a 80 3d
       -0.05863711 0.018740343 -0.04583587 0.062703215
0001e0 b5 73 2b bd 43 63 f7 3c 27 6b df 3c a9 00 9f bb
       -0.041858394 0.030198699 0.027272774 -0.0048523736
0001f0 1c c5 3d bd 02 4a 24 3d e4 54 b3 3c 2a 98 20 bd
       -0.046330556 0.04010964 0.021891065 -0.039207615
000200 ed ea 1b be ff e8 8f 3d f1 52 8e bd ef 33 6a 3c
       -0.15226336 0.07026862 -0.069494136 0.0142946085
000210 7e 1d 1e bd bc 7b a9 bd 45 79 47 3c 23 1b ad bd
       -0.038602345 -0.082755536 0.012174909 -0.084524415
000220 3c b2 2f bd d5 97 9a bd 4b e2 8a bd 18 00 5d 3d
       -0.042894587 -0.07548491 -0.06781443 0.053955168
000230 12 24 07 3d ac 33 3a bd e0 ca 13 bd b6 0d 70 3a
       0.032993384 -0.045459434 -0.03608215 0.00091573165
000240 9f 0b a7 bd 3f 30 0e 3c 69 06 4f bc 20 ca b0 3d
       -0.081565134 0.008678495 -0.012635806 0.08632302
000250 7b 9d 04 be 39 cd 1d 3d dc d7 22 b9 c7 bd 08 bd
       -0.12950699 0.038525794 -0.00015529938 -0.03338411
000260 c6 fa 18 3d de e2 68 3d 3e 7c ac bc 7d e0 69 bd
       0.03734853 0.056856982 -0.021055337 -0.057098854
000270 91 56 40 3d ab b6 82 3d 01 39 e4 3c df b5 07 3c
       0.046957556 0.063824974 0.027859213 0.008283108
000280 05 8d 29 3d d7 90 0c 3c 5d 91 01 bd 02 63 7e bd
       0.041394252 0.008579454 -0.03163277 -0.06210614
000290 14 7f 1a bd ff c9 f0 3c a2 ab 83 bd a4 f4 03 3d
       -0.037718847 0.029393194 -0.06429221 0.03221573
0002a0 3b 90 75 bd 75 1d 84 bd ea 30 75 3d ed bb 98 bd
       -0.059952002 -0.06450931 0.0598611 -0.07457719
0002b0 65 c2 a2 bd 98 63 ac 3d 69 9f 41 bb 09 f5 5b 3d
       -0.07947234 0.084174335 -0.0029544479 0.05370048
0002c0 fe d9 9a bc 5c 07 4f bd d3 8c 25 bd fd dc d4 bc
       -0.018902775 -0.050544128 -0.040417504 -0.025984282
0002d0 66 04 49 bd f7 4a 7c bd ca 28 8b 3d b6 54 a0 3d
       -0.04907646 -0.06159493 0.06794889 0.07828657
0002e0 9f 45 80 3c 70 60 e8 3c 94 98 89 bd 3c bd 76 bc
       0.015658198 0.028366297 -0.06718555 -0.015059765
0002f0 a9 16 84 3c 62 59 cf 3c f2 55 72 bd a9 dd 4c 3d
       0.016124086 0.025311176 -0.059163995 0.05001608
000300 bf ad 53 3c 19 2f af bd fc 1d ad bd ba 21 d0 3c
       0.012919842 -0.08553905 -0.08452985 0.025406707
000310 1f d6 30 3d 62 87 7c bd 0e ae 75 3e 02 e9 c1 bb
       0.04317295 -0.06165255 0.23992178 -0.0059176693
000320 4c 3a 42 be 98 6d 7a bc e9 87 80 3d d7 d7 ac bc
       -0.18967551 -0.015284918 0.06275923 -0.021099014
000330 d1 44 c6 bd 33 1a e0 bc 34 96 84 3d eb 14 44 3d
       -0.096810944 -0.027356243 0.064739615 0.04787151
000340 0a 70 5d 3d 76 73 e6 bd 7e bd 99 3d 97 48 fd bc
       0.054061927 -0.11252491 0.07506846 -0.030918403
000350 04 55 35 3d 88 aa 9c bc e6 a7 70 3c 94 80 f9 3d
       0.04427053 -0.019124284 0.014688468 0.121827275
000360 eb a1 88 bd 39 0a 85 3d e6 8f 62 bd 3b c6 8a 3d
       -0.066715084 0.064960904 -0.055313013 0.06776091
000370 3c d8 63 bc e9 69 c3 3d 21 41 72 3c 5e aa 89 bd
       -0.013906535 0.09541685 0.014786036 -0.06721948
000380 a8 99 97 3d a3 52 da bb e1 0f 88 bd 1f 85 23 bd
       0.074023545 -0.006662683 -0.06643654 -0.039921876
000390 56 ea b0 3b 11 db 23 3d 75 70 11 bd cd 6c b8 bc
       0.005399029 0.04000384 -0.035507638 -0.022512818
0003a0 2e 69 91 3d 0c e9 51 3d b9 1f 8c 3d 16 45 23 bd
       0.071001396 0.05124764 0.06841988 -0.039860807
0003b0 93 2e 48 bd 2f 9c 60 bd ec cb 7e bd 32 f2 8c bd
       -0.04887254 -0.05483645 -0.062206194 -0.068821326
0003c0 44 22 5e bb 40 25 48 bd 9f 9c be bd ff 84 85 3b
       -0.0033894936 -0.04886365 -0.09307217 0.0040746923
0003d0 7d 72 23 bd 42 47 95 bd 81 79 cb 3c b6 d2 e6 bc
       -0.039904106 -0.07288982 0.024838211 -0.028176647
0003e0 54 bb 95 3c d7 74 1e 3d ca 60 9e bd 78 51 33 bc
       0.018277802 0.038685646 -0.07733305 -0.010944717
0003f0 0a ec 84 bd cb ee 96 3d 61 17 1e bd 2f cf 52 3d
       -0.064903334 0.07369765 -0.038596515 0.051467117

Q1.moduleList.2.linear_1.bias f4 [128]
000000 4b b0 c5 3c ce b5 62 3d 6e 24 b4 bd 8f fb 95 3d
       0.024131915 0.055349164 -0.08796011 0.073233716
000010 95 d5 80 3d 29 68 b5 bd 3d 5f c0 3d c8 35 47 bc
       0.062907375 -0.088577576 0.09393165 -0.012158819
000020 54 a3 99 bc 01 a1 c4 3d 3a 1b 5d bd 82 17 2e 3d
       -0.018754639 0.096010216 -0.053981043 0.042502888
000030 bc 2e 32 3d ba 51 eb bc 71 f2 f9 3d 3c 87 24 bc
       0.0435016 -0.028725494 0.12204445 -0.010042008
000040 9c dc 4b bd 5a b5 ac bd 64 b6 c8 bd cb b3 19 bd
       -0.049770936 -0.084330276 -0.09800413 -0.03752498
000050 4f e1 a6 3d fc a6 64 bd eb 30 df 3d a7 63 2b bd
       0.08148443 -0.05582331 0.10898002 -0.041843083
000060 c4 49 c7 bb d1 19 de bc 57 3c 7b bd 32 ad 2b 3d
       -0.0060817916 -0.02711192 -0.06133684 0.04191322
000070 92 2a ec bd 47 26 ab bb e3 25 a2 bd 92 56 37 bb
       -0.11531557 -0.005223069 -0.079173826 -0.0027975184
000080 c4 2c 79 3d 92 75 07 3c c5 00 90 3d 9e 07 5a bd
       0.060833707 0.008267777 0.07031397 -0.05322992
000090 f6 92 f8 3c 1e 43 a7 bd 96 69 2b 3d 36 9a 05 bd
       0.030343514 -0.081670985 0.04184874 -0.03261777
0000a0 54 26 d4 3c 17 da 39 3c 44 63 8e bd f9 f0 50 3d
       0.025897183 0.011343501 -0.06952527 0.05101106
0000b0 e6 2e 85 bd 3c 78 41 bd 78 10 b4 3c a4 81 94 bd
       -0.06503086 -0.047233805 0.02198051 -0.072512895
0000c0 86 a4 48 bd 54 bf da 3d 54 10 64 3d ee cb 62 3d
       -0.048985027 0.10681024 0.055679634 0.055370264
0000d0 35 f1 4c bd f9 79 e1 bb cc a5 99 3d 6e f9 67 3d
       -0.05003472 -0.0068809954 0.07502326 0.05663436
0000e0 22 98 f5 bc 45 1d 70 3d dd 08 97 bd 95 ac 50 bd
       -0.02997977 0.058621664 -0.073747374 -0.050945837
0000f0 49 8f b4 3d 4d df ff bc 83 32 33 bc 14 94 12 3d
       0.08816392 -0.031234408 -0.010937336 0.03578575
000100 cf a1 94 3d a6 ee f1 3d 2e 28 22 bd a6 fd 94 3c
       0.07257425 0.11813097 -0.0395891 0.018187355
000110 4b e6 9e bd 28 f6 13 bd e6 a3 1d bd 8e 4e 27 bd
       -0.07758769 -0.036123425 -0.038486384 -0.0408464
000120 84 e6 8a bc 61 15 0e bd 65 84 b7 bc b8 3d 8c 3c
       -0.016955622 -0.034688357 -0.022401998 0.017119274
000130 4b 75 1f 3b ff c5 00 3d eb d3 0b bd 85 22 43 3d
       0.0024331387 0.031438824 -0.034137648 0.047640342
000140 71 c7 e8 bc 5d b4 c2 bd e9 72 8b 3d 43 7c 2b bc
       -0.028415414 -0.09507058 0.06809027 -0.010466638
000150 08 59 a0 bd 84 d0 71 bd 7a 83 94 bd 86 d3 6f bc
       -0.07829481 -0.059036747 -0.0725164 -0.014637833
000160 df 03 0f bd fe a4 10 3d 14 62 80 3b c7 b7 fc bc
       -0.0349158 0.0353136 0.003917942 -0.03084935
000170 71 63 78 3d 2e 65 37 3c f1 c1 2f 3d f5 73 23 bd
       0.06064171 0.011193557 0.042909566 -0.039905507
000180 9d f2 f2 bc 5c 17 b5 3d 8e a7 9f bd 5a 00 69 bc
       -0.029656703 0.08842346 -0.077956304 -0.014221275
000190 f9 2b 7b 3d 41 4e a0 bc 80 4e 13 3d ce 08 ae ba
       0.061321232 -0.019568564 0.035963535 -0.001327777
0001a0 6d 21 82 3d c7 9a e6 ba 87 ba 0e be b2 da 0b bc
       0.06354032 -0.0017593735 -0.13938342 -0.008536028
0001b0 0d 97 6c bc 7e b3 0e bd 6c ec a4 bd 65 a5 73 3d
       -0.01444031 -0.034839146 -0.080529064 0.059483904
0001c0 49 65 24 3b 05 5e d9 bc e4 87 89 bc 61 4d 1d 3d
       0.0025084785 -0.02653409 -0.01678843 0.038403872
0001d0 21 44 7e bc f7 c9 7f bd 6c 7b 8c 3d 86 65 b5 3d
       -0.015519173 -0.062448468 0.06859478 0.08857255
0001e0 94 22 80 3c 2a e9 f4 bc 3d e1 a5 bd f3 51 b2 39
       0.015641488 -0.029896338 -0.080996014 0.00034011863
0001f0 7e 42 b7 3d cf f4 bc 3d d4 b3 e4 bd 78 d9 91 bc
       0.08948229 0.09226381 -0.11167112 -0.017803892

Q1.moduleList.3.linear_1.weight f4 [1, 128]
000000 90 d0 3d bd df 09 0b 3e 3c fc 5d 3d d6 1a 9e 3d
       -0.04634148 0.13577984 0.054195628 0.07719962
000010 ca a7 24 bd ce cf d8 3d a7 70 90 bd 50 73 81 bd
       -0.04019908 0.105865106 -0.07052737 -0.06320822
000020 2c 48 49 bd 90 77 a4 bc e3 44 74 3d 4e 5e ac bc
       -0.049141094 -0.020076543 0.059636008 -0.021041062
000030 fc 46 91 3c 5d 32 b5 bd 1e a6 3f bd 92 87 ae bb
       0.017734043 -0.08847497 -0.04678928 -0.00532622
000040 0b cf 6e 3d 36 50 91 bd cf e3 7b 3e ab ef fd 3d
       0.05830292 -0.07095377 0.24598621 0.12399229
000050 c0 23 d1 bd 99 fb b1 3d 4f 39 6c bd 89 f8 ef 3c
       -0.10211897 0.086905666 -0.05767184 0.029293315
000060 2e e2 4b bd db 21 a5 3c 49 9d 29 3e 78 47 4a bd
       -0.04977625 0.020157745 0.16563906 -0.049384564
000070 f5 49 56 3e 8d 02 a3 3d a9 19 ff 3d 49 37 13 3d
       0.2092665 0.07959471 0.12456066 0.035941396
000080 fd c2 b4 3d 1b b1 7c 3e da 91 a6 bd 44 b0 a6 3c
       0.088262536 0.24676935 -0.08133288 0.020347722
000090 cb 46 80 3d 4b fc 60 3d d5 06 77 ba eb ea 73 bb
       0.06263503 0.054928105 -0.00094233203 -0.003721888
0000a0 3a d6 4c bd 35 7d af 3d ed 91 12 3e c7 0b 9d bc
       -0.05000899 0.08568803 0.14313479 -0.019170655
0000b0 dc 7c 42 3d b0 d4 82 bc fe 38 44 3c f0 fa 61 bd
       0.047482356 -0.015970558 0.011976479 -0.055170953
0000c0 18 b5 eb bc 0e f3 9c bd 4a b0 5d bc a5 c4 80 3e
       -0.028772876 -0.076635465 -0.0135308 0.25150028
0000d0 81 29 18 3e 11 2d 0c bd 95 a2 45 bd 80 2e 5a bd
       0.14859582 -0.034222666 -0.048250753 -0.053267002
0000e0 52 2c 95 bc 87 a4 8e 3e f9 6d 19 3e 2b 29 5b 3e
       -0.01820961 0.278599 0.14983357 0.21402423
0000f0 84 cd f0 bc 5a 16 e6 bc 47 ff fa 3d b3 be be 3c
       -0.029394872 -0.02808683 0.122557215 0.023284292
000100 ed ce 13 3d 52 67 a7 bd 2d da 74 3d a3 fb a3 bd
       0.03608601 -0.08174004 0.05977838 -0.0800698
000110 c7 e6 84 3d f4 42 51 bd ab fd 8d bd a0 31 73 3d
       0.0648933 -0.051089242 -0.06933149 0.059373498
000120 49 b0 14 bc 53 3b 31 bd 55 32 e3 3c b9 aa c2 3d
       -0.009075233 -0.043269467 0.027733961 0.09505219
000130 f9 fe aa bd df 46 97 bd 7a 58 44 bd 0b 38 96 3e
       -0.083494134 -0.073865645 -0.04793594 0.29339632
000140 b6 67 00 be 1f a5 1c 3e 0b 42 e3 bd 74 bc 2d bd
       -0.12539563 0.15297364 -0.11096581 -0.04241605
000150 1c 30 7c 3d db 74 07 bd d3 78 94 3e 80 f0 02 3d
       0.06156932 -0.033070426 0.28998432 0.03196764
000160 24 e0 a4 bd b8 b4 57 bd 1a 90 a6 bd 7b 22 6f 3d
       -0.08050564 -0.05266258 -0.08132954 0.058382493
000170 8d c2 e3 bc d2 06 84 3d ee 81 c5 3c 67 47 58 3d
       -0.02780273 0.06446613 0.024109807 0.05280247
000180 7f 8f 65 bc 89 c7 8f bd d2 20 b0 3e 61 0f 21 bd
       -0.014011263 -0.0702048 0.3440004 -0.039321307
000190 3c c1 3f bd 53 db 8f bd 62 08 06 bb 39 27 9b bc
       -0.046815142 -0.07024255 -0.0020451774 -0.018939601
0001a0 f4 23 26 3e e3 4a 74 3d bf bf 4d 3d 6f 55 c6 bc
       0.16224653 0.05964173 0.05023169 -0.02421066
0001b0 7f 17 52 bd 9d 38 44 3c 23 60 8c bd 5b 2c 7b bd
       -0.05129194 0.011976388 -0.06854274 -0.061321598
0001c0 3a d6 80 3c e4 6e 2e 3e 8c b4 8b bd 22 89 2d bc
       0.015727151 0.17034489 -0.06821546 -0.010591777
0001d0 63 d8 46 bd 19 8d 69 ba 63 d0 84 ba f3 2f d6 bd
       -0.048546206 -0.000890927 -0.0010132905 -0.10458364
0001e0 77 06 a8 bd 56 73 c0 bc fc 06 63 bd 9a f8 fe bd
       -0.08204358 -0.023492496 -0.055426583 -0.12449761
0001f0 3a 7f 3e bd 5e 35 57 bd 1a 5a 9a 3d 0f 93 7f bd
       -0.04650805 -0.05254113 0.07536717 -0.062396105

Q2.moduleList.0.linear_1.weight f4 [128, 20]
000000 20 e6 22 bc 9f a2 92 3e ab 67 4b be 09 84 41 3f
       -0.009942561 0.28639695 -0.19863765 0.75592095
000010 02 4f f3 3e a0 12 66 3d 05 ea 2a 3d 00 e6 3a 3e
       0.47521216 0.056170106 0.041727085 0.182518
000020 c6 08 ab bd 02 e2 71 bd 0f 9b 3c be b1 a0 0b be
       -0.08351283 -0.05905343 -0.18418525 -0.13635518
000030 10 af fb bd 74 10 ff bd cb a1 4a be 1d a9 78 bb
       -0.1228925 -0.1245431 -0.19788282 -0.0037942596
000040 65 ed 4b 3e 79 e9 26 3e 06 71 05 be 4e 01 cd bc
       0.19914778 0.163 -0.13031396 -0.025025036
000050 1a e0 92 3d 8f c0 2e 3e 09 89 1d bd 6a 8d 68 3f
       0.0717165 0.17065643 -0.038460765 0.9084078
000060 61 5f db 3e cb da 83 3c 55 73 38 3e 2f 45 46 be
       0.42846206 0.01609554 0.18012746 -0.19362329
000070 ab 94 51 be a8 1a f7 bd e9 ed 48 be fa e0 ed 3d
       -0.20466869 -0.12065631 -0.19622006 0.116151765
000080 8e 41 b4 bd 20 3a b6 bd 77 f2 5b be 7f ef 46 bd
       -0.08801566 -0.08897805 -0.21479212 -0.048568245
000090 19 ef ef bd 06 fa d2 3d ad 7f 0e 3e c6 4a e5 3d
       -0.11715526 0.103015944 0.13915892 0.111959025
0000a0 2a 0e 38 3c c3 59 e0 bd e4 0e 14 3d ad 22 4c be
       0.011233846 -0.10954621 0.036147013 -0.19935103
0000b0 90 e2 1d be 9d 92 e1 bd aa 1e 0a 3e 6f 0b 00 3e
       -0.15418458 -0.110142924 0.1348826 0.12504362
0000c0 8b 21 c2 bd c6 30 fc bb 90 e5 0b 3e 13 5b 59 3e
       -0.09479054 -0.007696244 0.1366179 0.21226148
0000d0 7a 79 ad 3d 19 6d ec 3c 65 a0 12 3e df 9c 00 be
       0.084704354 0.028860616 0.14318998 -0.12559842
0000e0 a8 15 23 3d 48 93 29 be 9d bf 17 be 69 06 e2 bd
       0.039815575 -0.1656009 -0.14819188 -0.11036379
0000f0 67 a6 c5 3d 9c 9c 02 3e db 3d 00 be 88 2c 12 3f
       0.09650879 0.12755054 -0.12523596 0.570992
000100 f2 4b 93 3e fb ae a6 bc 97 ce 6a 3c d0 38 37 3d
       0.2876888 -0.020347109 0.014331481 0.044731915
000110 97 93 f0 3d 2f b8 21 3e 88 7b 08 be ab f7 5b bd
       0.117469005 0.15792917 -0.13328373 -0.05370299
000120 f3 40 cd 3d de ba 4e 3e bf 7a 25 3e ae 75 ec 3d
       0.10022154 0.20188472 0.16160105 0.11545883
000130 35 e6 98 bd cf 27 86 be a8 e5 e0 ba 5e 44 82 bd
       -0.074657835 -0.26202247 -0.0017158287 -0.06360696
000140 4b 6e 32 be 81 b7 54 3e 9a 32 35 3e 39 25 a9 be
       -0.17424886 0.20773126 0.17695084 -0.3303621
000150 8f cb fd 3d d5 33 87 bc 95 e3 19 bc 31 3a 5a bd
       0.12392341 -0.016504208 -0.009392639 -0.053278152
000160 c8 6b 8d 3d 5e 22 ee bd c2 8e 52 3d 0d 79 81 3d
       0.06905323 -0.11627649 0.051405676 0.06321917
000170 7e c3 82 3e cd 84 89 3d 81 e8 62 be 14 07 05 be
       0.25539774 0.06714783 -0.22159006 -0.12990981
000180 83 3a a2 3d 8d 79 d3 3d e8 dc 4b be da 4e 86 bd
       0.079213165 0.10325918 -0.19908488 -0.065580085
000190 e5 5c 35 3e 85 b1 89 3e df 37 1c be f4 9a 43 3f
       0.17711218 0.2689325 -0.15255688 0.76408315
0001a0 73 ed 6a 3e 76 51 6f bc fd ab 5b be 3d b0 af be
       0.22942142 -0.014606824 -0.21452327 -0.34314147
0001b0 bf 10 36 3e 6a d2 07 3d 30 9e 93 3d f4 d5 bd 3e
       0.17779826 0.03315965 0.07207906 0.37077296
0001c0 c5 7c 57 3c 95 2c 38 3e 6a 57 27 bd ca c8 d9 be
       0.013152306 0.17985757 -0.04085485 -0.42536002
0001d0 96 d9 f2 be e2 74 a8 be 50 74 51 3c 7e 06 bb 3d
       -0.4743163 -0.32901675 0.012784079 0.09132098
0001e0 c0 13 a5 3d bc 79 1e 3c 84 bd db bd 5e b9 d1 3d
       0.08060408 0.009672578 -0.107295066 0.10240434
0001f0 bd 46 4f be df c1 04 be 32 23 4e bd d9 33 db bd
       -0.20241828 -0.12964581 -0.050326534 -0.107032485
000200 c5 2a 99 bd 0b 83 36 be f7 0a 3a bd e9 eb 3a 3d
       -0.07478861 -0.17823426 -0.045420613 0.045635138
000210 9e 59 0e be 64 bc 33 bc b5 7c 1c 3e b3 06 b4 bc
       -0.13901374 -0.010970209 0.15281947 -0.02197585
000220 a5 a5 c2 3b 18 21 97 bc 83 82 24 3d 9e f0 07 3e
       0.0059401565 -0.018448398 0.04016353 0.13275382
000230 1c 6d 48 3e 41 1a 59 3e 15 b7 5d 3e 8e 94 80 3e
       0.19572872 0.21201421 0.21651872 0.25113338
000240 1f d5 81 bd f5 22 f4 bd 26 f3 2b 3e 22 3e 3a 3c
       -0.06339478 -0.1192073 0.16791973 0.011367353
000250 fb af 5e be d9 33 d3 be a5 a8 00 bf 42 4c 63 be
       -0.21746819 -0.41250494 -0.5025733 -0.22197059
000260 c1 c0 33 bc b0 59 52 3e 0e 4a 31 3c 7d 56 76 be
       -0.010971249 0.20542026 0.010820879 -0.2405643
000270 3f 1f ad 3e 59 e4 a3 bd 38 8b ca 3d 84 3e 2a bc
       0.338129 -0.08002538 0.09889835 -0.010390881
000280 fa 8e 28 bd 1d b0 2b bd 09 59 44 be fb bc 3c be
       -0.041151978 -0.041916 -0.19174589 -0.18431465
000290 d5 15 09 bd 2d 23 35 3b a5 ba c6 bd e7 eb a4 3d
       -0.033468086 0.0027639375 -0.09703568 0.08052807
0002a0 74 ec 44 be 96 35 6c bc c6 65 40 3e 35 84 b2 bd
       -0.19230825 -0.014417073 0.18788823 -0.08716623
0002b0 bd 8c 45 3e ad 42 9e 3d 3a 6f 45 be 7b 7b 0a 3e
       0.19291969 0.07727561 -0.19280711 0.13523667
0002c0 a7 d5 c9 bc 20 62 c3 bd ac d2 2e 3e 83 c1 30 be
       -0.02463801 -0.095402 0.17072552 -0.17261319
0002d0 3e c6 3e 3c c9 88 41 bd 9a eb 16 3e bc 9c 4c 3f
       0.011643944 -0.04724959 0.14738312 0.7992666
0002e0 f2 25 e8 3e d3 b9 85 3d 66 55 87 bd 66 f0 dd 3d
       0.4534145 0.06529584 -0.06608085 0.10836868
0002f0 27 7d d4 be 9e 22 a5 3d 82 b2 74 3c 10 09 08 3c
       -0.41501734 0.08063243 0.014935138 0.008302942
000300 3c 20 54 be 75 e5 5b bd 6a 68 22 be 84 1f be bc
       -0.20715421 -0.053685624 -0.15860143 -0.023208387
000310 47 17 a0 3d 67 72 17 3e 44 64 d4 bc 71 c5 45 3c
       0.0781694 0.14789735 -0.025926717 0.0120709995
000320 df 51 4b bb ee c8 29 3e ce ee 36 be 9c 6c 06 bf
       -0.003102414 0.16580555 -0.17864534 -0.52509475
000330 39 ba a7 be cb cf 10 3e 61 22 ea bd 0a a8 3c 3d
       -0.32759264 0.14141767 -0.114323385 0.046058692
000340 a7 e6 8f 3e d4 8e 60 3e 78 c8 3d 3e a1 d4 55 3d
       0.2810566 0.21929485 0.18533504 0.05220473
000350 fb 12 5b 3d d7 2a 83 bd f8 98 19 bd ac 01 29 be
       0.053484898 -0.064046554 -0.037499398 -0.16504544
000360 52 e9 fc be c7 99 be be 6b e9 d4 3d dc ba b5 bd
       -0.4939676 -0.37226698 0.103960834 -0.08873531
000370 6a 79 39 bd 46 bb a2 3e 10 eb 80 3c 40 2e c9 3e
       -0.045281805 0.31783503 0.015737087 0.39293098
000380 cf ba 22 3e 80 d2 b1 3d 91 cc 4c be 06 7a 3a be
       0.15891574 0.08682728 -0.19999911 -0.18210611
000390 7e db fa 3d 67 91 2f 3e cc 12 8e 3e 2b 12 aa 3e
       0.12248896 0.1714531 0.27748716 0.33216986
0003a0 bf f5 f0 bc b9 03 aa bd ed b4 bd 38 c8 a4 6a bd
       -0.029414056 -0.08301491 9.045922e-05 -0.057286054
0003b0 b0 cb ae be ce 3e 0a bf a7 0b 63 bd 60 79 35 3d
       -0.34139776 -0.5400208 -0.055431034 0.044305205
0003c0 3c 50 90 3d 11 32 24 3e e2 c6 8c bd 4d 66 b3 39
       0.070465535 0.16034724 -0.068738714 0.0003421776
0003d0 f9 44 e1 3d ae 93 53 be a5 f8 1d 3e 4a fb 34 be
       0.109994836 -0.20661804 0.15426882 -0.17673984
0003e0 bc 01 41 3b fd d1 14 bd 4e 5b e6 bd 59 38 e7 3c
       0.0029450497 -0.036333073 -0.11247884 0.02822511
0003f0 18 fb 34 3e 5a 5b 7f bd 9c bb 01 be a2 c7 a1 bd
       0.1767391 -0.06234298 -0.12669224 -0.07899405

Q2.moduleList.0.linear_1.bias f4 [128]
000000 71 6e 2d be a0 2e 3c be 93 3f 11 3e 41 6f a0 bd
       -0.16936661 -0.18377161 0.14184408 -0.0783372
000010 64 5a 74 3b ac 66 83 3d 78 73 09 be 99 4e 0c bd
       0.0037285322 0.064160675 -0.13422954 -0.034254644
000020 2b fd 01 3e 35 83 2e be 85 8b cb 3d ff eb 0d 3d
       0.12694232 -0.17042239 0.099387206 0.03464889
000030 97 90 f0 3d 55 40 11 3e 17 1c 40 3d 5f 89 d3 3b
       0.11746328 0.14184697 0.04690179 0.006455585
000040 f3 b4 86 be 7d a8 09 3e eb f7 21 3e 5a c4 b4 bd
       -0.26309928 0.1344318 0.1581723 -0.088265136
000050 56 77 4e be 8d 46 31 3e b6 e9 06 be 7f 0b 00 bd
       -0.2016271 0.17312069 -0.13175091 -0.031260964
000060 13 47 59 bd f1 84 0b 3e d3 c6 6f 3e 58 40 e8 3d
       -0.053046297 0.13624932 0.23415689 0.113403976
000070 07 a1 62 bd 23 5a 19 3e 91 73 d5 3d 43 aa aa 3c
       -0.05532935 0.1497579 0.10422433 0.02083314
000080 46 c7 2b be 99 c4 88 bd 51 e0 57 be 84 3f 12 3e
       -0.16775236 -0.06678123 -0.21081664 0.14282042
000090 a0 f0 5f 3e 77 a1 ca 3d 07 ca 8b 3d c8 ce 4e 3d
       0.21869135 0.09894078 0.06825643 0.05049017
0000a0 ff 16 35 3e 2b 51 df bd ee d8 92 bd f1 5b 31 be
       0.17684554 -0.109041534 -0.07170282 -0.17320229
0000b0 50 e6 89 3c a4 78 31 bd a8 8c 6f 3d 11 1e 0d be
       0.016833454 -0.043327942 0.05848375 -0.13781
0000c0 67 27 0a bd 38 5d 34 be cf 69 0d be fd 14 e4 3c
       -0.033728983 -0.17613685 -0.13809894 0.02784204
0000d0 35 52 5a be ed e1 68 3d 12 6f 4a be ed ee 3e be
       -0.21320422 0.056856085 -0.19768932 -0.1864583
0000e0 f5 a0 35 bd cf d6 50 be 61 a6 30 3e 9b 55 33 3e
       -0.044342954 -0.20394443 0.17250969 0.17513125
0000f0 0a e6 2e be 68 40 eb 3c ed df df 3d 80 6e 63 3d
       -0.1707994 0.028717235 0.10931382 0.055525303
000100 e8 57 ea bc e4 10 2a be 9e 92 09 3e a0 dd 3f be
       -0.02860637 -0.16608006 0.13434836 -0.18736887
000110 3f 22 27 bd d6 2e ea 3b fa 21 f4 bd 90 ca 7e bd
       -0.040804144 0.0071466966 -0.11920543 -0.062204897
000120 45 e4 17 be e3 e4 40 3c e3 03 83 bd 24 9f 2f 3e
       -0.14833172 0.011773321 -0.06397226 0.17150551
000130 3c f8 00 be e5 49 2b 3e 5b d3 25 3c 23 9b c4 bd
       -0.12594694 0.16727407 0.010121192 -0.095999025
000140 12 16 11 bd 7a d0 81 bd 28 a5 5c bc aa b8 33 bd
       -0.03542144 -0.06338592 -0.013467111 -0.04387728
000150 f0 b2 81 3d fb 42 34 3e 0f 6b ac 3c 98 49 9e 3d
       0.06332958 0.17603676 0.021047143 0.07728881
000160 3d 30 07 3e 8f 15 d2 3c 8c 17 9b 3d 0d 72 e5 3d
       0.13201995 0.025645046 0.075728506 0.11203394
000170 95 aa 4c 3e 07 9a 47 be e2 98 9d 3d eb de b3 3b
       0.19986947 -0.1949235 0.07695176 0.0054892204
000180 ed 12 b2 bd 76 2f e8 bd 8a 93 cc 3d 36 61 44 3e
       -0.08695016 -0.113371775 0.09989078 0.19177708
000190 c9 a0 48 be ba d9 1a 3e 7d 99 07 3e b4 a3 ad 3d
       -0.19592585 0.15122119 0.13242145 0.084784895
0001a0 ac 09 25 3b aa 3d 89 3d 14 31 3a 3d 12 1e 5a bd
       0.0025182767 0.067012146 0.04545696 -0.053251334
0001b0 03 88 59 bd 90 88 b8 3d 6c da aa 3d 35 13 41 bb
       -0.053108227 0.09010422 0.08342442 -0.0029460911
0001c0 0a 98 a5 3d 49 a2 6b 3d 9f 34 31 be e4 e7 59 3d
       0.0808564 0.057527814 -0.1730523 0.053199664
0001d0 7b f3 93 3d 5f bc c7 bc 9d 79 a4 bc 28 ec e5 3d
       0.072241746 -0.024381815 -0.020077521 0.11226684
0001e0 00 3e 7a be f6 a5 c7 bd af 5c 8b bd 88 64 3b 3e
       -0.24437714 -0.097484514 -0.06804787 0.18300068
0001f0 c5 9a 53 be 29 ef 81 3c 0c eb 53 be c1 20 e6 bb
       -0.20664509 0.01586111 -0.20695132 -0.0070229475
