experiments/bgame_intent_pre_dstb/v2/model/central/central-500000.pth (torch, 295027 bytes, 14 tensors)

Q1.moduleList.0.linear_1.weight f4 [128, 22]
0	0xbd57115f	-0.0525068
1	0xbe083bab	-0.13304012
2	0xbe2afa6a	-0.16697088
3	0xbc48f8d8	-0.01226636
4	0xbdf53288	-0.11972529
5	0xbd510da7	-0.05103841
6	0xbdbb171d	-0.09135268
7	0xbe326388	-0.1742078
8	0x3dde27c1	0.10847426
9	0x3d1586fe	0.03650569
10	0xbd66aabe	-0.056315176
11	0xbd109f4a	-0.03530816
12	0x3e20ca0b	0.15702073
13	0xbe1e3258	-0.15448892
14	0xbd693c60	-0.056942344
15	0xbc93795b	-0.018002203
16	0x39c6c169	0.00037909605
17	0xbe040e19	-0.12896003
18	0xbdcb576f	-0.09928786
19	0x3e23f5e4	0.16011769
20	0xbe1108e8	-0.14163554
21	0xbd3be0f7	-0.04586884
22	0x3e025146	0.12726316
23	0xbe5f5904	-0.218113
24	0x3d6755a1	0.056478146
25	0x3c96a00d	0.018386865
26	0x3dab8f2f	0.083769195
27	0xbd954340	-0.072882175
28	0x3d0fccfa	0.03510759
29	0x3c9dd555	0.019266764
30	0x3e8287f9	0.25494364
31	0x3d7c2d8d	0.061566878
32	0xbd9e4945	-0.07728819
33	0x3e902fff	0.28161618
34	0x3e2ebe2d	0.17064734
35	0x3e11b594	0.14229423
36	0x3cf32607	0.029681219
37	0xbf040d9a	-0.51583254
38	0xbd8143cf	-0.063117616
39	0xbe6f408e	-0.2336447
40	0xbd7f9916	-0.062401854
41	0x3e0468ac	0.12930554
42	0x3d46f24a	0.04857091
43	0xbc774efa	-0.015094513
44	0x3db9b868	0.09068376
45	0x3d23a00a	0.039947547
46	0xbd7c24dc	-0.06155859
47	0x3ecfa263	0.4055358
48	0x3e46a8d2	0.19400337
49	0x3dec8626	0.11549024
50	0x3da1f12d	0.07907329
51	0x3e051def	0.129997
52	0x3e326fa0	0.17425394
53	0x3e888a0d	0.26667824
54	0x3e08cb65	0.13358839
55	0xbc44d0c4	-0.012012664
56	0xbe7848f6	-0.24246582
57	0xbd70b883	-0.058769714
58	0xbddb223d	-0.1069989
59	0xb9e63b7c	-0.00043913338
60	0x3d613e42	0.054991014
61	0xbdad8aa5	-0.0847371
62	0x3c46e993	0.012140649
63	0x3d626594	0.055272654
64	0x3decef73	0.11569109
65	0x3cf50ced	0.02991339
66	0x3cfde7ef	0.030994384
67	0x3de91db9	0.11382622
68	0xbe7eda53	-0.24887972
69	0x3ea7f12f	0.32801196
70	0x3e68c646	0.22731885
71	0xbd434df3	-0.04768176
72	0xbde372d7	-0.11105888
73	0x3d2c29d7	0.04203209
74	0x3c192b50	0.009348705
75	0x3d9b4d2a	0.07583077
76	0x3d56712a	0.052354015
77	0xbe2a42d7	-0.1662706
78	0xbcc2e928	-0.023792818
79	0x3df4bf42	0.11950542
80	0x3d7387f8	0.05945584
81	0xbd77d271	-0.060503427
82	0x3e5fc420	0.2185216
83	0x3b87d724	0.00414552
84	0xbd1c9661	-0.03822935
85	0xbdee17fe	-0.1162567
86	0xbdc61108	-0.09671217
87	0x3dcfadab	0.101405464
88	0x3d5a2422	0.053257115
89	0x3ce5314c	0.027977608
90	0x3dd8547e	0.105629906
91	0x3f118858	0.5684867
92	0x3ec64500	0.38724518
93	0x3de88942	0.11354305
94	0x3e3db94e	0.1852772
95	0xbe168ece	-0.14702913
96	0x3e241c1c	0.16026348
97	0x3e02b020	0.12762499
98	0xbde39e0d	-0.1111413
99	0xbc0bc7fd	-0.008531568
100	0x3e53e64e	0.20693323
101	0x3db9c83b	0.09071394
102	0x3dc8f88c	0.098130316
103	0xbe8a3ba5	-0.2699863
104	0xbe1f258b	-0.15541665
105	0xbd8d513b	-0.06900259
106	0x3e407067	0.18792878
107	0x3d087699	0.03331623
108	0x3ab6b614	0.0013939762
109	0xbdbcc4cc	-0.092172235
110	0x3d4d605b	0.05014072
111	0x3deeebd3	0.11666074
112	0xbdf68424	-0.120369226
113	0x3f771162	0.965109
114	0x3f16f6ea	0.5897051
115	0x3d055dde	0.03256022
116	0xbdde5aa4	-0.10857132
117	0xbe59b312	-0.21259716
118	0x3e37bfca	0.17944255
119	0xbd7d932d	-0.061907936
120	0x3c4eb337	0.01261597
121	0x3dc0aac8	0.09407574
122	0x3e0baf43	0.13641076
123	0x3dd620f3	0.10455503
124	0x3bcd41bc	0.0062639397
125	0xbecba17a	-0.39771634
126	0xbeaea1e0	-0.34107876
127	0x3d97d740	0.074141026
128	0x3dd4b20e	0.10385524
129	0xbd4834c7	-0.048878457
130	0xbbd5233b	-0.006504444
131	0xbe1c4c03	-0.15263371
132	0xbe0d831b	-0.13819544
133	0xbe26ee64	-0.16301876
134	0xbdb91b52	-0.09038414
135	0xbe345117	-0.17609058
136	0x3e3cc5f4	0.18434888
137	0xbe45befd	-0.19311137
138	0x3d33774c	0.043814942
139	0x3e3e7ea1	0.18602993
140	0x3b4aac13	0.0030925318
141	0x3cb9eca8	0.022695854
142	0xbe2b39c9	-0.16721262
143	0x3e045aa8	0.12925208
144	0x3e40b65d	0.18819566
145	0xbd29866f	-0.04138797
146	0x3d53d80b	0.051719707
147	0x3e00971f	0.12557648
148	0x3e0ae38f	0.13563369
149	0x3dd84f1d	0.10561965
150	0x3e380124	0.17969185
151	0x3d8ff845	0.070297755
152	0x3dec75ba	0.11545892
153	0xbe18db80	-0.14927483
154	0x3e043b98	0.12913358
155	0x3e09d361	0.13459541
156	0xbde4e46a	-0.11176379
157	0x3f17e948	0.59340334
158	0xbdbd610d	-0.092470266
159	0xbd214d51	-0.039380375
160	0xbc5a4441	-0.013321937
161	0xbde76d4d	-0.11300144
162	0x3ee7b5e9	0.45255974
163	0xbde37520	-0.11106324
164	0x3e6e7c6d	0.23289652
165	0x3ea5aabd	0.32356825
166	0x3e12c803	0.14334111
167	0x3e9212d5	0.28529993
168	0xbd951602	-0.07279588
169	0xbf1fcadc	-0.62418914
170	0xbec37418	-0.3817451
171	0xbe96b1e3	-0.29432592
172	0xbd8bc940	-0.06825495
173	0xbca2f51e	-0.019892272
174	0x3d4bbab5	0.049738605
175	0xbd917162	-0.07101704
176	0x3ceb0e94	0.028693475
177	0xbe4246e4	-0.18972355
178	0xbdd808ae	-0.105485305
179	0xbf8f52a0	-1.119709
180	0xbee353f6	-0.44399995
181	0x3c9b8a53	0.018986857
182	0x3e5b82b7	0.21436583
183	0x3e86e08f	0.263432
184	0x3d321e0e	0.043485694
185	0x3e679204	0.22614294
186	0xbdb46110	-0.08807576
187	0x3e5e5ce9	0.2171513
188	0x3d534943	0.05158354
189	0xbd8763f2	-0.0661086
190	0xbdec3985	-0.115344085
191	0x3e5ecdba	0.21758166
192	0x3d7470e3	0.05967797
193	0x3e2c17cf	0.16805957
194	0xbcb8e53a	-0.022570241
195	0x3db5cbf4	0.088767916
196	0xbdd6afec	-0.10482773
197	0x3dbc2a1f	0.091877215
198	0x3be159cf	0.006877161
199	0xbdf8824c	-0.12134227
200	0x3d910454	0.07080904
201	0xbd648c61	-0.05579794
202	0xbe531042	-0.2061167
203	0x3c01ad1d	0.007914809
204	0xbb42987c	-0.0029692939
205	0x3e549eef	0.20763753
206	0xbeb7cd33	-0.35898742
207	0xbedb78ca	-0.42865592
208	0xbf1afcad	-0.605418
209	0xbecebc8e	-0.4037823
210	0xbdec264c	-0.11530742
211	0xbe2847a7	-0.16433583
212	0xbe2089cc	-0.15677565
213	0x3e20502b	0.15655582
214	0x3f402d88	0.75069475
215	0x3efec0bc	0.4975642
216	0x3dfd0f9f	0.12356495
217	0xbd903845	-0.070419826
218	0xbce37b5e	-0.027768787
219	0xbd45c801	-0.04828644
220	0xbde4861e	-0.11158393
221	0xb90aeb08	-0.00013248262
222	0xbe45139f	-0.19245766
223	0x3df7e54a	0.1210428
224	0xbe35f34f	-0.17768596
225	0xbd5ae083	-0.053436767
226	0x3d79f031	0.06102008
227	0xbe22ba01	-0.15891267
228	0x3dd45b37	0.1036896
229	0x3e27244e	0.16322443
230	0xbdc4fe9a	-0.09618874
231	0x3e254262	0.16138604
232	0xbe2d240e	-0.16908285
233	0x3c5681f0	0.013092503
234	0xbe43f886	-0.19137773
235	0x3bf84b67	0.007577348
236	0xbd662763	-0.056189906
237	0x3dd5e8bd	0.10444782
238	0x3d0baf0f	0.034102496
239	0xbcd02372	-0.025407527
240	0xbd963694	-0.07334629
241	0x3d9fcc5b	0.078026496
242	0xbd366fc8	-0.044540197
243	0xbe42828d	-0.18995114
244	0x3dc5c1a1	0.096560724
245	0x3c71cd93	0.014758485
246	0x3d6bc0cf	0.057556923
247	0xbdee7fbf	-0.116454594
248	0xbb8407a6	-0.004029232
249	0xbd692d9c	-0.056928262
250	0x3cb4fe9c	0.022094063
251	0x3e0349b6	0.12821087
252	0x3e32a909	0.17447294
253	0x3c5e358e	0.013562573
254	0x3e473e09	0.19457258
255	0x3e340c91	0.17582919

Q1.moduleList.0.linear_1.bias f4 [128]
0	0x3e026a85	0.12735946
1	0xbe444070	-0.19165206
2	0xbd7e1a09	-0.062036548
3	0x3dc9c1b8	0.09851402
4	0xbd829088	-0.063752234
5	0x3da7b229	0.08188278
6	0x3d8923ea	0.06696303
7	0x3c09a87d	0.008401987
8	0x3d2f0c87	0.042736556
9	0xbe0a2b3d	-0.13493057
10	0xbd2581b7	-0.04040691
11	0xbc8e4c6a	-0.017370421
12	0xbd42238f	-0.047397193
13	0xbd93a4c3	-0.0720916
14	0x3de2dbde	0.110770926
15	0x3e435b26	0.19077739
16	0x3d121378	0.035663098
17	0x3d2f4c11	0.042797152
18	0xbe2ac2e3	-0.16675906
19	0x3dde3eec	0.10851845
20	0x3e264343	0.16236596
21	0xbdaef793	-0.08543315
22	0xbd4682f9	-0.04846475
23	0x3e327209	0.17426313
24	0x3bb30c5c	0.00546412
25	0x3e0ab659	0.13546123
26	0xbdb46c53	-0.08809724
27	0xbe338820	-0.17532396
28	0xbd96ce88	-0.073636115
29	0xbe8b32ee	-0.27187294
30	0xbdaba3f8	-0.08380884
31	0x3e1606b3	0.14650993
32	0xbe2f69fd	-0.17130275
33	0x3e2176a6	0.15767917
34	0x3e36f17e	0.1786556
35	0x3e63c146	0.22241697
36	0xbe551a56	-0.20810828
37	0xbe669acf	-0.22519992
38	0xbd8decfc	-0.06929967
39	0x3d1f6416	0.03891381
40	0xbddb0819	-0.10694904
41	0x3e0bef03	0.13665394
42	0x3e35933b	0.17731945
43	0x3d527441	0.0513804
44	0xbcf201fd	-0.029541964
45	0xbe3618c0	-0.17782879
46	0x3db46c6b	0.088097416
47	0x3cd48b8a	0.025945444
48	0x3e68b207	0.22724162
49	0x3daab3b3	0.08335056
50	0x3d05476b	0.032538813
51	0xbe1054c5	-0.14094837
52	0x3e163abf	0.14670847
53	0xbd1e4d2f	-0.038647827
54	0x3e4cb25a	0.1998991
55	0x3df7036b	0.12061199
56	0xbdd1b7dd	-0.10240147
57	0xbe3b565d	-0.18294664
58	0xbe3bd467	-0.18342744
59	0xbd868d0a	-0.0656987
60	0xbdd0dd26	-0.10198431
61	0x3d5c33e6	0.05376043
62	0x3dc7672b	0.097364746
63	0xbe07cfa6	-0.13262805
64	0xbda3712a	-0.07980569
65	0xbe25a824	-0.16177422
66	0x3da29446	0.07938437
67	0xbda143c1	-0.07874251
68	0x3d64aa84	0.05582668
69	0xbda97fde	-0.08276342
70	0xbe2a2608	-0.1661607
71	0x3e44b87d	0.19211002
72	0x3c55b759	0.013044202
73	0xbd2578c8	-0.04039839
74	0xbce2def1	-0.027694197
75	0xbe2b1602	-0.16707614
76	0x3e2053fc	0.15657037
77	0xbe11ba7b	-0.14231293
78	0x3d7ac8c7	0.061226632
79	0x3de1c31a	0.11023541
80	0x3d259187	0.04042199
81	0x39e4db20	0.0004365081
82	0xbe1eeaf9	-0.15519322
83	0x3e34882e	0.17630073
84	0x3e1e42c4	0.15455157
85	0xbd158e39	-0.036512587
86	0xbd16cc7b	-0.0368161
87	0x3dc9c83a	0.09852643
88	0xbd8864e9	-0.06659872
89	0x3c67c001	0.014144898
90	0x3e12e2f4	0.14344388
91	0x3cbe6c75	0.023245076
92	0xbcbab889	-0.022793071
93	0x3df62398	0.12018508
94	0xbdc2b6be	-0.095075116
95	0xbde6bda5	-0.112666406
96	0xbd185fe6	-0.03720083
97	0xbdbae955	-0.09126536
98	0x3d67f81c	0.0566331
99	0x3db9f42c	0.09079775
100	0xbd16050e	-0.036625914
101	0x3e005105	0.12530906
102	0x3e07e63b	0.1327142
103	0x3cfc2e03	0.030783659
104	0xbe13d590	-0.14436936
105	0xbe3dc3db	-0.18531744
106	0xbda50fbe	-0.08059643
107	0x3d99a268	0.0750168
108	0xbd95db98	-0.07317275
109	0x3e515192	0.20441273
110	0xbd1f5e87	-0.038908508
111	0x3e24bb72	0.1608713
112	0x3df3f9de	0.11912893
113	0x3da0bc95	0.07848469
114	0x3dad095c	0.08449051
115	0xbcbc9190	-0.023018628
116	0xbe0b89fe	-0.13626859
117	0x3c6a6ada	0.014307702
118	0x3d932cbb	0.07186266
119	0x3e48c1a3	0.19605117
120	0x3d0e745f	0.03477895
121	0x3c21bf72	0.009872304
122	0xbc89b2c2	-0.016808871
123	0x3ddfd26f	0.10928809
124	0xbe102267	-0.14075623
125	0xbc5d740e	-0.013516439
126	0x3e450932	0.19241789
127	0xbd20a035	-0.039215285

Q1.moduleList.1.linear_1.weight f4 [128, 128]
0	0x3ce27c5b	0.027647188
1	0x3c1fb5d5	0.009747942
2	0x3c881d98	0.016615674
3	0x3d67696b	0.05649702
4	0xbda6d9d7	-0.081470184
5	0x3c1136c7	0.008863158
6	0x3d4c3314	0.0498534
7	0xbd90d55c	-0.07071945
8	0x3d8a9471	0.06766594
9	0xbc8f34b9	-0.017481195
10	0xbd26662b	-0.04062478
11	0xbc594a6d	-0.013262373
12	0xbd48df64	-0.049041167
13	0xbd306eba	-0.043074347
14	0xbcba8a74	-0.022771098
15	0x3b8df695	0.0043323734
16	0xbc8055c8	-0.015665904
17	0x3c15044d	0.009095264
18	0xbd8a3abe	-0.067494854
19	0xbbd034b2	-0.006353938
20	0xbc62cd5b	-0.013842906
21	0x3d2259c9	0.039636407
22	0xbc6e1c05	-0.014533048
23	0x3d49a928	0.049233586
24	0x3d07dbd5	0.033168633
25	0xbc540d53	-0.01294263
26	0x3d3fed5c	0.046857223
27	0x3aa66578	0.0012695035
28	0xbd2e4f19	-0.042555902
29	0xbd96e842	-0.073685184
30	0xbc8843b7	-0.016633851
31	0xbcf0b17f	-0.029381512
32	0x3d14d317	0.036334123
33	0x3d6744fc	0.056462273
34	0xbd78d10d	-0.06074624
35	0x3d378aa1	0.04480994
36	0xbd9c160c	-0.076213926
37	0xbc476b97	-0.0121716475
38	0x3d765147	0.060136106
39	0xbc4a7221	-0.012356312
40	0xbc336fe4	-0.01095197
41	0xbc5af9be	-0.013365207
42	0x3d9e0050	0.07714903
43	0xbd0cf5bd	-0.03441404
44	0x3c8b0b20	0.016973078
45	0xbd8163cc	-0.06317863
46	0x3b3a5dbb	0.0028437215
47	0x3d0e2be4	0.034709826
48	0xbd7926af	-0.060827907
49	0x3d8b929d	0.06815074
50	0x3d8e7b6d	0.06957135
51	0xbd9fd75b	-0.07804748
52	0x3d76872c	0.060187504
53	0xbd90986f	-0.070603244
54	0xbc40f732	-0.011777686
55	0xbd9163f3	-0.07099142
56	0x3d4cd4cf	0.050007638
57	0xbd2cbc47	-0.042171743
58	0xbceaf55d	-0.028681451
59	0xbd14afc6	-0.036300443
60	0xbd88d48c	-0.06681165
61	0x3c3ad21e	0.011402635
62	0xbcc73700	-0.024318218
63	0xbd1389d1	-0.036020104
64	0xbd9c606b	-0.07635578
65	0x3d374f3d	0.044753302
66	0x3d13b65e	0.03606259
67	0xbd6c56e8	-0.057700068
68	0x3d1e09b6	0.03858348
69	0xbda6baa0	-0.08141065
70	0x3d6e9e63	0.058256518
71	0x3d82b102	0.06381418
72	0x3d56b89c	0.05242215
73	0x3cdb5543	0.026774054
74	0xbd6b6ef7	-0.05747887
75	0x3d523330	0.051318347
76	0xbd725961	-0.05916727
77	0xbda2cc66	-0.07949142
78	0x3d3ba017	0.04580697
79	0xbd2d54b4	-0.042317107
80	0x3cef000f	0.029174833
81	0xbd98612d	-0.0744041
82	0xbcf289b8	-0.029606685
83	0xbda35817	-0.07975786
84	0xbcb90610	-0.022585899
85	0x3d1f5f0f	0.038909014
86	0xbd3fd4e4	-0.046833888
87	0x3d177154	0.036973312
88	0xbcb5e969	-0.022206025
89	0x3d86da13	0.06584563
90	0xbd7f0861	-0.06226385
91	0xbd820f3a	-0.063505605
92	0xbd93153b	-0.07181784
93	0xbb7824ff	-0.0037863848
94	0xbd9d2069	-0.07672197
95	0x3d73bae7	0.059504416
96	0xbd35616f	-0.044282373
97	0xb9ab9bc0	-0.00032731704
98	0xbc89c046	-0.016815316
99	0x3d728045	0.05920436
100	0x3cf4ec1c	0.029897742
101	0xbd007ec8	-0.031370908
102	0x3d8e1fa7	0.06939631
103	0x3d386e1d	0.045026887
104	0xbd1a9306	-0.03773787
105	0xbd6d04ff	-0.057866093
106	0x3d1c56ab	0.03816859
107	0x3d8f50eb	0.06997856
108	0xbd8e3e29	-0.0694545
109	0xbd94028c	-0.07227048
110	0x3d8f8678	0.0700807
111	0x3d8ec984	0.0697203
112	0x3c8891b6	0.016671043
113	0xbc84fed9	-0.016234802
114	0x3d0fbfa2	0.035094865
115	0xbd95dd83	-0.07317641
116	0x3d380c21	0.044933442
117	0x3c5d4ffd	0.01350784
118	0xbd6bc595	-0.057561476
119	0x3cf07153	0.029350912
120	0x3d85a2f1	0.06525219
121	0x3c814049	0.015777724
122	0x3d193d9e	0.03741228
123	0xbd8425bb	-0.06452509
124	0xbd2a22df	-0.041537162
125	0x3d20881c	0.039192304
126	0xba5ee00a	-0.00085020124
127	0xbd8785d3	-0.06617322
128	0x3cb71f5e	0.022353824
129	0xbd9fd4e4	-0.078042775
130	0xbba43f29	-0.005012412
131	0xbd879564	-0.06620291
132	0x3d04b7a2	0.03240169
133	0xbc6e7ebb	-0.014556582
134	0xbc6e2b7f	-0.014536737
135	0x3d593948	0.053033143
136	0xbda9cec9	-0.08291394
137	0xbc8f549a	-0.017496396
138	0xbda25920	-0.079271555
139	0xbcb1a242	-0.021683816
140	0x3cb88966	0.022526454
141	0x3d5d9dea	0.054105677
142	0xbd348a5c	-0.044077262
143	0xbc3ee94e	-0.011652304
144	0x3c8ef08a	0.017448682
145	0x3bd88f32	0.006608867
146	0xbd6edc28	-0.058315426
147	0xbd8ef6e8	-0.069806874
148	0x3d60b5c3	0.05486084
149	0xbd91b721	-0.07115007
150	0xbd83f616	-0.064434215
151	0x3ccbb144	0.0248648
152	0x3d2f895d	0.04285561
153	0x3d186582	0.03720618
154	0xbd838fa4	-0.06423882
155	0x3b4d2d83	0.0031307645
156	0xbc52cb0d	-0.012865794
157	0xbd6c6a35	-0.057718474
158	0xbda04c1b	-0.07827016
159	0xbd1ca22f	-0.038240608
160	0xbd846ab9	-0.06465668
161	0xbd8d35b4	-0.06895009
162	0xbd742a5f	-0.05961072
163	0xbd2f8b8a	-0.042857684
164	0x3d853bcd	0.06505547
165	0xbd509292	-0.05092103
166	0xbd1c1bb5	-0.03811236
167	0xbd74fda1	-0.059812192
168	0xbd1f8e97	-0.038954344
169	0xbd614543	-0.054997694
170	0x3abc1c5b	0.0014351712
171	0xbc631d7e	-0.013862012
172	0x3c98b375	0.01864026
173	0x3b37b5f1	0.002803203
174	0xbca25667	-0.01981659
175	0x3c5ccfda	0.01347729
176	0x3d88c7ef	0.06678759
177	0x3cb9fb60	0.022702873
178	0x3c04e068	0.008110143
179	0x3cc84a74	0.024449565
180	0xbd80dca1	-0.062920816
181	0xbd8fe09b	-0.07025262
182	0x3d7fec80	0.062481403
183	0x3d998eed	0.07497964
184	0xbd1884c9	-0.03723601
185	0x3d707655	0.0587066
186	0xbbb0ac0a	-0.0053916024
187	0x3d3d80be	0.046265356
188	0x3c6ce4b4	0.014458824
189	0x3d89c053	0.06726136
190	0xbc633ccb	-0.013869475
191	0x3c8562f0	0.016282529
192	0x3bae473e	0.0053185513
193	0xbc6a008d	-0.014282358
194	0xbd879cfd	-0.0662174
195	0x3d494457	0.04913744
196	0x3d4483d5	0.047977287
197	0xbc9bc075	-0.01901267
198	0xbd8a7676	-0.06760876
199	0x3c9bbbce	0.01901045
200	0x3d86701a	0.065643504
201	0x3d542c21	0.051799897
202	0xbda3565d	-0.07975457
203	0x3d6c8d83	0.057752144
204	0x3be14883	0.006875099
205	0x3d18809e	0.037232034
206	0x3d6d068b	0.057867568
207	0x3c6a2ded	0.014293176
208	0xbc930838	-0.017948255
209	0xbd226685	-0.03964855
210	0xbcbc8ec6	-0.023017298
211	0x3d92707f	0.07150363
212	0x3bd70b22	0.0065626064
213	0x3ce20a62	0.027592842
214	0xbd1d100a	-0.038345374
215	0x3d06cd35	0.032910544
216	0xbc931485	-0.01795412
217	0xbbc8d6f2	-0.006129139
218	0x3c8f3414	0.017480887
219	0xbd837c2b	-0.064201675
220	0xbd2527ca	-0.04032115
221	0x3d90f8db	0.070787154
222	0x3bb6d991	0.005580135
223	0x3d893a4e	0.06700574
224	0xbd9795ad	-0.07401595
225	0xbd7be6dd	-0.061499465
226	0xbce692d7	-0.02814619
227	0xbcffb5b3	-0.03121457
228	0x3d79a0e3	0.06094445
229	0x3d4a4fdd	0.04939257
230	0xbd76ea3a	-0.06028197
231	0xbd14400d	-0.036193896
232	0x3cd40603	0.025881773
233	0x3d7204d1	0.059086625
234	0x3d62e21d	0.05539142
235	0x3d081c9b	0.033230405
236	0xbd740841	-0.059578184
237	0xbd758180	-0.059937954
238	0x3d4ca089	0.049957786
239	0x3d9c7fa3	0.07641532
240	0x3d4d70be	0.050156347
241	0xbc4cd0cc	-0.012500953
242	0x3cb18611	0.021670373
243	0xbd7d946b	-0.06190912
244	0x3d938f05	0.07205013
245	0xbd702524	-0.05862917
246	0x3c88d5b6	0.016703468
247	0x3cd4b894	0.02596692
248	0x3d5dc6bc	0.054144606
249	0xbd1174f1	-0.035511915
250	0xbd7f8950	-0.06238681
251	0x3d98f981	0.07469464
252	0xbd86078a	-0.06544407
253	0xbd34bb25	-0.044123787
254	0x3b24352c	0.0025056107
255	0xbd81ac42	-0.06331684

Q1.moduleList.1.linear_1.bias f4 [128]
0	0x3d963209	0.07333762
1	0xbcffb704	-0.031215198
2	0x3b42e5ff	0.002973914
3	0x3d53d48b	0.05171637
4	0x3be3bd73	0.0069500743
5	0xbc48472e	-0.012224002
6	0x3bf94655	0.007607261
7	0xbd14e634	-0.03635235
8	0x3d1ad970	0.03780502
9	0xbd896698	-0.06709021
10	0x3d8299b6	0.06376974
11	0xbcc2a69b	-0.023761084
12	0x3d5a01e7	0.05322447
13	0x3c860c84	0.01636339
14	0xbc166fcc	-0.009181928
15	0xbd9e1c07	-0.077201895
16	0xbd1abde5	-0.037778754
17	0xbc4b0836	-0.012392094
18	0x3c1cd4b9	0.009572201
19	0xbd7641c8	-0.060121328
20	0xbc85ad46	-0.016317975
21	0x3c0e5888	0.0086881
22	0xbb80ec4e	-0.0039344197
23	0x3d4ab534	0.049489215
24	0xbd14140b	-0.036151927
25	0x3e08ec05	0.13371284
26	0x3d89104c	0.066925615
27	0x3e1a1852	0.1504834
28	0xbd667f2d	-0.056273628
29	0x3d624295	0.05523928
30	0xbc9eab2d	-0.019368732
31	0x3d611648	0.05495289
32	0x3d46afbf	0.04850745
33	0x3c9d86b5	0.019229272
34	0x3cd93420	0.026514113
35	0xbda27b12	-0.0793363
36	0xbc975ac5	-0.0184759
37	0xbd72f9ae	-0.059320144
38	0xbd82e192	-0.063906804
39	0xbc322880	-0.010873914
40	0xbd7d41a8	-0.061830193
41	0x3dd0cd32	0.10195388
42	0x3d3456f5	0.04402824
43	0xbd11d9d3	-0.035608124
44	0x3d8866e5	0.066602506
45	0x3e1aee96	0.15130076
46	0x3d7edd70	0.062222898
47	0xbd8ac241	-0.06775332
48	0x3d826876	0.063675806
49	0x3dafa5e3	0.08576562
50	0x3d8c7c3f	0.068596356
51	0xbd3dca1d	-0.04633533
52	0xbd9b810d	-0.07592974
53	0xbc12c43e	-0.008957921
54	0xbcd24a8e	-0.025670316
55	0xbb7e1164	-0.003876769
56	0xbcd9b13b	-0.026573768
57	0x3d298462	0.041386016
58	0xbdc7d600	-0.09757614
59	0x3d1d1440	0.03834939
60	0x3d147ee6	0.036253832
61	0xbcdba39b	-0.026811412
62	0x3d86510c	0.06558427
63	0xbd5f5a6f	-0.054529604
64	0xbd92f40e	-0.07175456
65	0xbdb9017e	-0.09033488
66	0xbd9eedf5	-0.077602305
67	0x3b899a28	0.004199285
68	0x3d7ed1f5	0.06221195
69	0xbe42d901	-0.19028093
70	0x3c23ea55	0.0100046
71	0x3aa6e038	0.0012731617
72	0x3d869705	0.065717734
73	0x3e3ef0a5	0.18646486
74	0xbcca1bfd	-0.024671549
75	0xbd627720	-0.055289388
76	0x3d7ecfa2	0.062209733
77	0x3d7361a3	0.059419286
78	0x3dca2475	0.09870235
79	0x3d4f03ef	0.05054086
80	0x3d827161	0.063692816
81	0x3bbc9718	0.0057553165
82	0x3e29f031	0.16595532
83	0xbd87834b	-0.06616839
84	0x3d79ca73	0.060984086
85	0x3d0ced69	0.0344061
86	0x3cfc48f2	0.030796502
87	0xbbf48c03	-0.0074629798
88	0xbd27a0f8	-0.040924996
89	0x3d267ba6	0.040645264
90	0xbda9ab66	-0.08284645
91	0x3d65d555	0.056111652
92	0xbd2966ed	-0.041357923
93	0xbd7cc12c	-0.06170766
94	0xbdcf487e	-0.10121249
95	0x3d55a31c	0.052157506
96	0x3cbf2aa7	0.023335768
97	0x3cc626c5	0.024188409
98	0xbd7c55b8	-0.061605185
99	0x3d8d3409	0.068946905
100	0xbd0242fa	-0.031802155
101	0x3d57f61d	0.052724946
102	0xbd851afc	-0.064992875
103	0x3d162e43	0.036665212
104	0x3cc199da	0.023632932
105	0x3dd32ba1	0.10311056
106	0x3c7f08aa	0.0155660305
107	0xbde16b91	-0.11006845
108	0xbd9bb95a	-0.076037124
109	0xbdc7ef01	-0.09762383
110	0x3cf98fc1	0.030464055
111	0xbbff7d87	-0.0077969464
112	0xbc7023c8	-0.014656968
113	0xbd176862	-0.03696478
114	0xbd8e1e75	-0.06939403
115	0xbe041b2e	-0.12900993
116	0xbd418a78	-0.047251195
117	0x3d78820d	0.0606709
118	0xbc64b029	-0.0139580155
119	0xbd46d6bd	-0.048544634
120	0xbb829f3a	-0.0039862664
121	0xbbd618e8	-0.006533731
122	0xbcb550ee	-0.022133317
123	0x3d0a188c	0.033714816
124	0xbc3def49	-0.011592695
125	0xbd0a06fd	-0.03369807
126	0x3cc112e1	0.023568572
127	0x3cd42cae	0.025900211

Q1.moduleList.2.linear_1.weight f4 [128, 128]
0	0xbac76f8b	-0.0015215738
1	0x3d7cb745	0.061698217
2	0x3c30b9c3	0.010786477
3	0x3d242e44	0.040083185
4	0x3d3fd2a6	0.04683175
5	0xbd484ae2	-0.04889954
6	0xbd61cf1b	-0.05512915
7	0xbdb42c1c	-0.08797476
8	0x3d90e5e3	0.070750974
9	0xbcf35761	-0.029704751
10	0x3d75df88	0.06002763
11	0xbba4e5b6	-0.0050322665
12	0xbd9202c7	-0.07129436
13	0xbd736dee	-0.05943101
14	0x3d041909	0.032250438
15	0x3d197d98	0.03747329
16	0xbd908cc2	-0.070580974
17	0x3d07c7a8	0.03314939
18	0xbd28072c	-0.041022465
19	0xbd03d18a	-0.032182254
20	0xbd6d940f	-0.058002528
21	0xbd120299	-0.03564701
22	0xbd9c9f97	-0.07647627
23	0xbdadb3dc	-0.08481571
24	0xbd8cda50	-0.06877577
25	0x3d35fe2f	0.04443186
26	0xbc721f5d	-0.014777985
27	0x3bf55936	0.0074874414
28	0xbd83bed5	-0.06432883
29	0xbd66c2b0	-0.056338012
30	0x3cbf1169	0.023323731
31	0xbc92a6af	-0.017901747
32	0x3cbf1128	0.02332361
33	0xbd29d98f	-0.041467246
34	0x3d48d5d1	0.049032036
35	0xbc95dd41	-0.018293979
36	0x37d02ab7	2.4815423e-05
37	0xba8f06e7	-0.0010912091
38	0xbd8fa48c	-0.07013807
39	0x3cfbc668	0.030734256
40	0x3d727045	0.0591891
41	0xbda65715	-0.08122078
42	0x3d4fefb5	0.05076571
43	0xbbc0d462	-0.005884693
44	0x3d8de0ae	0.0692762
45	0xbdd47214	-0.10373321
46	0xbbdcae31	-0.0067346324
47	0xbc508514	-0.012727041
48	0xbcd78964	-0.02631063
49	0xbd8466bd	-0.06464908
50	0x3ca996dd	0.02070182
51	0xbd28d263	-0.041216265
52	0x3c514b26	0.012774264
53	0x3d1d2265	0.03836288
54	0x3d533444	0.051563516
55	0x3d0e1fa1	0.034698132
56	0xbd73af35	-0.059493262
57	0x3d005a66	0.03133621
58	0x3d40b44d	0.04704695
59	0x3d2e01cf	0.042482194
60	0x3c4221cf	0.011848881
61	0xbd233270	-0.039843023
62	0xbc14a749	-0.009073087
63	0x3d4c4843	0.0498736
64	0x3d8053d8	0.06265992
65	0x3d6f7421	0.05846036
66	0xbd9ae333	-0.07562866
67	0xbcc4fa01	-0.024044992
68	0xbda65d8e	-0.08123313
69	0x3c08c0fb	0.008346791
70	0xbb028f91	-0.0019921998
71	0xbc079eca	-0.008277604
72	0x3c665264	0.014057729
73	0xbd9667a1	-0.073439844
74	0x3d0589d9	0.032602165
75	0xbd950c2e	-0.07277714
76	0x3d08d7c7	0.033408906
77	0xbdc3b9c9	-0.0955692
78	0xbd727616	-0.059194647
79	0x3d20c40e	0.039249472
80	0x3c12bc98	0.008956097
81	0xbd679be4	-0.056545153
82	0xbdc4007a	-0.095704034
83	0x3c35091e	0.011049537
84	0xbc9aa8f1	-0.018879386
85	0x3d50132b	0.05079953
86	0xbd2c176a	-0.042014517
87	0xbd5e9ecd	-0.054350663
88	0xbc7c16f7	-0.015386335
89	0xbd702ad7	-0.058634605
90	0xbce7ab5b	-0.02827995
91	0x3cb736f8	0.022365078
92	0xbce221b7	-0.027603967
93	0x3ce11320	0.02747494
94	0x3d3c31ed	0.04594605
95	0xbd6f378d	-0.058402587
96	0xbd814088	-0.063111365
97	0x3d8327a5	0.06404046
98	0xbdad1f54	-0.08453241
99	0x3cddb60c	0.027064346
100	0x3d011ca9	0.031521473
101	0x3cb6b153	0.022301352
102	0x3d40e3d1	0.047092263
103	0x3c881aab	0.016614279
104	0x3babf9fc	0.0052483063
105	0x3d7652c8	0.06013754
106	0xbc2127d6	-0.009836158
107	0xbd9ca479	-0.07648558
108	0x3d3cdec0	0.04611087
109	0xbda76845	-0.08174185
110	0x3d580007	0.0527344
111	0xbd395538	-0.045247287
112	0xbc9607da	-0.01831429
113	0xbd3dbff1	-0.046325628
114	0xbca18fae	-0.019721832
115	0xbd90c983	-0.07069685
116	0xbc6fa441	-0.0146265635
117	0xbd3b11ec	-0.04567139
118	0xbd3658e7	-0.044518378
119	0x3d7edd98	0.062223047
120	0x3da372be	0.0798087
121	0x3d4b3aed	0.049616743
122	0xbd720c95	-0.05909403
123	0xbcc25241	-0.023720862
124	0xbc3e5c3e	-0.011618672
125	0x3d3370f6	0.0438089
126	0x3bbbfca5	0.0057369047
127	0xbd3722a8	-0.044710785
128	0x3d2bfb1d	0.041987527
129	0xbd3f75ad	-0.046743084
130	0x3bfffd0b	0.0078121475
131	0xbce89baa	-0.028394539
132	0x3da1fd09	0.07909591
133	0x3cf576d8	0.029963896
134	0x3c395a78	0.011313073
135	0xbd2b7e4c	-0.041868493
136	0x3d4b2b4a	0.04960183
137	0xbda50bce	-0.08058892
138	0xbbf02ad8	-0.007329326
139	0x3dcf6c98	0.101281345
140	0x3d1757a2	0.036948808
141	0xbbd025bc	-0.0063521545
142	0xbd97c955	-0.07411448
143	0x3d07671a	0.03305731
144	0xbd57781e	-0.052604787
145	0x3d32d59f	0.043660756
146	0xbda16446	-0.07880454
147	0x3d37d6dc	0.04488264
148	0x3d71802a	0.058960117
149	0x3d4d3648	0.050100595
150	0xbd810d44	-0.06301358
151	0x3cb4e8bc	0.022083633
152	0xbd7766e8	-0.060400873
153	0xbd2f8b7f	-0.042857643
154	0xbd0ce4b7	-0.034397807
155	0x3d4d2ba3	0.050090443
156	0x3d5fe982	0.05466605
157	0xbd84a2e6	-0.06476383
158	0x3d219feb	0.03945915
159	0xbb9ae248	-0.004726682
160	0x3c14851c	0.009064939
161	0xbb8cf179	-0.0043012467
162	0xbd442582	-0.047887333
163	0x3c3cd35b	0.011525
164	0x3d9c2057	0.07623356
165	0xbd4a2be1	-0.049358252
166	0xbd2bb263	-0.04191817
167	0x3d618b85	0.055064697
168	0x3d140f2b	0.036147278
169	0x3cafc442	0.021455888
170	0xbce626fa	-0.028094757
171	0xbd918643	-0.071056865
172	0x3d223b21	0.03960717
173	0xbc93827c	-0.018006556
174	0xbcac97f8	-0.021068558
175	0x3cd59964	0.026074119
176	0x3b871d71	0.0041233827
177	0xbd104df6	-0.0352306
178	0x3ce935d9	0.02846806
179	0xbd05f13c	-0.032700762
180	0x3d965b1b	0.07341596
181	0x3c9196ec	0.01777216
182	0xbd8320e9	-0.064027615
183	0x3d248107	0.040162113
184	0xbc1f3b85	-0.00971878
185	0x3d9f733e	0.077856526
186	0xbc02014b	-0.007934879
187	0x3c27e102	0.010246517
188	0xbd933b40	-0.071890354
189	0x3d726d98	0.059186548
190	0x3bfb0d4f	0.0076614986
191	0xbd00ab3b	-0.031413298
192	0x3d9f7ff4	0.07788077
193	0xbcb6e939	-0.022328006
194	0x3c0cb0e1	0.008587093
195	0x3d944974	0.072405726
196	0x3db5ab9a	0.08870621
197	0x3d9ae5b3	0.07563343
198	0x3d43a5ab	0.047765415
199	0x3d5661df	0.05233943
200	0x3c8abb10	0.016934901
201	0x3d836c2e	0.06417118
202	0xbd9fb81d	-0.07798789
203	0xbd8ff0c6	-0.07028346
204	0x3d8a724c	0.06760082
205	0x3d94f813	0.07273879
206	0x3c8f2e9a	0.017478276
207	0xbd1397ce	-0.036033444
208	0xbe420b0d	-0.18949528
209	0xbd83af00	-0.06429863
210	0x3da6ab55	0.08138148
211	0x3d48f5b4	0.049062446
212	0x3db786e8	0.08961278
213	0x3cb7dc8f	0.022444038
214	0xbc0f6828	-0.00875286
215	0x3cf9ba7a	0.030484427
216	0xbd6d2e09	-0.05790523
217	0xbd726277	-0.059175935
218	0x3d23cba8	0.039989144
219	0xba06c8a4	-0.0005141592
220	0xbc350050	-0.011047438
221	0xbcaec5e2	-0.021334592
222	0xbd863809	-0.065536566
223	0x3d905cbd	0.070489384
224	0xbc898716	-0.016788047
225	0xbd684ccb	-0.05671386
226	0x3cab32fe	0.020898338
227	0x3bff5b0e	0.007792837
228	0x3caefa63	0.021359628
229	0x3d0b5acb	0.034022134
230	0x3d6dd99d	0.05806886
231	0x3cff9a44	0.03120149
232	0x3d932952	0.071856156
233	0x3d9a0199	0.07519836
234	0x3d82b493	0.06382098
235	0xbd811d9c	-0.06304476
236	0x3d78ca0b	0.06073956
237	0xbc1b461a	-0.009477163
238	0x3d03d984	0.03218986
239	0xbd33c81e	-0.04389202
240	0x3d91a878	0.07112211
241	0x3ca607a5	0.020267317
242	0xbd177f2f	-0.036986526
243	0x3d6c07f2	0.057624765
244	0xbd318eca	-0.043349065
245	0xbd2e5ba0	-0.04256785
246	0x3d2a2622	0.041540273
247	0xbd6d4bf7	-0.057933774
248	0x3cf22e88	0.029563203
249	0x3d382085	0.044952888
250	0xbd052553	-0.0325063
251	0xbd4f3ff3	-0.050598096
252	0x3ce90834	0.028446294
253	0xbd0f2b52	-0.034953423
254	0x3d90e7f6	0.07075493
255	0xba4c0e82	-0.0007784144

Q1.moduleList.2.linear_1.bias f4 [128]
0	0x3b9c3539	0.004767087
1	0x3de328b2	0.110917464
2	0xbdb79ce8	-0.08965474
3	0x3d054e3b	0.03254531
4	0x3dee40ff	0.11633491
5	0x3deca5a5	0.11555032
6	0xbc510043	-0.01275641
7	0xbdae83fb	-0.08521267
8	0xbda86e63	-0.082241796
9	0xbb691a8d	-0.0035568804
10	0x3d28ab64	0.041179076
11	0xbe473c1b	-0.19456522
12	0xbd60d010	-0.054885924
13	0x3da6b496	0.08139913
14	0x3dabc65a	0.08387442
15	0x3def6eb8	0.1169104
16	0xbd47c7db	-0.04877458
17	0xbe564688	-0.20925343
18	0xbc485fef	-0.012229904
19	0xbcc90689	-0.024539249
20	0x3cebd5ce	0.028788473
21	0x3d9cd8f5	0.07658569
22	0x3c708f22	0.014682563
23	0x3d0710aa	0.032974876
24	0xbd8837cd	-0.06651268
25	0xbcf3dd58	-0.02976863
26	0xbd96fed3	-0.073728226
27	0xbdacbc39	-0.08434338
28	0x3d2865e7	0.041112807
29	0xbcb2fea8	-0.021849945
30	0xbb5ab97b	-0.0033374715
31	0x3d845b45	0.06462721
32	0x3d85b9d1	0.06529582
33	0xbd1b323a	-0.037889697
34	0x3d5b300e	0.053512625
35	0xbd5a7773	-0.053336572
36	0xbdc97cf7	-0.09838288
37	0xbcacf2ec	-0.021111928
38	0x3c5b068c	0.01336826
39	0xbc9b0718	-0.018924281
40	0x3d837dd8	0.06420487
41	0x3cadff2e	0.021239843
42	0x3bdb9a32	0.006701731
43	0x3cba1806	0.022716533
44	0xbccb1cbf	-0.02479398
45	0xbd8771d5	-0.066135086
46	0x3df59404	0.11991122
47	0xbdbfeeca	-0.09371717
48	0x3d042562	0.032262214
49	0x3d8cd884	0.068772346
50	0xbdce9667	-0.10087281
51	0xbc567919	-0.013090395
52	0x3ca22b2c	0.019795977
53	0x3d1a8735	0.0377266
54	0xbd9ae460	-0.0756309
55	0x3dd8210b	0.105531774
56	0x3d10332d	0.035205055
57	0xbe0c03fc	-0.13673395
58	0xbc229140	-0.009922326
59	0xbc9cfb67	-0.019162847
60	0x3da0ffce	0.07861291
61	0x3e0be11f	0.13660096
62	0x3b6560bd	0.0035000287
63	0x3ddeac9d	0.10872767
64	0x3d4a37db	0.049369674
65	0x3dae339a	0.08505936
66	0xbd0fb86d	-0.03508799
67	0x3cc00369	0.023439126
68	0x3d90da1c	0.07072851
69	0x3b28b78c	0.0025744168
70	0xbd3ec4b2	-0.046574302
71	0xbdd0eb4a	-0.10201128
72	0xbd0b928c	-0.034075305
73	0xbceec581	-0.029146912
74	0x3d4332f6	0.047656022
75	0xbd92cfeb	-0.071685635
76	0xbc31c34e	-0.010849787
77	0x3da4fd54	0.08056131
78	0x3cb44e81	0.02201009
79	0xbd97dd24	-0.07415226
80	0xbd628147	-0.05529907
81	0xbdd9a0e9	-0.10626394
82	0xbdb37f4d	-0.08764515
83	0x3d184eb1	0.03718442
84	0xbc0b3a93	-0.008497852
85	0xbe021b4d	-0.12705727
86	0xbe0fb58a	-0.14034095
87	0x3be88759	0.007096213
88	0xbdefc770	-0.117079616
89	0xbc134d68	-0.008990623
90	0xbda0efd1	-0.07858241
91	0xbde933a3	-0.11386802
92	0xbe1f9100	-0.15582657
93	0x3d921e57	0.07134693
94	0xbdbef855	-0.09324709
95	0x3d711fdc	0.058868274
96	0x3d829100	0.06375313
97	0x3dc235ef	0.09482943
98	0x3d29aa26	0.04142203
99	0x3ded773d	0.115950085
100	0xbc7f9deb	-0.015601615
101	0x3cb3caa4	0.021947213
102	0x3c10c266	0.008835411
103	0x3c869073	0.0164263
104	0x3d856720	0.0651381
105	0x3dbfb578	0.09360784
106	0xbd180c01	-0.037120823
107	0x3cb3bfcc	0.021942042
108	0xbda05cad	-0.078301765
109	0x3c9dd3ac	0.019265972
110	0xbd029533	-0.03188057
111	0x3d574d2c	0.05256383
112	0xbd457122	-0.048203595
113	0xbd99e6c2	-0.07514717
114	0x3d5c74ea	0.053822435
115	0xbdc2e38e	-0.09516059
116	0x3d4da0d2	0.0502022
117	0xbce987e8	-0.028507188
118	0xbcf82df7	-0.030295355
119	0x3ddaa4f0	0.106759906
120	0x3d850ea5	0.06496934
121	0x3d15fa3c	0.036615595
122	0xbd03eaa9	-0.03220621
123	0xbdbfa1da	-0.093570426
124	0x3c65d0dd	0.014026848
125	0xbc694e59	-0.014239871
126	0xbd477841	-0.048698667
127	0xbdd3982f	-0.10331761

Q1.moduleList.3.linear_1.weight f4 [1, 128]
0	0xbb30a914	-0.0026956247
1	0xbd4c83a4	-0.04993023
2	0xbd07cfd5	-0.03315719
3	0x3daae203	0.083438896
4	0xbc19488b	-0.0093556745
5	0xbc87b218	-0.016564414
6	0xbd86746f	-0.06565177
7	0x3d885a88	0.066578925
8	0x3d4da5da	0.050206997
9	0xbb19078e	-0.002335045
10	0x3e152419	0.14564551
11	0x3e7a3b36	0.2443665
12	0x3d27d95c	0.040978774
13	0xbde25bfa	-0.110526994
14	0xbd46cf42	-0.0485375
15	0xbdcda379	-0.100409456
16	0x3c88d038	0.016700849
17	0x3de89206	0.11355977
18	0x3d4f2a1d	0.05057727
19	0x3e29a4cc	0.16566771
20	0xbe15d87c	-0.14633363
21	0xbbb29dd1	-0.005450942
22	0xbcc14952	-0.023594532
23	0x3d9d851a	0.07691403
24	0x3d5444b6	0.05182334
25	0xbce83a59	-0.028348135
26	0xbc1fdeef	-0.009757741
27	0xbd3946fd	-0.045233715
28	0x3d3f1a9f	0.046656247
29	0x3e01425d	0.12622972
30	0xba727110	-0.0009248415
31	0xbd94ff6b	-0.072752796
32	0xbe13f55c	-0.14449066
33	0x3da56677	0.08076184
34	0x3e979c25	0.29611316
35	0x3ca2f987	0.019894375
36	0x3ceed4aa	0.02915414
37	0x3cd723d0	0.026262194
38	0x3d73a671	0.059484903
39	0x3d6f84c3	0.05847622
40	0x3d3fbb81	0.046809677
41	0x3d9d64ca	0.076852396
42	0xbdd718ec	-0.105028
43	0x3e029ece	0.12755892
44	0x3af0783a	0.0018346377
45	0xbd0f4a36	-0.034982882
46	0xbe0bb47e	-0.13643071
47	0x3daacaa1	0.0833943
48	0x3eaa4371	0.3325458
49	0x3c81ca87	0.015843643
50	0x3e8a479e	0.27007765
51	0xbd0acec7	-0.033888604
52	0x3e412fab	0.1886584
53	0x39b363e6	0.0003421597
54	0xbc6fd0e2	-0.014637204
55	0xbdbde49d	-0.0927212
56	0xbd8e5c15	-0.06951157
57	0x3daa3236	0.08310358
58	0xbd79d3fb	-0.060993176
59	0x3da52d74	0.0806531
60	0xbdc48aa8	-0.09596759
61	0xbd92507a	-0.07144256
62	0xbc8cdc98	-0.017195031
63	0xbd4867b9	-0.048927043
64	0x3b9cd8e1	0.004786596
65	0xbd9cb435	-0.07651559
66	0x3b37131e	0.0027934979
67	0x3b9ee138	0.0048486255
68	0xbd418916	-0.047249876
69	0xbe35f7c8	-0.17770302
70	0xbeaaf204	-0.33387768
71	0x3d025a92	0.031824656
72	0xbd3323e2	-0.043735392
73	0x3e2c9340	0.16853046
74	0xbe1a3721	-0.15060093
75	0xbdb019c6	-0.08598666
76	0xbda0f146	-0.07858519
77	0x3e25bdcd	0.16185685
78	0x3e5809d9	0.21097507
79	0xbcd977bf	-0.026546357
80	0xbd47ccf2	-0.048779435
81	0x3e2a683d	0.16641326
82	0x3d86b79f	0.06577992
83	0xbd233483	-0.039845
84	0x3d7a25d7	0.061071243
85	0x3d136913	0.03598888
86	0x3d4116c2	0.047140844
87	0x3c812e31	0.015769096
88	0x3d99de04	0.07513049
89	0x3d8ba47a	0.06818481
90	0x3e049ba0	0.12949991
91	0x3dacdffc	0.08441159
92	0x3e665312	0.22492626
93	0xbcacd7a4	-0.02109892
94	0x3d0d5b76	0.034511052
95	0x3ea20ce3	0.31650457
96	0xbc6b4c5e	-0.014361469
97	0xbc4924d5	-0.012276848
98	0xbdf8ab72	-0.121420756
99	0xbd843068	-0.06454545
100	0x3dcd4d4a	0.10024507
101	0x3d6bae2b	0.057539146
102	0xbd124980	-0.035714626
103	0x3dace580	0.08442211
104	0xbd4bee40	-0.04978776
105	0xbe08c238	-0.13355339
106	0xbdc5b184	-0.09652999
107	0xbc64ba4a	-0.01396043
108	0xbe22fbd6	-0.1591638
109	0xb9fbe552	-0.00048045308
110	0x3cf4d0bd	0.02988469
111	0x3e496784	0.19668394
112	0x3d98acd0	0.07454836
113	0x3d40afd1	0.04704267
114	0xbd8cccd3	-0.068750046
115	0x3e036bb6	0.12834057
116	0x3ead78ce	0.3388123
117	0x3d89a458	0.06720799
118	0xbd7c7032	-0.061630435
119	0xbda790b2	-0.08181895
120	0xbe1a44ff	-0.15065382
121	0x3dccaf77	0.09994405
122	0xbd0816de	-0.033224933
123	0x3bf082f4	0.0073398296
124	0x3dd9a4f2	0.10627164
125	0x3e004d66	0.12529525
126	0xbc55e3a4	-0.013054762
127	0x3dd48fad	0.103789665

Q2.moduleList.0.linear_1.weight f4 [128, 22]
0	0xbd57115f	-0.0525068
1	0xbe083bab	-0.13304012
2	0xbe2afa6a	-0.16697088
3	0xbc48f8d8	-0.01226636
4	0xbdf53288	-0.11972529
5	0xbd510da7	-0.05103841
6	0xbdbb171d	-0.09135268
7	0xbe326388	-0.1742078
8	0x3dde27c1	0.10847426
9	0x3d1586fe	0.03650569
10	0xbd66aabe	-0.056315176
11	0xbd109f4a	-0.03530816
12	0x3e20ca0b	0.15702073
13	0xbe1e3258	-0.15448892
14	0xbd693c60	-0.056942344
15	0xbc93795b	-0.018002203
16	0x39c6c169	0.00037909605
17	0xbe040e19	-0.12896003
18	0xbdcb576f	-0.09928786
19	0x3e23f5e4	0.16011769
20	0xbe1108e8	-0.14163554
21	0xbd3be0f7	-0.04586884
22	0x3e025146	0.12726316
23	0xbe5f5904	-0.218113
24	0x3d6755a1	0.056478146
25	0x3c96a00d	0.018386865
26	0x3dab8f2f	0.083769195
27	0xbd954340	-0.072882175
28	0x3d0fccfa	0.03510759
29	0x3c9dd555	0.019266764
30	0x3e8287f9	0.25494364
31	0x3d7c2d8d	0.061566878
32	0xbd9e4945	-0.07728819
33	0x3e902fff	0.28161618
34	0x3e2ebe2d	0.17064734
35	0x3e11b594	0.14229423
36	0x3cf32607	0.029681219
37	0xbf040d9a	-0.51583254
38	0xbd8143cf	-0.063117616
39	0xbe6f408e	-0.2336447
40	0xbd7f9916	-0.062401854
41	0x3e0468ac	0.12930554
42	0x3d46f24a	0.04857091
43	0xbc774efa	-0.015094513
44	0x3db9b868	0.09068376
45	0x3d23a00a	0.039947547
46	0xbd7c24dc	-0.06155859
47	0x3ecfa263	0.4055358
48	0x3e46a8d2	0.19400337
49	0x3dec8626	0.11549024
50	0x3da1f12d	0.07907329
51	0x3e051def	0.129997
52	0x3e326fa0	0.17425394
53	0x3e888a0d	0.26667824
54	0x3e08cb65	0.13358839
55	0xbc44d0c4	-0.012012664
56	0xbe7848f6	-0.24246582
57	0xbd70b883	-0.058769714
58	0xbddb223d	-0.1069989
59	0xb9e63b7c	-0.00043913338
60	0x3d613e42	0.054991014
61	0xbdad8aa5	-0.0847371
62	0x3c46e993	0.012140649
63	0x3d626594	0.055272654
64	0x3decef73	0.11569109
65	0x3cf50ced	0.02991339
66	0x3cfde7ef	0.030994384
67	0x3de91db9	0.11382622
68	0xbe7eda53	-0.24887972
69	0x3ea7f12f	0.32801196
70	0x3e68c646	0.22731885
71	0xbd434df3	-0.04768176
72	0xbde372d7	-0.11105888
73	0x3d2c29d7	0.04203209
74	0x3c192b50	0.009348705
75	0x3d9b4d2a	0.07583077
76	0x3d56712a	0.052354015
77	0xbe2a42d7	-0.1662706
78	0xbcc2e928	-0.023792818
79	0x3df4bf42	0.11950542
80	0x3d7387f8	0.05945584
81	0xbd77d271	-0.060503427
82	0x3e5fc420	0.2185216
83	0x3b87d724	0.00414552
84	0xbd1c9661	-0.03822935
85	0xbdee17fe	-0.1162567
86	0xbdc61108	-0.09671217
87	0x3dcfadab	0.101405464
88	0x3d5a2422	0.053257115
89	0x3ce5314c	0.027977608
90	0x3dd8547e	0.105629906
91	0x3f118858	0.5684867
92	0x3ec64500	0.38724518
93	0x3de88942	0.11354305
94	0x3e3db94e	0.1852772
95	0xbe168ece	-0.14702913
96	0x3e241c1c	0.16026348
97	0x3e02b020	0.12762499
98	0xbde39e0d	-0.1111413
99	0xbc0bc7fd	-0.008531568
100	0x3e53e64e	0.20693323
101	0x3db9c83b	0.09071394
102	0x3dc8f88c	0.098130316
103	0xbe8a3ba5	-0.2699863
104	0xbe1f258b	-0.15541665
105	0xbd8d513b	-0.06900259
106	0x3e407067	0.18792878
107	0x3d087699	0.03331623
108	0x3ab6b614	0.0013939762
109	0xbdbcc4cc	-0.092172235
110	0x3d4d605b	0.05014072
111	0x3deeebd3	0.11666074
112	0xbdf68424	-0.120369226
113	0x3f771162	0.965109
114	0x3f16f6ea	0.5897051
115	0x3d055dde	0.03256022
116	0xbdde5aa4	-0.10857132
117	0xbe59b312	-0.21259716
118	0x3e37bfca	0.17944255
119	0xbd7d932d	-0.061907936
120	0x3c4eb337	0.01261597
121	0x3dc0aac8	0.09407574
122	0x3e0baf43	0.13641076
123	0x3dd620f3	0.10455503
124	0x3bcd41bc	0.0062639397
125	0xbecba17a	-0.39771634
126	0xbeaea1e0	-0.34107876
127	0x3d97d740	0.074141026
128	0x3dd4b20e	0.10385524
129	0xbd4834c7	-0.048878457
130	0xbbd5233b	-0.006504444
131	0xbe1c4c03	-0.15263371
132	0xbe0d831b	-0.13819544
133	0xbe26ee64	-0.16301876
134	0xbdb91b52	-0.09038414
135	0xbe345117	-0.17609058
136	0x3e3cc5f4	0.18434888
137	0xbe45befd	-0.19311137
138	0x3d33774c	0.043814942
139	0x3e3e7ea1	0.18602993
140	0x3b4aac13	0.0030925318
141	0x3cb9eca8	0.022695854
142	0xbe2b39c9	-0.16721262
143	0x3e045aa8	0.12925208
144	0x3e40b65d	0.18819566
145	0xbd29866f	-0.04138797
146	0x3d53d80b	0.051719707
147	0x3e00971f	0.12557648
148	0x3e0ae38f	0.13563369
149	0x3dd84f1d	0.10561965
150	0x3e380124	0.17969185
151	0x3d8ff845	0.070297755
152	0x3dec75ba	0.11545892
153	0xbe18db80	-0.14927483
154	0x3e043b98	0.12913358
155	0x3e09d361	0.13459541
156	0xbde4e46a	-0.11176379
157	0x3f17e948	0.59340334
158	0xbdbd610d	-0.092470266
159	0xbd214d51	-0.039380375
160	0xbc5a4441	-0.013321937
161	0xbde76d4d	-0.11300144
162	0x3ee7b5e9	0.45255974
163	0xbde37520	-0.11106324
164	0x3e6e7c6d	0.23289652
165	0x3ea5aabd	0.32356825
166	0x3e12c803	0.14334111
167	0x3e9212d5	0.28529993
168	0xbd951602	-0.07279588
169	0xbf1fcadc	-0.62418914
170	0xbec37418	-0.3817451
171	0xbe96b1e3	-0.29432592
172	0xbd8bc940	-0.06825495
173	0xbca2f51e	-0.019892272
174	0x3d4bbab5	0.049738605
175	0xbd917162	-0.07101704
176	0x3ceb0e94	0.028693475
177	0xbe4246e4	-0.18972355
178	0xbdd808ae	-0.105485305
179	0xbf8f52a0	-1.119709
180	0xbee353f6	-0.44399995
181	0x3c9b8a53	0.018986857
182	0x3e5b82b7	0.21436583
183	0x3e86e08f	0.263432
184	0x3d321e0e	0.043485694
185	0x3e679204	0.22614294
186	0xbdb46110	-0.08807576
187	0x3e5e5ce9	0.2171513
188	0x3d534943	0.05158354
189	0xbd8763f2	-0.0661086
190	0xbdec3985	-0.115344085
191	0x3e5ecdba	0.21758166
192	0x3d7470e3	0.05967797
193	0x3e2c17cf	0.16805957
194	0xbcb8e53a	-0.022570241
195	0x3db5cbf4	0.088767916
196	0xbdd6afec	-0.10482773
197	0x3dbc2a1f	0.091877215
198	0x3be159cf	0.006877161
199	0xbdf8824c	-0.12134227
200	0x3d910454	0.07080904
201	0xbd648c61	-0.05579794
202	0xbe531042	-0.2061167
203	0x3c01ad1d	0.007914809
204	0xbb42987c	-0.0029692939
205	0x3e549eef	0.20763753
206	0xbeb7cd33	-0.35898742
207	0xbedb78ca	-0.42865592
208	0xbf1afcad	-0.605418
209	0xbecebc8e	-0.4037823
210	0xbdec264c	-0.11530742
211	0xbe2847a7	-0.16433583
212	0xbe2089cc	-0.15677565
213	0x3e20502b	0.15655582
214	0x3f402d88	0.75069475
215	0x3efec0bc	0.4975642
216	0x3dfd0f9f	0.12356495
217	0xbd903845	-0.070419826
218	0xbce37b5e	-0.027768787
219	0xbd45c801	-0.04828644
220	0xbde4861e	-0.11158393
221	0xb90aeb08	-0.00013248262
222	0xbe45139f	-0.19245766
223	0x3df7e54a	0.1210428
224	0xbe35f34f	-0.17768596
225	0xbd5ae083	-0.053436767
226	0x3d79f031	0.06102008
227	0xbe22ba01	-0.15891267
228	0x3dd45b37	0.1036896
229	0x3e27244e	0.16322443
230	0xbdc4fe9a	-0.09618874
231	0x3e254262	0.16138604
232	0xbe2d240e	-0.16908285
233	0x3c5681f0	0.013092503
234	0xbe43f886	-0.19137773
235	0x3bf84b67	0.007577348
236	0xbd662763	-0.056189906
237	0x3dd5e8bd	0.10444782
238	0x3d0baf0f	0.034102496
239	0xbcd02372	-0.025407527
240	0xbd963694	-0.07334629
241	0x3d9fcc5b	0.078026496
242	0xbd366fc8	-0.044540197
243	0xbe42828d	-0.18995114
244	0x3dc5c1a1	0.096560724
245	0x3c71cd93	0.014758485
246	0x3d6bc0cf	0.057556923
247	0xbdee7fbf	-0.116454594
248	0xbb8407a6	-0.004029232
249	0xbd692d9c	-0.056928262
250	0x3cb4fe9c	0.022094063
251	0x3e0349b6	0.12821087
252	0x3e32a909	0.17447294
253	0x3c5e358e	0.013562573
254	0x3e473e09	0.19457258
255	0x3e340c91	0.17582919

Q2.moduleList.0.linear_1.bias f4 [128]
0	0x3e026a85	0.12735946
1	0xbe444070	-0.19165206
2	0xbd7e1a09	-0.062036548
3	0x3dc9c1b8	0.09851402
4	0xbd829088	-0.063752234
5	0x3da7b229	0.08188278
6	0x3d8923ea	0.06696303
7	0x3c09a87d	0.008401987
8	0x3d2f0c87	0.042736556
9	0xbe0a2b3d	-0.13493057
10	0xbd2581b7	-0.04040691
11	0xbc8e4c6a	-0.017370421
12	0xbd42238f	-0.047397193
13	0xbd93a4c3	-0.0720916
14	0x3de2dbde	0.110770926
15	0x3e435b26	0.19077739
16	0x3d121378	0.035663098
17	0x3d2f4c11	0.042797152
18	0xbe2ac2e3	-0.16675906
19	0x3dde3eec	0.10851845
20	0x3e264343	0.16236596
21	0xbdaef793	-0.08543315
22	0xbd4682f9	-0.04846475
23	0x3e327209	0.17426313
24	0x3bb30c5c	0.00546412
25	0x3e0ab659	0.13546123
26	0xbdb46c53	-0.08809724
27	0xbe338820	-0.17532396
28	0xbd96ce88	-0.073636115
29	0xbe8b32ee	-0.27187294
30	0xbdaba3f8	-0.08380884
31	0x3e1606b3	0.14650993
32	0xbe2f69fd	-0.17130275
33	0x3e2176a6	0.15767917
34	0x3e36f17e	0.1786556
35	0x3e63c146	0.22241697
36	0xbe551a56	-0.20810828
37	0xbe669acf	-0.22519992
38	0xbd8decfc	-0.06929967
39	0x3d1f6416	0.03891381
40	0xbddb0819	-0.10694904
41	0x3e0bef03	0.13665394
42	0x3e35933b	0.17731945
43	0x3d527441	0.0513804
44	0xbcf201fd	-0.029541964
45	0xbe3618c0	-0.17782879
46	0x3db46c6b	0.088097416
47	0x3cd48b8a	0.025945444
48	0x3e68b207	0.22724162
49	0x3daab3b3	0.08335056
50	0x3d05476b	0.032538813
51	0xbe1054c5	-0.14094837
52	0x3e163abf	0.14670847
53	0xbd1e4d2f	-0.038647827
54	0x3e4cb25a	0.1998991
55	0x3df7036b	0.12061199
56	0xbdd1b7dd	-0.10240147
57	0xbe3b565d	-0.18294664
58	0xbe3bd467	-0.18342744
59	0xbd868d0a	-0.0656987
60	0xbdd0dd26	-0.10198431
61	0x3d5c33e6	0.05376043
62	0x3dc7672b	0.097364746
63	0xbe07cfa6	-0.13262805
64	0xbda3712a	-0.07980569
65	0xbe25a824	-0.16177422
66	0x3da29446	0.07938437
67	0xbda143c1	-0.07874251
68	0x3d64aa84	0.05582668
69	0xbda97fde	-0.08276342
70	0xbe2a2608	-0.1661607
71	0x3e44b87d	0.19211002
72	0x3c55b759	0.013044202
73	0xbd2578c8	-0.04039839
74	0xbce2def1	-0.027694197
75	0xbe2b1602	-0.16707614
76	0x3e2053fc	0.15657037
77	0xbe11ba7b	-0.14231293
78	0x3d7ac8c7	0.061226632
79	0x3de1c31a	0.11023541
80	0x3d259187	0.04042199
81	0x39e4db20	0.0004365081
82	0xbe1eeaf9	-0.15519322
83	0x3e34882e	0.17630073
84	0x3e1e42c4	0.15455157
85	0xbd158e39	-0.036512587
86	0xbd16cc7b	-0.0368161
87	0x3dc9c83a	0.09852643
88	0xbd8864e9	-0.06659872
89	0x3c67c001	0.014144898
90	0x3e12e2f4	0.14344388
91	0x3cbe6c75	0.023245076
92	0xbcbab889	-0.022793071
93	0x3df62398	0.12018508
94	0xbdc2b6be	-0.095075116
95	0xbde6bda5	-0.112666406
96	0xbd185fe6	-0.03720083
97	0xbdbae955	-0.09126536
98	0x3d67f81c	0.0566331
99	0x3db9f42c	0.09079775
100	0xbd16050e	-0.036625914
101	0x3e005105	0.12530906
102	0x3e07e63b	0.1327142
103	0x3cfc2e03	0.030783659
104	0xbe13d590	-0.14436936
105	0xbe3dc3db	-0.18531744
106	0xbda50fbe	-0.08059643
107	0x3d99a268	0.0750168
108	0xbd95db98	-0.07317275
109	0x3e515192	0.20441273
110	0xbd1f5e87	-0.038908508
111	0x3e24bb72	0.1608713
112	0x3df3f9de	0.11912893
113	0x3da0bc95	0.07848469
114	0x3dad095c	0.08449051
115	0xbcbc9190	-0.023018628
116	0xbe0b89fe	-0.13626859
117	0x3c6a6ada	0.014307702
118	0x3d932cbb	0.07186266
119	0x3e48c1a3	0.19605117
120	0x3d0e745f	0.03477895
121	0x3c21bf72	0.009872304
122	0xbc89b2c2	-0.016808871
123	0x3ddfd26f	0.10928809
124	0xbe102267	-0.14075623
125	0xbc5d740e	-0.013516439
126	0x3e450932	0.19241789
127	0xbd20a035	-0.039215285
