experiments/bgame_intent_isaacs/v1/model/central/central.pth (torch, 295045 bytes, 14 tensors)

Q1.moduleList.0.linear_1.weight f4 [128, 22]
0	0xbd02372c	-0.031790897
1	0xbda4c474	-0.08045283
2	0xbdcedfbc	-0.10101268
3	0xbbf32ea1	-0.00742133
4	0xbd948a4a	-0.07252939
5	0xbcfce1aa	-0.030869324
6	0xbd6271a9	-0.055284176
7	0xbdd7c0ba	-0.105348065
8	0x3d869bd7	0.06572693
9	0x3cb4ddba	0.022078384
10	0xbd0bb73b	-0.03411029
11	0xbcaefae2	-0.021359865
12	0x3dc293a8	0.095008194
13	0xbdbf8348	-0.09351212
14	0xbd0d41d0	-0.03448659
15	0xbc3266f7	-0.010888807
16	0x3970743f	0.00022931489
17	0xbd9fa934	-0.07795945
18	0xbd761823	-0.060081612
19	0x3dc6531c	0.096838206
20	0xbdaf79a0	-0.0856812
21	0xbce36df9	-0.0277624
22	0x3da245ea	0.07923491
23	0xbe1ec263	-0.1550384
24	0x3d446a2f	0.047952827
25	0xbf02f34a	-0.5115248
26	0x3dacfe89	0.08446986
27	0xbd89573c	-0.06706092
28	0x3e62494d	0.22098275
29	0xbdaeb358	-0.08530301
30	0x3df3e8fd	0.11909673
31	0xbed96b73	-0.4246479
32	0xbd48795c	-0.048943862
33	0x3d682cfe	0.056683533
34	0xbc8556fe	-0.016276833
35	0xbdd258f0	-0.1027087
36	0xbe85c696	-0.26128072
37	0xbf04676b	-0.51720303
38	0x3e647135	0.2230881
39	0x3e650242	0.22364143
40	0x3a6d380d	0.0009049185
41	0x3d11a830	0.035560787
42	0x3d9cb8e2	0.07652451
43	0x3d686596	0.056737505
44	0xbc8478de	-0.016170915
45	0xbb7272eb	-0.0036994766
46	0xbe068290	-0.13135743
47	0x3f24e713	0.6441509
48	0x3e8d7634	0.27629244
49	0x3cf7fc5f	0.030271707
50	0x3d217140	0.039414644
51	0xbe257c40	-0.16160679
52	0x3df81d62	0.12114979
53	0x3d15c364	0.036563292
54	0xbea83047	-0.32849333
55	0xbdb1918f	-0.08670341
56	0xbe375bc5	-0.17906101
57	0x3c86757a	0.016413439
58	0xbddfa2b8	-0.10919708
59	0xbf2a8d80	-0.6662216
60	0x3ed0f927	0.40815088
61	0x3e88739a	0.26650697
62	0xbbb1cd59	-0.0054260907
63	0x3d5e4a15	0.05426987
64	0x3c88f833	0.016719913
65	0x3d4b77e4	0.049674883
66	0x3ba31f7d	0.004978119
67	0x3d7fe511	0.062474314
68	0xbfc3735a	-1.5269578
69	0x3e19eca1	0.15031673
70	0x3937dbe5	0.00017534157
71	0x3cb129e3	0.021626418
72	0xbcd67e4e	-0.026183274
73	0xbdab3aac	-0.083608
74	0xbd7ae965	-0.06125774
75	0xbeac1130	-0.33606863
76	0xbeac6e00	-0.33677673
77	0xbe04d8b7	-0.12973295
78	0xbe39edb8	-0.18157089
79	0x3aca36a1	0.0015427658
80	0x37a58837	1.9732963e-05
81	0xbe4f3509	-0.20235075
82	0x3cdf162b	0.02723225
83	0xbca92f81	-0.020652534
84	0xbe1ce905	-0.15323265
85	0xbc640195	-0.013916393
86	0xbc9bd5ea	-0.0190229
87	0xbb073083	-0.002062828
88	0xb984ab28	-0.00025304523
89	0xbd06ded0	-0.032927334
90	0x3bdc9a59	0.006732267
91	0x3f403792	0.75084794
92	0x3f3dafb9	0.74096256
93	0xbb0269d9	-0.0019899516
94	0x3d257d16	0.040402494
95	0xbe216558	-0.15761316
96	0x3ef8b153	0.48572788
97	0xbe07d854	-0.13266116
98	0xbe633d19	-0.22191276
99	0xbe9e6cb7	-0.30942318
100	0xbd3707b5	-0.044685084
101	0xbd4a4b06	-0.049387954
102	0x3de03d3d	0.1094918
103	0x3e96fade	0.2948827
104	0x3ec6682f	0.3875136
105	0x3f0b61c6	0.54446065
106	0xbae7b78b	-0.0017678601
107	0x3cc58d18	0.02411513
108	0xbd4234ca	-0.047413625
109	0xbc292e85	-0.0103260325
110	0x3b883767	0.004156995
111	0x3df3ff99	0.11913986
112	0xbddbd40f	-0.10733806
113	0x3f6027e9	0.875609
114	0x3f1125e4	0.5669844
115	0x3d06f6d8	0.032950252
116	0xbc92605e	-0.017868217
117	0xbebe5ba8	-0.37179303
118	0xbe054f84	-0.13018614
119	0xbdda10f2	-0.10647763
120	0xbe379740	-0.17928791
121	0x3e1d1399	0.15339507
122	0x3e32906c	0.17437905
123	0x3daac904	0.08339122
124	0xbe485c08	-0.19566357
125	0xbf6ce9ad	-0.9254406
126	0xbf23e031	-0.64013964
127	0xbea5f4f5	-0.3241345
128	0x3c0a2099	0.008430623
129	0x3c074f80	0.0082587
130	0x3da752c8	0.08170086
131	0xbda12155	-0.07867686
132	0xbdab3836	-0.08360331
133	0xbdc9d5e1	-0.09855247
134	0xbd5ff6ea	-0.054678835
135	0xbdda008c	-0.106446356
136	0x3de47ef8	0.1115703
137	0xbdef3631	-0.11680258
138	0x3cd90274	0.026490428
139	0x3de67b70	0.112540126
140	0x3af5464d	0.0018712968
141	0x3c60fc96	0.013732096
142	0xbdcf3064	-0.10116652
143	0x3da006c6	0.07813792
144	0x3de90a84	0.11378959
145	0xbccd064e	-0.02502742
146	0x3d00249a	0.031284906
147	0x3d9babc1	0.07601119
148	0x3da8036f	0.0820378
149	0x3d83036f	0.06397139
150	0x3dde9632	0.10868491
151	0x3d2e3275	0.04252859
152	0x3d8f1449	0.06986291
153	0xbdb8dcbb	-0.09026476
154	0x3d0ed87c	0.034874424
155	0x3d10e95e	0.035378806
156	0xbcc143c9	-0.023591893
157	0x3eb47392	0.35244423
158	0x3d96c4fa	0.07361789
159	0xbccbadab	-0.024863085
160	0x3d680a44	0.056650415
161	0xbe2b6a7c	-0.1673984
162	0x3f8e671e	1.1125219
163	0x3e48c1e8	0.1960522
164	0x3e66ef68	0.22552264
165	0x3e8ce8e0	0.2752142
166	0x3e161173	0.14655094
167	0x3edfffea	0.43749934
168	0x3e561ddb	0.20909826
169	0xbdcf5205	-0.10123066
170	0xbe3b052e	-0.18263695
171	0xbdfa1d53	-0.122126244
172	0x3affce07	0.0019516357
173	0xbc302cf8	-0.010752909
174	0xbca81f3c	-0.020522706
175	0xbcc656f8	-0.024211392
176	0x3ab80c04	0.0014041667
177	0xbe12e6dc	-0.14345878
178	0xbd8220b8	-0.06353897
179	0xbf74570f	-0.9544534
180	0xbf208bb5	-0.62713176
181	0x3c60afa3	0.01371375
182	0x3e145632	0.14486006
183	0x3ea1e0c9	0.3161681
184	0x3e3c067f	0.18361853
185	0x3e6d3f1e	0.23168609
186	0x3b1f88d6	0.0024343035
187	0x3e559328	0.20856917
188	0x3e3f7071	0.18695237
189	0x3e6637be	0.22482201
190	0xbb2248a8	-0.0024762545
191	0x3e6789f4	0.22611219
192	0x3e119dd1	0.14220358
193	0x3e8d21b7	0.27564785
194	0xbc2da290	-0.01059784
195	0xbd279e47	-0.04092243
196	0xbccc7414	-0.024957694
197	0x3d08e787	0.033423927
198	0xbca23e51	-0.019805105
199	0xbd982053	-0.0742804
200	0xbbfc25c1	-0.0076949303
201	0xbe069036	-0.1314095
202	0xbddad543	-0.10685208
203	0x3cc7bc18	0.024381682
204	0xbc12eadb	-0.008967127
205	0xbc60d2b3	-0.01372211
206	0xbf834e9e	-1.0258367
207	0xbf228f7c	-0.6350019
208	0xbf6add2a	-0.9174372
209	0xbef0368f	-0.46916625
210	0xbece1285	-0.40248504
211	0xbf1106e3	-0.56651133
212	0xbefa6292	-0.48903328
213	0xbe1878cf	-0.14889835
214	0x3eeeb682	0.46623617
215	0x3e9ab85e	0.30218786
216	0xbc03c685	-0.008042936
217	0x38e561a2	0.000109377565
218	0x3bc2927c	0.0059378725
219	0x3c85de8f	0.016341476
220	0xbd8a6e0f	-0.06759273
221	0xb8a80c91	-8.013205e-05
222	0xbdee6347	-0.116400294
223	0x3d963a03	0.073352836
224	0xbddc04e8	-0.10743123
225	0xbd04a44b	-0.032383244
226	0x3d177303	0.036974918
227	0xbdc4ddcb	-0.09612616
228	0x3d8078ed	0.06273065
229	0x3dca159a	0.098674014
230	0xbd6e4968	-0.058175474
231	0x3dc7dc0e	0.09758769
232	0xbdd1a05f	-0.102356665
233	0x3c01daf7	0.00792574
234	0xbded06da	-0.115735725
235	0x3b9679d5	0.00459216
236	0xbd0b686c	-0.03403513
237	0x3d81787a	0.06321807
238	0x3ca8fc27	0.020628048
239	0xbc7bc545	-0.015366857
240	0xbd35b06e	-0.04435771
241	0x3d4167d8	0.047218174
242	0xbcdca07e	-0.026931997
243	0xbdeb3a93	-0.114857815
244	0x3d6f3971	0.05840439
245	0x3c126b31	0.008936689
246	0x3d0eadff	0.034833904
247	0xbd905a8d	-0.07048521
248	0xbb1fa152	-0.002435763
249	0xbd0d38f4	-0.034478143
250	0x3c5ad308	0.013355978
251	0x3d9eb92c	0.077501625
252	0x3dd811d0	0.105502725
253	0x3c06a41f	0.00821784
254	0x3df10da3	0.11770179
255	0x3dd9b09a	0.10629387

Q1.moduleList.0.linear_1.bias f4 [128]
0	0x3d9db316	0.077001736
1	0xbe410c80	-0.18852425
2	0xbe461d89	-0.19347204
3	0x3de39fae	0.11114441
4	0x3d882189	0.06647021
5	0xbe605f22	-0.2191129
6	0x3d25e050	0.040497124
7	0x3e381c39	0.17979516
8	0x3e58e3d8	0.21180665
9	0xbee78681	-0.45219806
10	0xbcc826e6	-0.02443261
11	0xbc2c2e41	-0.010509075
12	0xbdae476e	-0.08509718
13	0x3de834fa	0.113382295
14	0x3d896e4f	0.06710493
15	0x3eb276aa	0.34856158
16	0x3cb0b980	0.021572828
17	0xbe7618b2	-0.24032858
18	0xbdce9911	-0.10087789
19	0x3eacbd0f	0.3373799
20	0x3dc7fde3	0.09765222
21	0xbd5cf403	-0.053943645
22	0xbcf02767	-0.029315664
23	0x3d9785ad	0.073985435
24	0xbd9a54ba	-0.075356916
25	0x3d22bc16	0.039730154
26	0xbefafe11	-0.49021962
27	0xbdd91616	-0.10599916
28	0xbe62789b	-0.2211632
29	0xbf247c6c	-0.6425235
30	0xbd4fb788	-0.05071214
31	0x3e87e4ea	0.26541835
32	0xbd909410	-0.07059491
33	0x3f0a04c7	0.5391354
34	0x3ddd42a1	0.10803724
35	0x3ec58014	0.38574278
36	0xbf0373a1	-0.5134831
37	0xbe2a2918	-0.16617239
38	0x3dd8ac04	0.105796844
39	0x3d1731ff	0.036912914
40	0xbdc63a4d	-0.09679089
41	0x3da94a52	0.082661286
42	0x3ddb8ccf	0.107202165
43	0x3cfe951d	0.031076962
44	0xbc8412e5	-0.01612229
45	0xbddc33b5	-0.1075205
46	0xbd85c3ba	-0.065314725
47	0x3eb9eef1	0.3631511
48	0x3e764214	0.24048644
49	0x3e5bb71f	0.21456574
50	0x3ca12826	0.019672465
51	0xbe5ac5ae	-0.21364471
52	0x3edd263e	0.4319324
53	0xbdd4b262	-0.10385586
54	0x3e8bccf0	0.27304792
55	0x3e226b5a	0.15861264
56	0xbd7db058	-0.061935753
57	0xbe01a533	-0.12660675
58	0xbde35e45	-0.11101965
59	0xbd22b621	-0.039724473
60	0xbed7ecfa	-0.42172986
61	0xbc4ec373	-0.012619841
62	0x3e72d12f	0.2371261
63	0xbea9e560	-0.33182812
64	0xbc134987	-0.008989698
65	0xbdc85451	-0.09781707
66	0x3dd4840a	0.10376747
67	0xbe9693b2	-0.29409558
68	0xbd4e2f01	-0.050337795
69	0xbd154bc1	-0.036449198
70	0xbed420a9	-0.41431168
71	0x3db698bb	0.0891585
72	0x3c0158b9	0.007894688
73	0xbd3fc5ce	-0.0468195
74	0xbc897027	-0.016777111
75	0xbe65808b	-0.22412317
76	0x3df03b67	0.1173008
77	0xbdb04eb7	-0.08608764
78	0xbe3033fe	-0.17207333
79	0x3d88c5da	0.06678362
80	0x3e88ec6a	0.2674287
81	0x3e15ed88	0.14641392
82	0xbdd0efe8	-0.102020085
83	0x3eb2c301	0.349144
84	0xbb0ee949	-0.002180653
85	0x3e7d1ffd	0.24719234
86	0xbe5c51a9	-0.21515526
87	0x3e3cf470	0.1845262
88	0xbe2c1e03	-0.16808324
89	0x3c0c5d97	0.008567235
90	0x3db1b27b	0.086766206
91	0x3c666678	0.014062516
92	0xbd8c2bec	-0.06844315
93	0x3e82fc8f	0.25583312
94	0x3da4816e	0.08032499
95	0xbdbf223f	-0.09332704
96	0x3e0784ae	0.13234207
97	0xbd623870	-0.055229604
98	0xbd29bae5	-0.041438002
99	0xbdfaa1d6	-0.12237899
100	0x3df28d06	0.11843304
101	0x3e2aabb6	0.16667065
102	0x3e30f342	0.17280295
103	0xbece9b6c	-0.40352952
104	0xbdb2d59b	-0.08732148
105	0xbde5a3ee	-0.11212908
106	0xbe71b5c4	-0.23604494
107	0x3da70a17	0.08156221
108	0xbd354340	-0.044253588
109	0xbdc4b326	-0.09604482
110	0x3e259945	0.16171749
111	0x3e2ca44d	0.16859551
112	0xbd1428a1	-0.03617156
113	0xbe2fbe9d	-0.17162557
114	0x3d517e66	0.051145934
115	0xbeb09f5f	-0.3449659
116	0xbda8ceda	-0.08242579
117	0xbd85511a	-0.065096095
118	0x3d16edef	0.036848005
119	0x3e2213e5	0.15827902
120	0x3cac5f17	0.021041436
121	0x3db84b7b	0.08998772
122	0xbe0e29a1	-0.13883068
123	0xbd48b48e	-0.049000315
124	0xbe9260b9	-0.2858942
125	0xbdc72f89	-0.097258635
126	0x3e5c2f4f	0.21502422
127	0x3ddbe876	0.10737698

Q1.moduleList.1.linear_1.weight f4 [128, 128]
0	0x3c893500	0.016748905
1	0x3bc14d38	0.005899098
2	0x3ac679d1	0.0015142505
3	0x3cff601a	0.031173754
4	0xbd7126af	-0.058874782
5	0xbb5310e6	-0.0032206117
6	0x3cf71327	0.0301605
7	0xbd465bc2	-0.04842735
8	0x3d016669	0.031591807
9	0xbc99c9e8	-0.018773034
10	0xbcc934e5	-0.024561355
11	0xbc03a4fd	-0.008034942
12	0xbd02e0c6	-0.031952642
13	0xbd11221a	-0.035432912
14	0xbc61c1d6	-0.013779124
15	0xbbdb290b	-0.0066882423
16	0xbc1b6327	-0.009484089
17	0x3ad49e74	0.0016221539
18	0xbd27351a	-0.040822126
19	0xbc5a0417	-0.013306639
20	0xbc09659a	-0.00838604
21	0x3cc46c14	0.023977317
22	0xbc101c38	-0.00879579
23	0x3ca3fad4	0.020017065
24	0x3c2864fe	0.010277985
25	0xbc6f2717	-0.014596722
26	0x3c8879b5	0.016659597
27	0x3a493411	0.00076753
28	0xbcdb3e71	-0.026763173
29	0xbd5ca874	-0.053871587
30	0xbc24ce4a	-0.010058949
31	0xbcd06428	-0.025438383
32	0x3c58a01b	0.013221766
33	0x3cd32625	0.025775025
34	0xbd16ca1b	-0.036813837
35	0x3cb46d51	0.022024782
36	0xbd4fd862	-0.050743468
37	0xbc87f7d4	-0.016597666
38	0x3cdb2e7e	0.026755568
39	0xbc476a75	-0.012171377
40	0xbbec2b0f	-0.0072072814
41	0xbc04b36f	-0.008099421
42	0x3d3f44a3	0.046696316
43	0xbcaa8b6e	-0.020818438
44	0x3a658beb	0.0008756506
45	0xbd1c8f2c	-0.038222477
46	0xbb425553	-0.0029652908
47	0x3c42df29	0.011894026
48	0xbd16fc7b	-0.036861878
49	0x3d19cd5f	0.037549373
50	0x3d2c67b7	0.042091098
51	0xbd6d8555	-0.057988483
52	0x3ce32c61	0.027731122
53	0xbd2ef2a8	-0.042711884
54	0xbc6088a2	-0.013704451
55	0xbd3859bd	-0.045007456
56	0x3cf7cbfd	0.030248636
57	0xbd0f6444	-0.03500773
58	0xbc8e3b8f	-0.017362384
59	0xbcb3db77	-0.021955235
60	0xbd4cca29	-0.049997482
61	0x3be21b69	0.00690024
62	0xbca5e06c	-0.020248614
63	0xbcfb8cca	-0.030706782
64	0xbd657b8c	-0.056026027
65	0x3cddb7d1	0.02706519
66	0x3cca6d35	0.024710277
67	0xbd17486e	-0.03693431
68	0x3c628eba	0.013827974
69	0xbd470916	-0.04859265
70	0x3cd9aec4	0.026572593
71	0x3ced80aa	0.028992016
72	0x3d01fe1c	0.03173648
73	0x3c84ea59	0.016225027
74	0xbd0e7ff5	-0.034789998
75	0x3ccf425b	0.025300195
76	0xbd282f07	-0.041060474
77	0xbd44f388	-0.048083812
78	0x3cb0fabd	0.021603936
79	0xbcd1da18	-0.02561669
80	0x3c02e1a2	0.007988365
81	0xbd5045b5	-0.050847728
82	0xbce21f29	-0.027602749
83	0xbd5bbfc4	-0.05364968
84	0xbca2f3a3	-0.019891566
85	0x3c6960f4	0.014244307
86	0xbd146b19	-0.03623495
87	0x3c851d96	0.01624946
88	0xbc397366	-0.011319017
89	0x3d231449	0.039814267
90	0xbd1a722f	-0.03770655
91	0xbd1d4da6	-0.03840413
92	0xbd487995	-0.048944075
93	0xbc3cd830	-0.0115261525
94	0xbd56fd13	-0.052487444
95	0x3cd67251	0.026177557
96	0xbd0ebe06	-0.03484919
97	0xb94fad13	-0.00019805534
98	0xbc269f6b	-0.010169844
99	0x3ceee4b5	0.02916179
100	0x3c6a7354	0.014309723
101	0xbccfb8ed	-0.025356734
102	0x3d0931d4	0.033494785
103	0x3c7c507b	0.015400047
104	0xbcbaec2a	-0.02281769
105	0xbd0f6dd5	-0.035016853
106	0x3c957ba3	0.018247431
107	0x3d3734f7	0.044728246
108	0xbd2c1cd5	-0.042019684
109	0xbd3ff014	-0.046859816
110	0x3d079ad7	0.03310665
111	0x3d2cc728	0.042182118
112	0x3c252d9e	0.010081677
113	0xbc967cd6	-0.018370073
114	0x3cadee7f	0.021231888
115	0xbd586d88	-0.052838832
116	0x3cdea3ee	0.027177777
117	0x3a22c33f	0.00062089035
118	0xbd2d8eaf	-0.0423724
119	0x3c59e507	0.013299233
120	0x3d219803	0.03945161
121	0xb9e43d0e	-0.00043533038
122	0x3c5d48e1	0.013506145
123	0xbd24ff22	-0.040282376
124	0xbccdcd69	-0.025122361
125	0x3caffce9	0.021482902
126	0xbc28e52c	-0.010308545
127	0xbd3eb6a8	-0.046560913
128	0x3c5d7bfb	0.013518329
129	0xbd5fab11	-0.0546065
130	0xbc1612f2	-0.00915979
131	0xbd17d50b	-0.037068408
132	0x3c136eeb	0.008998613
133	0xbc790e61	-0.015201182
134	0xbc1025e5	-0.008798097
135	0x3cc50a76	0.02405284
136	0xbd5b7bd1	-0.053584877
137	0xbbd20fab	-0.006410559
138	0xbd446b4c	-0.04795389
139	0xbc56df3c	-0.013114747
140	0x3c5f4083	0.013626221
141	0x3cbc8752	0.023013745
142	0xbcda435c	-0.026643448
143	0xbc229471	-0.0099230865
144	0x3c2cf6da	0.010556901
145	0xbb6c8df5	-0.0036095355
146	0xbd10944e	-0.035297684
147	0xbd3e3625	-0.046438355
148	0x3d08243f	0.033237692
149	0xbd304ab1	-0.04303998
150	0xbd1f8bdb	-0.038951736
151	0x3c112100	0.0088579655
152	0x3c914b9b	0.017736247
153	0x3cb1c069	0.021698194
154	0xbd2bd165	-0.04194774
155	0x3af8315d	0.001893561
156	0xbc7facca	-0.015605161
157	0xbd2109ed	-0.039316107
158	0xbd41fed2	-0.047362156
159	0xbcf4afe5	-0.02986903
160	0xbd210533	-0.0393116
161	0xbd2f9424	-0.042865887
162	0xbd13e531	-0.036107246
163	0xbd0b9e26	-0.03408637
164	0x3d03c2cb	0.03216819
165	0xbd1fa896	-0.038979135
166	0xbcb9fa39	-0.022702323
167	0xbd1b22a1	-0.03787482
168	0xbceaa46a	-0.028642852
169	0xbd087a59	-0.033319805
170	0x3a63b836	0.00086868124
171	0xbc0995af	-0.008397504
172	0x3b6909c8	0.0035558809
173	0x3ade3832	0.0016954003
174	0xbc553c40	-0.013014853
175	0x3be1e80a	0.0068941163
176	0x3d1098fb	0.035302144
177	0x3baffb15	0.0053705075
178	0x3ba0aa3f	0.0049031074
179	0x3c399613	0.011327284
180	0xbd3d93ac	-0.04628341
181	0xbd55cd11	-0.05219752
182	0x3d0cfa95	0.03441866
183	0x3d34384c	0.043999
184	0xbcb874ad	-0.022516573
185	0x3ce28cb9	0.027654992
186	0xbb55bffc	-0.0032615652
187	0x3ce5567e	0.027995344
188	0x3b39d159	0.002835354
189	0x3d269f7b	0.040679436
190	0xbc88ccd0	-0.016699225
191	0x3b1b5114	0.002369945
192	0xbb866f85	-0.0041026496
193	0xbc0db1da	-0.00864836
194	0xbd3fe106	-0.04684546
195	0x3c9ea309	0.01936485
196	0x3ccd0ab8	0.025029525
197	0xbc5806fc	-0.013185259
198	0xbd490f50	-0.04908687
199	0x3be5c0cf	0.00701151
200	0x3d2292c3	0.039690744
201	0x3d005aa8	0.031336457
202	0xbd459694	-0.048239306
203	0x3cbe1722	0.02320439
204	0x3b887c4c	0.004165208
205	0x3cb86fad	0.022514189
206	0x3cd5919b	0.026070407
207	0x3c0dcb60	0.008654445
208	0xbc9911ea	-0.0186853
209	0xbccb6725	-0.024829457
210	0xbcb0d681	-0.021586658
211	0x3d158eea	0.036513247
212	0x3b9aa103	0.004718901
213	0x3c518abf	0.012789427
214	0xbd0fd318	-0.035113424
215	0x3c4b1945	0.012396161
216	0xbc9cbb15	-0.019132176
217	0xbb7304e8	-0.0037081782
218	0x3c2d4708	0.010576017
219	0xbd1ef6d8	-0.038809627
220	0xbcf7bead	-0.030242288
221	0x3d310f55	0.043227512
222	0xbb3805e4	-0.0028079683
223	0x3ced4001	0.028961184
224	0xbd43d2c1	-0.047808412
225	0xbd189ab4	-0.03725691
226	0xbc8ba8e4	-0.017048307
227	0xbcd7f701	-0.026362898
228	0x3cfc82a5	0.030824015
229	0x3cb8b426	0.022546839
230	0xbd327555	-0.043568928
231	0xbcb8779f	-0.022517977
232	0x3c804227	0.015656544
233	0x3d128db8	0.035779685
234	0x3cfc6335	0.030809024
235	0x3c526a8e	0.012842787
236	0xbd13cfde	-0.03608691
237	0xbd2abf9d	-0.041686643
238	0x3c9d572c	0.019206606
239	0x3d3881b7	0.04504558
240	0x3cc282a1	0.02374393
241	0xbc810aed	-0.01575228
242	0x3c56be5a	0.013106907
243	0xbd382800	-0.044960022
244	0x3d3280f5	0.043580014
245	0xbd4a08d0	-0.04932481
246	0x3c0f069e	0.008729605
247	0x3c04140f	0.008061423
248	0x3d0661a1	0.03280795
249	0xbcdec3dc	-0.027193002
250	0xbd13c9e0	-0.036081195
251	0x3d19a02d	0.03750627
252	0xbd404db1	-0.046949092
253	0xbcda7eb3	-0.026671743
254	0xbbb03bb6	-0.005378212
255	0xbd3c92b0	-0.04603833

Q1.moduleList.1.linear_1.bias f4 [128]
0	0x3d0f9431	0.035053436
1	0xbcd47780	-0.025935888
2	0xbc2a2a2c	-0.010386031
3	0x3ce25582	0.027628664
4	0x3bcfbd80	0.006339729
5	0xbe95090e	-0.2910847
6	0xbb71b323	-0.0036880455
7	0xbd25693d	-0.040383566
8	0x3d3f050b	0.04663567
9	0xbd3e4b46	-0.046458505
10	0x3d01d99d	0.031701673
11	0xbd9b2d9a	-0.07577057
12	0x3d15bd41	0.03655744
13	0xbc856750	-0.016284615
14	0xbe098142	-0.13428214
15	0xbd5be652	-0.053686447
16	0xbd08d5c5	-0.03340699
17	0xbc5df083	-0.013546112
18	0x3ae37986	0.0017354942
19	0xbd29ed65	-0.041486163
20	0xbc5b6a90	-0.013392106
21	0x3b1ff399	0.002440667
22	0xbbd85350	-0.0066017285
23	0x3cbe1324	0.023202486
24	0xbcfad7b8	-0.03062044
25	0x3e7da6b1	0.24770619
26	0x3d1ba542	0.0379994
27	0x3ef6e577	0.48221943
28	0xbe02e970	-0.12784362
29	0x3e8a6abe	0.27034563
30	0xbc999ea2	-0.0187524
31	0x3ddbbb44	0.107290775
32	0x3cd85dc2	0.026411895
33	0x3b85be0c	0.0040814932
34	0x3e893bd7	0.26803467
35	0xbe101b8e	-0.14073011
36	0xbc8ec9db	-0.017430237
37	0xbdb8cc23	-0.09023311
38	0xbd26c995	-0.040719587
39	0xbe019664	-0.12655026
40	0xbec84380	-0.39113998
41	0x3ea16b8f	0.31527373
42	0x3c880f7b	0.016608944
43	0xbcd9d995	-0.026593009
44	0x3d0d0dcf	0.034436997
45	0x3eb2877e	0.34868997
46	0x3cfaae46	0.030600678
47	0xbd32cc8a	-0.043652095
48	0x3d0e3e05	0.034727115
49	0x3c9f6a92	0.019459996
50	0x3d090242	0.03344942
51	0xbd073881	-0.03301287
52	0xbd433776	-0.047660314
53	0xbc771f63	-0.015083167
54	0xbc8c696a	-0.01714011
55	0x3e68a4d1	0.22719122
56	0xbcd27431	-0.02569017
57	0xbd556351	-0.05209667
58	0xbe09ee2c	-0.13469762
59	0x3ec22759	0.37920645
60	0x3c6c0b75	0.014407028
61	0xbca41000	-0.02002716
62	0x3d07bca4	0.033138886
63	0xbe0e18dd	-0.13876672
64	0xbd3ef910	-0.046624243
65	0xbe716f84	-0.23577696
66	0xbd654776	-0.055976354
67	0xbac91a30	-0.0015342887
68	0x3d0f1bdc	0.03493868
69	0xbe4d8bc5	-0.20072849
70	0xbac0cd0e	-0.0014709549
71	0xbe717a6c	-0.23581856
72	0xbe35c718	-0.1775173
73	0x3eb959aa	0.3620122
74	0xbcb0d8ef	-0.021587817
75	0xbd17cd81	-0.03706122
76	0x3d1a50cd	0.037674714
77	0x3e0f85ad	0.14015837
78	0x3e8e6e8d	0.2781872
79	0x3c86e2b7	0.016465528
80	0x3e0d21e9	0.13782467
81	0xbad6288e	-0.001633899
82	0x3ec27ef8	0.37987494
83	0xbd416e8b	-0.047224563
84	0x3cff9527	0.031199051
85	0x3c9a1c81	0.01881242
86	0x3c98d466	0.018655967
87	0xbbebe40b	-0.0071988157
88	0xbe2db5e1	-0.16963913
89	0x3cb819d8	0.02247326
90	0xbd8532c4	-0.065038234
91	0x3cc521b1	0.024063917
92	0xbd053509	-0.03252128
93	0xbd3739e7	-0.044732954
94	0xbee7d058	-0.4527614
95	0x3cf118e8	0.029430822
96	0x3daf5554	0.08561197
97	0x3bd5292b	0.0065051517
98	0xbd544cbd	-0.051830996
99	0x3d125dc7	0.035733964
100	0x3e48ca7a	0.19608489
101	0x3cddf183	0.0270927
102	0xbd31c500	-0.043400764
103	0x3c4df973	0.01257168
104	0x3b2c4fad	0.0026292608
105	0x3d6ecb31	0.058299247
106	0x3b3db802	0.0028948789
107	0xbe274629	-0.16335358
108	0xbe3bf129	-0.18353714
109	0xbe1fb11b	-0.15594904
110	0x3eaf19c4	0.34199345
111	0xbc122fce	-0.00892253
112	0xbc3a892b	-0.011385242
113	0xbccc2914	-0.024921931
114	0xbd5c9d05	-0.053860683
115	0xbe4dfdb0	-0.20116305
116	0xbe183b5f	-0.14866398
117	0x3da030fc	0.07821843
118	0xbc169084	-0.009189729
119	0xbd2243c7	-0.03961542
120	0xbc1c62e2	-0.00954506
121	0x3e61256f	0.21986936
122	0x3e92238e	0.2854275
123	0x3c2ea054	0.010658342
124	0xbc837486	-0.016046774
125	0xbca6f5d9	-0.020380901
126	0xbde797b3	-0.11308231
127	0x3c3b8b7b	0.011446829

Q1.moduleList.2.linear_1.weight f4 [128, 128]
0	0x3b7482a3	0.003730931
1	0x3d2117e0	0.03932941
2	0x3d733c8e	0.05938392
3	0x3df828cb	0.12117156
4	0x3cecaf3d	0.028892154
5	0xbdfc3475	-0.12314693
6	0xbd1a9be5	-0.03774633
7	0xbd59d567	-0.053182032
8	0xbd00549e	-0.031330697
9	0xbc936152	-0.017990742
10	0x3d14f66a	0.03636781
11	0xbb476e8a	-0.0030430877
12	0xbd3e0a28	-0.046396405
13	0x3dc02612	0.09382261
14	0xbc4338ec	-0.011915427
15	0x3cb99f40	0.022658944
16	0xbd2ee4a5	-0.04269852
17	0x3ca436aa	0.020045597
18	0xbcae9e12	-0.021315608
19	0xbc9f5f30	-0.019454569
20	0xbd0fc73f	-0.035102125
21	0xbe0ca4a6	-0.13734683
22	0xbd3d7a19	-0.04625902
23	0x3daaa6d2	0.083326
24	0xbd2a69e9	-0.04160491
25	0x3c7532b3	0.014965701
26	0xbc129e4f	-0.0089488765
27	0xbd7df443	-0.062000524
28	0x3e0e54b2	0.13899496
29	0xbeb25be2	-0.34835726
30	0x3d6b1cc3	0.057400476
31	0xbc269819	-0.010168099
32	0x3c672482	0.014107825
33	0xbccd701b	-0.02507787
34	0x3cfb97ef	0.030712096
35	0xbd22c181	-0.03973532
36	0x3b5ddbed	0.003385301
37	0xbb7fd2b3	-0.0039035499
38	0xbd2dcdfe	-0.042432778
39	0xbe9b9b06	-0.3039171
40	0xbdf9d2e0	-0.12198424
41	0xbe91e39e	-0.2849397
42	0x3cfb8673	0.030703759
43	0xbbaeb56a	-0.005331685
44	0x3d2baa94	0.041910723
45	0x3c745fa9	0.014915385
46	0xbb85b94e	-0.004080928
47	0xbbfc3bd2	-0.007697561
48	0xbc256026	-0.010093724
49	0xbda4a443	-0.08039143
50	0x3c4d1b38	0.0125186965
51	0xbccc2128	-0.024918154
52	0x3bfd2c56	0.0077262325
53	0x3cbe2424	0.023210593
54	0x3cff7e44	0.031188138
55	0x3d0bd174	0.034135297
56	0xbce49f19	-0.027907895
57	0xbd813689	-0.0630923
58	0x3d669ac9	0.05629996
59	0xbcdd7c4c	-0.027036808
60	0x3beac383	0.00716442
61	0xbcc56c20	-0.02409941
62	0xbb6406eb	-0.0034794162
63	0xbe7d65df	-0.24745892
64	0x3d1b6100	0.037934303
65	0x3d7614e0	0.0600785
66	0xbd3b4c60	-0.045727134
67	0xbc4686d6	-0.012117108
68	0xbd492ab7	-0.049113
69	0x3cfb8143	0.030701285
70	0xba9ddc40	-0.0012043789
71	0xbe0d7bf7	-0.1381682
72	0xbce471a9	-0.027886229
73	0xbd10cdbd	-0.035352457
74	0x3ca17957	0.01971118
75	0xbd3968c9	-0.045265947
76	0x3ca58341	0.020204188
77	0xbda1f52a	-0.079080895
78	0xbde34354	-0.11096826
79	0x3b9763e4	0.004620062
80	0xbbc24a7c	-0.0059292894
81	0xbd02cd4d	-0.03193407
82	0x3c35943a	0.011082703
83	0x3bdae02a	0.0066795545
84	0xbc3b0677	-0.011415116
85	0x3cfbb181	0.030724289
86	0xbcd04a77	-0.025426133
87	0xbd6adecf	-0.057341393
88	0xbe2927ba	-0.1651906
89	0xbd11657b	-0.03549717
90	0xbc3686e8	-0.011140563
91	0x3c5d997b	0.013525362
92	0xbc88fe9e	-0.016722973
93	0x3c8b9fb2	0.017043922
94	0xbdcdde97	-0.10052221
95	0xbd10cd6d	-0.03535216
96	0xbdcf7d0a	-0.10131271
97	0x3d290b68	0.041270643
98	0xbd519a5b	-0.051172595
99	0x3c86579e	0.016399201
100	0x3d8353d1	0.06412471
101	0x3c5cf26c	0.013485532
102	0x3ce93ef7	0.028472407
103	0x3c249c1f	0.010046988
104	0x3d45c80c	0.048286483
105	0x3d153e72	0.036436506
106	0xbbc3027f	-0.0059512253
107	0xbd92969f	-0.07157635
108	0x3e2b32c7	0.16718589
109	0xbf09d2fa	-0.5383755
110	0x3c6483de	0.013947455
111	0xbce03f4b	-0.02737393
112	0xbc35785c	-0.011076059
113	0xbce59f69	-0.028030114
114	0xbc437d3a	-0.011931712
115	0xbdb190b1	-0.08670176
116	0x3dd5ba75	0.104359545
117	0xbd069d8d	-0.032865096
118	0xbcdc83e6	-0.026918363
119	0x3d1a5903	0.037682544
120	0x3d45b81e	0.04827129
121	0xbd58d662	-0.052938826
122	0x3d9ec885	0.0775309
123	0xbc5e1807	-0.013555533
124	0xbc5dd11c	-0.013538625
125	0x3cd8fb0e	0.0264869
126	0xbe188eec	-0.1489827
127	0xbcdd8016	-0.027038615
128	0x3ce193b6	0.027536254
129	0xbd06c2a5	-0.03290047
130	0x3bf3ed60	0.007444069
131	0xbe0ba372	-0.13636568
132	0x3d4f2040	0.050567865
133	0x3cd83189	0.026390808
134	0xbceb7921	-0.028744282
135	0xbd3175bc	-0.04332517
136	0x3d054456	0.032535873
137	0xbd5bdeb2	-0.053679176
138	0xbb71d75f	-0.0036902053
139	0x3d6fb92f	0.058526214
140	0x3cb591e8	0.0221643
141	0xbcf71d1b	-0.030165246
142	0xbc345b8f	-0.011008157
143	0x3c83f316	0.016107123
144	0xbcee5b01	-0.029096128
145	0x3cfed8db	0.031109264
146	0xbd4fafe5	-0.050704855
147	0x3cddbb7b	0.027066937
148	0x3d11a1e3	0.035554778
149	0xbdaa1e93	-0.08306613
150	0xbd2aeaa0	-0.041727662
151	0xbd85823b	-0.0651898
152	0xbd07d238	-0.033159465
153	0xbdb6a3be	-0.0891795
154	0xbcb076d4	-0.021541037
155	0x3d0fb9ce	0.035089307
156	0x3d8c5832	0.068527594
157	0xbc9435fd	-0.01809215
158	0x3cd9d5c4	0.02659119
159	0xbc3081d8	-0.010773145
160	0x3a737fe8	0.0009288774
161	0xbc2a2eab	-0.010387103
162	0xbcbe6ea4	-0.023246117
163	0x3c82ab8a	0.015950937
164	0x3d203402	0.0391121
165	0xbd4d845a	-0.05017505
166	0xbcb29dc0	-0.021803737
167	0x3d909577	0.07059758
168	0x3d246ca9	0.04014269
169	0xbd5ca1aa	-0.053865112
170	0xbc70ce71	-0.014697657
171	0xbd2417b7	-0.04006168
172	0x3ca8bdb4	0.02059827
173	0x3ca4d9ba	0.020123351
174	0xbc8da4ec	-0.017290555
175	0x3c7ec3f0	0.015549645
176	0xbb79d1ab	-0.0038119357
177	0xbd6662bb	-0.0562465
178	0x3c92a421	0.017900528
179	0xbca20faf	-0.01978287
180	0x3d3743f5	0.044742543
181	0x3c42b95b	0.0118850125
182	0xbd14e3e9	-0.036350165
183	0x3dad3c45	0.08458761
184	0xbc0fb0a9	-0.008770146
185	0x3dcbb053	0.099457406
186	0x3ba2cb0a	0.004968052
187	0x3cbf555f	0.023356138
188	0xbd49d23c	-0.04927276
189	0x3d16c09f	0.03680479
190	0xbb40659f	-0.0029357446
191	0xbc9e1f15	-0.01930193
192	0x3d3e2725	0.04642405
193	0xbd522ea3	-0.051314007
194	0xbac0e8f3	-0.0014717862
195	0x3d283e19	0.041074846
196	0x3d67954e	0.056538872
197	0x3d70d1a8	0.058793694
198	0x3d000717	0.03125676
199	0x3d580bf1	0.052745763
200	0xbc082146	-0.008308714
201	0x3d044353	0.032290768
202	0xbd50c608	-0.050970107
203	0xbd2ce6db	-0.04221235
204	0x3d277900	0.04088688
205	0x3d55b6a5	0.052176137
206	0x3ce8a012	0.02839664
207	0xbc96a985	-0.01839138
208	0xbe1069ef	-0.1410291
209	0xbd29c900	-0.041451454
210	0x3dbbcf14	0.091703564
211	0x3d1283b2	0.035770126
212	0x3d477fec	0.04870598
213	0x3c6c061f	0.014405756
214	0xbbad8586	-0.0052954582
215	0x3c45f6dd	0.012082783
216	0x3c270528	0.0101941
217	0xbd0ee222	-0.034883626
218	0x3d02e1f1	0.031953756
219	0x3b877b54	0.004134575
220	0xbd03d6cb	-0.032187264
221	0xbc91d87c	-0.017803423
222	0xbf0b940d	-0.5452278
223	0x3d2b7118	0.0418559
224	0xbca1aa4c	-0.019734524
225	0xbd22d616	-0.03975495
226	0xbbddea55	-0.0067723193
227	0x3b52790b	0.0032115604
228	0x3d614e9f	0.05500662
229	0x3cb223e5	0.021745631
230	0x3d0984e2	0.033573993
231	0x3cd1c174	0.025604941
232	0x3c3d4985	0.011553173
233	0x3d31af40	0.043380022
234	0x3d1a5556	0.03767904
235	0xbcb3d2c4	-0.021951087
236	0x3b25a4ff	0.0025275347
237	0xbc67e606	-0.014153963
238	0x3d1fa9f7	0.03898045
239	0xbcdbb3dd	-0.026819164
240	0x3d307ea1	0.043089513
241	0x3c5ef93d	0.013609228
242	0xbbf8f639	-0.0075977114
243	0x3da576e5	0.08079318
244	0xbd427623	-0.047475945
245	0xbcb30bc6	-0.0218562
246	0x3cbbeeba	0.022940982
247	0xbd216ca9	-0.039410267
248	0x3c53f2c5	0.012936299
249	0x3c815e3c	0.015792005
250	0xbcf2a00b	-0.02961733
251	0xbd1e0d6f	-0.03858703
252	0x3c78597a	0.015158052
253	0xbcad3c85	-0.021147022
254	0x3d2d8433	0.042362403
255	0xb91eeb5b	-0.00015155731

Q1.moduleList.2.linear_1.bias f4 [128]
0	0x3da3eb89	0.08003909
1	0x3e1afbc8	0.1513511
2	0xbd81d98d	-0.06340323
3	0x3e5b9aca	0.21445766
4	0x3e31439b	0.17310946
5	0x3e1f5f15	0.15563615
6	0x3da8a0e8	0.082338154
7	0x39f37107	0.00046432784
8	0xbcaee72e	-0.02135047
9	0xbd8905e7	-0.06690579
10	0xbd8933dd	-0.06699345
11	0xbe064b10	-0.13114572
12	0xbd81d57f	-0.06339549
13	0x3e1e9795	0.15487511
14	0x3e0969f8	0.1341933
15	0x3e1f5412	0.15559414
16	0x3cac4f61	0.021033945
17	0xbd8ca2ce	-0.0686699
18	0xbc90d4c7	-0.017679585
19	0x3e2d5299	0.1692604
20	0xbd89c66c	-0.06727299
21	0x3ddf03ef	0.10889422
22	0x3d9452ae	0.072423324
23	0xbe21dc47	-0.15806685
24	0xbd5753e7	-0.05257025
25	0xbce0c599	-0.027437972
26	0xbd5045db	-0.05084787
27	0xbd7a599f	-0.061120626
28	0x3cec8bf3	0.028875327
29	0xbc947ff4	-0.018127419
30	0xbc3f814a	-0.01168854
31	0x3e0041e8	0.12525141
32	0x3e0c3dc0	0.13695431
33	0xbd6903a1	-0.056888226
34	0x3e3f00a6	0.18652591
35	0xbcaada89	-0.020856159
36	0xbdf95bd5	-0.12175719
37	0xbcb68848	-0.02228178
38	0x3c58bb14	0.013228197
39	0xbd54fee0	-0.05200088
40	0x3c5962da	0.013268197
41	0x3ca09a45	0.019604811
42	0xbb29be9a	-0.002590096
43	0xbbe8cbad	-0.007104358
44	0xbce5bb6f	-0.028043477
45	0xbc07f991	-0.008299247
46	0x3e1704a4	0.14747864
47	0x3ce54e95	0.027991572
48	0x3e5b91d1	0.21442343
49	0x3d66f637	0.056387153
50	0x3e12b3f1	0.14326455
51	0xbb47f18b	-0.003050896
52	0xbd13e447	-0.036106374
53	0x3cac20bb	0.0210117
54	0xbdb1d066	-0.08682327
55	0x3e090311	0.13380076
56	0x3dd7381d	0.1050875
57	0xbe3cbdcd	-0.18431778
58	0xbd85472e	-0.06507717
59	0x3e11b31c	0.14228481
60	0xbd807e4d	-0.0627409
61	0x3e2ccbd4	0.1687463
62	0x3d965634	0.07340661
63	0x3e17041f	0.14747666
64	0x3d4122c7	0.047152307
65	0x3e0eef6b	0.13958518
66	0xbc82ea04	-0.015980728
67	0x3b936fe4	0.0044994224
68	0x3e0af222	0.13568929
69	0xbcc6e560	-0.024279296
70	0xbe76a638	-0.24086845
71	0xbca5b32c	-0.020227037
72	0xbcf31b95	-0.029676238
73	0xbe29cb0e	-0.16581365
74	0x3c84285b	0.016132524
75	0x3c31ce87	0.010852463
76	0x3d9fed43	0.07808926
77	0x3e5f5dae	0.2181308
78	0x3e131e1d	0.14366956
79	0xbdac6058	-0.084168136
80	0xbde3cf00	-0.111234665
81	0xbe312181	-0.17297937
82	0x3cee099d	0.029057318
83	0x3dd673ee	0.104713306
84	0xbd0f74e5	-0.03502359
85	0xbe674f95	-0.22588952
86	0xbe9b4ec2	-0.30333525
87	0x3d8c0493	0.0683681
88	0x3d240b96	0.04005011
89	0x3e1cf70b	0.15328614
90	0xbe4e0a6a	-0.2012116
91	0xbeb7b625	-0.35881153
92	0xbe58cde6	-0.21172294
93	0x3e2c023e	0.1679773
94	0xbd7cb45f	-0.061695453
95	0x3e661f9d	0.22472997
96	0x3d3bd447	0.04585674
97	0xbce44c75	-0.027868489
98	0x3c59835c	0.013275947
99	0x3e1fa882	0.15591624
100	0xbc4f77b4	-0.012662817
101	0xbb1c260d	-0.002382639
102	0x3ca31191	0.019905837
103	0x3df3a4f9	0.118967004
104	0x3da664f3	0.08124723
105	0x3e1d17d5	0.15341122
106	0x3e018a2b	0.12650363
107	0x3e14be90	0.14525819
108	0xbdead7c5	-0.11466936
109	0xbbe02297	-0.006840061
110	0xbcef2a83	-0.029195076
111	0x3e577173	0.21039371
112	0x3dce6d04	0.10079387
113	0x3d99446f	0.07483756
114	0x3c1ba355	0.009499391
115	0xbe85dd87	-0.26145574
116	0x3dc469c1	0.095904835
117	0x3dbe89f6	0.09303658
118	0x3dbfff57	0.09374874
119	0x3e15d6c4	0.14632708
120	0x3deaaedc	0.11459133
121	0xbcc646e0	-0.024203718
122	0x3bb17b9d	0.005416347
123	0xbdb9fcee	-0.09081446
124	0x3b853ac3	0.004065843
125	0x3d0ad84a	0.033897676
126	0xbd909a83	-0.07060721
127	0xbe15f351	-0.14643599

Q1.moduleList.3.linear_1.weight f4 [1, 128]
0	0x3ebdff25	0.37108722
1	0xbd82641f	-0.06366753
2	0xbc665f92	-0.014060872
3	0x3f0d544d	0.5520676
4	0xbe756782	-0.23965266
5	0xbd98c81b	-0.07460042
6	0xbd7d297e	-0.06180715
7	0x3f1ac207	0.6045231
8	0x3f13cbf2	0.5773307
9	0xbeaf4e3d	-0.3423938
10	0x3f30b384	0.6902392
11	0x3df0adb6	0.11751883
12	0x3ee0a233	0.43873748
13	0xbe35b84b	-0.17746083
14	0xbd572d63	-0.05253352
15	0xbddc1eff	-0.107480995
16	0x3e4dddbe	0.20104119
17	0x3e98c043	0.29834184
18	0x3cac5711	0.02103761
19	0x3ebf268f	0.37334105
20	0xbf390d0a	-0.7228552
21	0xbe3e9d1d	-0.18614621
22	0xbd26bb18	-0.04070577
23	0x3e4bd1ba	0.19904223
24	0x3cae1895	0.021251956
25	0xbda4c046	-0.08044486
26	0xbeda97cf	-0.42693946
27	0xbc99ba61	-0.01876563
28	0x3efade6f	0.48997828
29	0x3e1da237	0.15393911
30	0x3e8789d0	0.2647233
31	0xbd817206	-0.06320576
32	0xbe044b6a	-0.12919393
33	0x3e55445a	0.20826855
34	0x3e9fe7ee	0.31231636
35	0xbe2d601c	-0.16931194
36	0x3eb39360	0.35073376
37	0x3c0d0017	0.008605978
38	0x3dd09903	0.10185435
39	0x3f06cd34	0.52656865
40	0x3e1d73c3	0.15376191
41	0x3e01d1c3	0.12677674
42	0xbe400519	-0.18751945
43	0x3e0239e1	0.12717392
44	0x3d5d495c	0.05402504
45	0xbf911705	-1.133515
46	0xbe55196a	-0.20810476
47	0x3e6b5efb	0.22985451
48	0x3f42dff3	0.7612297
49	0x3e9a6586	0.3015558
50	0x3ed7d2dc	0.4215306
51	0xbe88d023	-0.26721296
52	0x3e8bbb3d	0.2729129
53	0x3cdf5581	0.027262451
54	0xbf167818	-0.58777
55	0xbe003280	-0.12519264
56	0xbd70eb16	-0.058817945
57	0x3dfce22b	0.123478256
58	0xbef9c9a4	-0.48786652
59	0x3ec3161b	0.38102803
60	0xbf3cfd55	-0.73824054
61	0xbd87b835	-0.066269316
62	0xbd8e2297	-0.06940191
63	0xbd56936e	-0.052386694
64	0x3e5bd4a9	0.21467842
65	0xbd8563a0	-0.065131426
66	0xbecfe5e6	-0.40605086
67	0x3af917c4	0.0019004275
68	0xbd83178d	-0.06400976
69	0xbf064280	-0.5244522
70	0xbfa57132	-1.292517
71	0x3e8516f0	0.25994062
72	0xbd5306aa	-0.051520027
73	0x3f2d1bac	0.6762035
74	0xbee85791	-0.45379308
75	0xbe1d1bad	-0.15342589
76	0xbd314e24	-0.04328741
77	0x3f205429	0.6262842
78	0x3ef37b3e	0.47554964
79	0xbefaea32	-0.49006802
80	0xbf2dfb97	-0.6796202
81	0x3ddbf1c5	0.10739473
82	0x3ea7dba8	0.32784772
83	0xbd5e18a7	-0.05422273
84	0x3e328ac4	0.17435747
85	0x3eaaa1c6	0.33326548
86	0x3e732352	0.23743942
87	0x3ebbdde1	0.36692718
88	0x3ee484c7	0.4463255
89	0x3ee24d57	0.4419963
90	0x3e41b07d	0.18914981
91	0x3ed45081	0.4146767
92	0x3e09efd7	0.13470398
93	0xbdfc8ff4	-0.123321444
94	0x3c843819	0.01614003
95	0x3f0a6866	0.5406555
96	0xbf1dd517	-0.61653274
97	0xbe764e21	-0.24053241
98	0xbe86e812	-0.2634893
99	0xbd7bd23d	-0.061479796
100	0x3eff0e07	0.4981539
101	0x3e08f412	0.13374355
102	0xbe80ffc9	-0.2519515
103	0x3e406a45	0.18790539
104	0xbe56d5fd	-0.20980068
105	0xbe1d1e35	-0.15343554
106	0xbe2f11f8	-0.17096698
107	0xbdd7485a	-0.10511847
108	0xbf2acde0	-0.6672039
109	0x3cca3a8c	0.02468612
110	0x3b57522c	0.0032855375
111	0x3eb0c4ae	0.34525055
112	0x3ece25dd	0.40263262
113	0x3ee73a0d	0.45161477
114	0xbed31c52	-0.41232544
115	0x3e8dacf6	0.2767102
116	0x3f1b41e4	0.60647416
117	0x3f8b8d68	1.0902529
118	0xbe04d33d	-0.12971206
119	0xbd99a934	-0.07502976
120	0xbe0b0829	-0.13577332
121	0x3e548c37	0.20756613
122	0xbe8405c6	-0.25785655
123	0xbf1ed24e	-0.6203965
124	0x3d6b43c6	0.05743768
125	0x3e7964df	0.24354886
126	0xbe782271	-0.24231888
127	0x3ee673b4	0.4501015

Q2.moduleList.0.linear_1.weight f4 [128, 22]
0	0xbd02372c	-0.031790897
1	0xbda4c474	-0.08045283
2	0xbdcedfbc	-0.10101268
3	0xbbf32ea1	-0.00742133
4	0xbd948a4a	-0.07252939
5	0xbcfce1aa	-0.030869324
6	0xbd6271a9	-0.055284176
7	0xbdd7c0ba	-0.105348065
8	0x3d869bd7	0.06572693
9	0x3cb4ddba	0.022078384
10	0xbd0bb73b	-0.03411029
11	0xbcaefae2	-0.021359865
12	0x3dc293a8	0.095008194
13	0xbdbf8348	-0.09351212
14	0xbd0d41d0	-0.03448659
15	0xbc3266f7	-0.010888807
16	0x3970743f	0.00022931489
17	0xbd9fa934	-0.07795945
18	0xbd761823	-0.060081612
19	0x3dc6531c	0.096838206
20	0xbdaf79a0	-0.0856812
21	0xbce36df9	-0.0277624
22	0x3da245ea	0.07923491
23	0xbe1ec263	-0.1550384
24	0x3d446a2f	0.047952827
25	0xbf02f34a	-0.5115248
26	0x3dacfe89	0.08446986
27	0xbd89573c	-0.06706092
28	0x3e62494d	0.22098275
29	0xbdaeb358	-0.08530301
30	0x3df3e8fd	0.11909673
31	0xbed96b73	-0.4246479
32	0xbd48795c	-0.048943862
33	0x3d682cfe	0.056683533
34	0xbc8556fe	-0.016276833
35	0xbdd258f0	-0.1027087
36	0xbe85c696	-0.26128072
37	0xbf04676b	-0.51720303
38	0x3e647135	0.2230881
39	0x3e650242	0.22364143
40	0x3a6d380d	0.0009049185
41	0x3d11a830	0.035560787
42	0x3d9cb8e2	0.07652451
43	0x3d686596	0.056737505
44	0xbc8478de	-0.016170915
45	0xbb7272eb	-0.0036994766
46	0xbe068290	-0.13135743
47	0x3f24e713	0.6441509
48	0x3e8d7634	0.27629244
49	0x3cf7fc5f	0.030271707
50	0x3d217140	0.039414644
51	0xbe257c40	-0.16160679
52	0x3df81d62	0.12114979
53	0x3d15c364	0.036563292
54	0xbea83047	-0.32849333
55	0xbdb1918f	-0.08670341
56	0xbe375bc5	-0.17906101
57	0x3c86757a	0.016413439
58	0xbddfa2b8	-0.10919708
59	0xbf2a8d80	-0.6662216
60	0x3ed0f927	0.40815088
61	0x3e88739a	0.26650697
62	0xbbb1cd59	-0.0054260907
63	0x3d5e4a15	0.05426987
64	0x3c88f833	0.016719913
65	0x3d4b77e4	0.049674883
66	0x3ba31f7d	0.004978119
67	0x3d7fe511	0.062474314
68	0xbfc3735a	-1.5269578
69	0x3e19eca1	0.15031673
70	0x3937dbe5	0.00017534157
71	0x3cb129e3	0.021626418
72	0xbcd67e4e	-0.026183274
73	0xbdab3aac	-0.083608
74	0xbd7ae965	-0.06125774
75	0xbeac1130	-0.33606863
76	0xbeac6e00	-0.33677673
77	0xbe04d8b7	-0.12973295
78	0xbe39edb8	-0.18157089
79	0x3aca36a1	0.0015427658
80	0x37a58837	1.9732963e-05
81	0xbe4f3509	-0.20235075
82	0x3cdf162b	0.02723225
83	0xbca92f81	-0.020652534
84	0xbe1ce905	-0.15323265
85	0xbc640195	-0.013916393
86	0xbc9bd5ea	-0.0190229
87	0xbb073083	-0.002062828
88	0xb984ab28	-0.00025304523
89	0xbd06ded0	-0.032927334
90	0x3bdc9a59	0.006732267
91	0x3f403792	0.75084794
92	0x3f3dafb9	0.74096256
93	0xbb0269d9	-0.0019899516
94	0x3d257d16	0.040402494
95	0xbe216558	-0.15761316
96	0x3ef8b153	0.48572788
97	0xbe07d854	-0.13266116
98	0xbe633d19	-0.22191276
99	0xbe9e6cb7	-0.30942318
100	0xbd3707b5	-0.044685084
101	0xbd4a4b06	-0.049387954
102	0x3de03d3d	0.1094918
103	0x3e96fade	0.2948827
104	0x3ec6682f	0.3875136
105	0x3f0b61c6	0.54446065
106	0xbae7b78b	-0.0017678601
107	0x3cc58d18	0.02411513
108	0xbd4234ca	-0.047413625
109	0xbc292e85	-0.0103260325
110	0x3b883767	0.004156995
111	0x3df3ff99	0.11913986
112	0xbddbd40f	-0.10733806
113	0x3f6027e9	0.875609
114	0x3f1125e4	0.5669844
115	0x3d06f6d8	0.032950252
116	0xbc92605e	-0.017868217
117	0xbebe5ba8	-0.37179303
118	0xbe054f84	-0.13018614
119	0xbdda10f2	-0.10647763
120	0xbe379740	-0.17928791
121	0x3e1d1399	0.15339507
122	0x3e32906c	0.17437905
123	0x3daac904	0.08339122
124	0xbe485c08	-0.19566357
125	0xbf6ce9ad	-0.9254406
126	0xbf23e031	-0.64013964
127	0xbea5f4f5	-0.3241345
128	0x3c0a2099	0.008430623
129	0x3c074f80	0.0082587
130	0x3da752c8	0.08170086
131	0xbda12155	-0.07867686
132	0xbdab3836	-0.08360331
133	0xbdc9d5e1	-0.09855247
134	0xbd5ff6ea	-0.054678835
135	0xbdda008c	-0.106446356
136	0x3de47ef8	0.1115703
137	0xbdef3631	-0.11680258
138	0x3cd90274	0.026490428
139	0x3de67b70	0.112540126
140	0x3af5464d	0.0018712968
141	0x3c60fc96	0.013732096
142	0xbdcf3064	-0.10116652
143	0x3da006c6	0.07813792
144	0x3de90a84	0.11378959
145	0xbccd064e	-0.02502742
146	0x3d00249a	0.031284906
147	0x3d9babc1	0.07601119
148	0x3da8036f	0.0820378
149	0x3d83036f	0.06397139
150	0x3dde9632	0.10868491
151	0x3d2e3275	0.04252859
152	0x3d8f1449	0.06986291
153	0xbdb8dcbb	-0.09026476
154	0x3d0ed87c	0.034874424
155	0x3d10e95e	0.035378806
156	0xbcc143c9	-0.023591893
157	0x3eb47392	0.35244423
158	0x3d96c4fa	0.07361789
159	0xbccbadab	-0.024863085
160	0x3d680a44	0.056650415
161	0xbe2b6a7c	-0.1673984
162	0x3f8e671e	1.1125219
163	0x3e48c1e8	0.1960522
164	0x3e66ef68	0.22552264
165	0x3e8ce8e0	0.2752142
166	0x3e161173	0.14655094
167	0x3edfffea	0.43749934
168	0x3e561ddb	0.20909826
169	0xbdcf5205	-0.10123066
170	0xbe3b052e	-0.18263695
171	0xbdfa1d53	-0.122126244
172	0x3affce07	0.0019516357
173	0xbc302cf8	-0.010752909
174	0xbca81f3c	-0.020522706
175	0xbcc656f8	-0.024211392
176	0x3ab80c04	0.0014041667
177	0xbe12e6dc	-0.14345878
178	0xbd8220b8	-0.06353897
179	0xbf74570f	-0.9544534
180	0xbf208bb5	-0.62713176
181	0x3c60afa3	0.01371375
182	0x3e145632	0.14486006
183	0x3ea1e0c9	0.3161681
184	0x3e3c067f	0.18361853
185	0x3e6d3f1e	0.23168609
186	0x3b1f88d6	0.0024343035
187	0x3e559328	0.20856917
188	0x3e3f7071	0.18695237
189	0x3e6637be	0.22482201
190	0xbb2248a8	-0.0024762545
191	0x3e6789f4	0.22611219
192	0x3e119dd1	0.14220358
193	0x3e8d21b7	0.27564785
194	0xbc2da290	-0.01059784
195	0xbd279e47	-0.04092243
196	0xbccc7414	-0.024957694
197	0x3d08e787	0.033423927
198	0xbca23e51	-0.019805105
199	0xbd982053	-0.0742804
200	0xbbfc25c1	-0.0076949303
201	0xbe069036	-0.1314095
202	0xbddad543	-0.10685208
203	0x3cc7bc18	0.024381682
204	0xbc12eadb	-0.008967127
205	0xbc60d2b3	-0.01372211
206	0xbf834e9e	-1.0258367
207	0xbf228f7c	-0.6350019
208	0xbf6add2a	-0.9174372
209	0xbef0368f	-0.46916625
210	0xbece1285	-0.40248504
211	0xbf1106e3	-0.56651133
212	0xbefa6292	-0.48903328
213	0xbe1878cf	-0.14889835
214	0x3eeeb682	0.46623617
215	0x3e9ab85e	0.30218786
216	0xbc03c685	-0.008042936
217	0x38e561a2	0.000109377565
218	0x3bc2927c	0.0059378725
219	0x3c85de8f	0.016341476
220	0xbd8a6e0f	-0.06759273
221	0xb8a80c91	-8.013205e-05
222	0xbdee6347	-0.116400294
223	0x3d963a03	0.073352836
224	0xbddc04e8	-0.10743123
225	0xbd04a44b	-0.032383244
226	0x3d177303	0.036974918
227	0xbdc4ddcb	-0.09612616
228	0x3d8078ed	0.06273065
229	0x3dca159a	0.098674014
230	0xbd6e4968	-0.058175474
231	0x3dc7dc0e	0.09758769
232	0xbdd1a05f	-0.102356665
233	0x3c01daf7	0.00792574
234	0xbded06da	-0.115735725
235	0x3b9679d5	0.00459216
236	0xbd0b686c	-0.03403513
237	0x3d81787a	0.06321807
238	0x3ca8fc27	0.020628048
239	0xbc7bc545	-0.015366857
240	0xbd35b06e	-0.04435771
241	0x3d4167d8	0.047218174
242	0xbcdca07e	-0.026931997
243	0xbdeb3a93	-0.114857815
244	0x3d6f3971	0.05840439
245	0x3c126b31	0.008936689
246	0x3d0eadff	0.034833904
247	0xbd905a8d	-0.07048521
248	0xbb1fa152	-0.002435763
249	0xbd0d38f4	-0.034478143
250	0x3c5ad308	0.013355978
251	0x3d9eb92c	0.077501625
252	0x3dd811d0	0.105502725
253	0x3c06a41f	0.00821784
254	0x3df10da3	0.11770179
255	0x3dd9b09a	0.10629387

Q2.moduleList.0.linear_1.bias f4 [128]
0	0x3d9db316	0.077001736
1	0xbe410c80	-0.18852425
2	0xbe461d89	-0.19347204
3	0x3de39fae	0.11114441
4	0x3d882189	0.06647021
5	0xbe605f22	-0.2191129
6	0x3d25e050	0.040497124
7	0x3e381c39	0.17979516
8	0x3e58e3d8	0.21180665
9	0xbee78681	-0.45219806
10	0xbcc826e6	-0.02443261
11	0xbc2c2e41	-0.010509075
12	0xbdae476e	-0.08509718
13	0x3de834fa	0.113382295
14	0x3d896e4f	0.06710493
15	0x3eb276aa	0.34856158
16	0x3cb0b980	0.021572828
17	0xbe7618b2	-0.24032858
18	0xbdce9911	-0.10087789
19	0x3eacbd0f	0.3373799
20	0x3dc7fde3	0.09765222
21	0xbd5cf403	-0.053943645
22	0xbcf02767	-0.029315664
23	0x3d9785ad	0.073985435
24	0xbd9a54ba	-0.075356916
25	0x3d22bc16	0.039730154
26	0xbefafe11	-0.49021962
27	0xbdd91616	-0.10599916
28	0xbe62789b	-0.2211632
29	0xbf247c6c	-0.6425235
30	0xbd4fb788	-0.05071214
31	0x3e87e4ea	0.26541835
32	0xbd909410	-0.07059491
33	0x3f0a04c7	0.5391354
34	0x3ddd42a1	0.10803724
35	0x3ec58014	0.38574278
36	0xbf0373a1	-0.5134831
37	0xbe2a2918	-0.16617239
38	0x3dd8ac04	0.105796844
39	0x3d1731ff	0.036912914
40	0xbdc63a4d	-0.09679089
41	0x3da94a52	0.082661286
42	0x3ddb8ccf	0.107202165
43	0x3cfe951d	0.031076962
44	0xbc8412e5	-0.01612229
45	0xbddc33b5	-0.1075205
46	0xbd85c3ba	-0.065314725
47	0x3eb9eef1	0.3631511
48	0x3e764214	0.24048644
49	0x3e5bb71f	0.21456574
50	0x3ca12826	0.019672465
51	0xbe5ac5ae	-0.21364471
52	0x3edd263e	0.4319324
53	0xbdd4b262	-0.10385586
54	0x3e8bccf0	0.27304792
55	0x3e226b5a	0.15861264
56	0xbd7db058	-0.061935753
57	0xbe01a533	-0.12660675
58	0xbde35e45	-0.11101965
59	0xbd22b621	-0.039724473
60	0xbed7ecfa	-0.42172986
61	0xbc4ec373	-0.012619841
62	0x3e72d12f	0.2371261
63	0xbea9e560	-0.33182812
64	0xbc134987	-0.008989698
65	0xbdc85451	-0.09781707
66	0x3dd4840a	0.10376747
67	0xbe9693b2	-0.29409558
68	0xbd4e2f01	-0.050337795
69	0xbd154bc1	-0.036449198
70	0xbed420a9	-0.41431168
71	0x3db698bb	0.0891585
72	0x3c0158b9	0.007894688
73	0xbd3fc5ce	-0.0468195
74	0xbc897027	-0.016777111
75	0xbe65808b	-0.22412317
76	0x3df03b67	0.1173008
77	0xbdb04eb7	-0.08608764
78	0xbe3033fe	-0.17207333
79	0x3d88c5da	0.06678362
80	0x3e88ec6a	0.2674287
81	0x3e15ed88	0.14641392
82	0xbdd0efe8	-0.102020085
83	0x3eb2c301	0.349144
84	0xbb0ee949	-0.002180653
85	0x3e7d1ffd	0.24719234
86	0xbe5c51a9	-0.21515526
87	0x3e3cf470	0.1845262
88	0xbe2c1e03	-0.16808324
89	0x3c0c5d97	0.008567235
90	0x3db1b27b	0.086766206
91	0x3c666678	0.014062516
92	0xbd8c2bec	-0.06844315
93	0x3e82fc8f	0.25583312
94	0x3da4816e	0.08032499
95	0xbdbf223f	-0.09332704
96	0x3e0784ae	0.13234207
97	0xbd623870	-0.055229604
98	0xbd29bae5	-0.041438002
99	0xbdfaa1d6	-0.12237899
100	0x3df28d06	0.11843304
101	0x3e2aabb6	0.16667065
102	0x3e30f342	0.17280295
103	0xbece9b6c	-0.40352952
104	0xbdb2d59b	-0.08732148
105	0xbde5a3ee	-0.11212908
106	0xbe71b5c4	-0.23604494
107	0x3da70a17	0.08156221
108	0xbd354340	-0.044253588
109	0xbdc4b326	-0.09604482
110	0x3e259945	0.16171749
111	0x3e2ca44d	0.16859551
112	0xbd1428a1	-0.03617156
113	0xbe2fbe9d	-0.17162557
114	0x3d517e66	0.051145934
115	0xbeb09f5f	-0.3449659
116	0xbda8ceda	-0.08242579
117	0xbd85511a	-0.065096095
118	0x3d16edef	0.036848005
119	0x3e2213e5	0.15827902
120	0x3cac5f17	0.021041436
121	0x3db84b7b	0.08998772
122	0xbe0e29a1	-0.13883068
123	0xbd48b48e	-0.049000315
124	0xbe9260b9	-0.2858942
125	0xbdc72f89	-0.097258635
126	0x3e5c2f4f	0.21502422
127	0x3ddbe876	0.10737698
