experiments/robust_pre_dstb/v2/model/central/central-950000.pth (torch, 283763 bytes, 14 tensors)

Q1.moduleList.0.linear_1.weight f4 [128, 11]
0	0x3d68c6e8	0.056830317
1	0xbe5b6886	-0.21426591
2	0xbe988250	-0.2978692
3	0xbf675929	-0.9037042
4	0xbde28af0	-0.110616565
5	0x3dabb1d0	0.083835244
6	0x3e945c4c	0.28976667
7	0xbd93e8df	-0.07222151
8	0xbd6fa5a9	-0.058507595
9	0xbcc22cf8	-0.023703083
10	0xbd9d41ae	-0.07678543
11	0xbe106c9d	-0.14103933
12	0xbd091a98	-0.033472627
13	0xbe48e7ae	-0.19619629
14	0xbe40442e	-0.18776008
15	0x3cebb391	0.028772147
16	0xbe158869	-0.14602818
17	0xbd680c34	-0.056652263
18	0xbe4d5397	-0.20051418
19	0x3d24dd5b	0.040250164
20	0x3deaeeef	0.11471354
21	0x3d0cdcb8	0.03439018
22	0xbddaa977	-0.10676854
23	0x3d356c2a	0.044292606
24	0x3d6c95b3	0.05775995
25	0xbd044012	-0.032287665
26	0xbe46c1a2	-0.19409803
27	0xbdfca119	-0.123354144
28	0xbe1d26ba	-0.15346804
29	0xbdfede0f	-0.12444698
30	0x3bf53823	0.0074834987
31	0x3e6d21f8	0.2315749
32	0x3dbd0b5b	0.092306815
33	0xbd172aba	-0.03690598
34	0xbd02a709	-0.03189758
35	0xbe050564	-0.12990338
36	0xbe24bf76	-0.16088662
37	0xbf3ebf0f	-0.7451028
38	0x3d8f8a60	0.07008815
39	0x3e249e80	0.16076088
40	0x3d97ae82	0.074063316
41	0x3b287309	0.0025703332
42	0xbd82013b	-0.06347891
43	0xbdc82696	-0.09772985
44	0xbdd46d1f	-0.10372376
45	0x3e6af7ba	0.22946063
46	0xbe4081c3	-0.187995
47	0xbf65bc6c	-0.89740634
48	0xbf45a7ae	-0.77208984
49	0x3dddfaf3	0.108388804
50	0x3dcb5314	0.09927955
51	0xbd1cdbb6	-0.03829547
52	0xbe082253	-0.13294344
53	0x3ca0ba02	0.019619945
54	0xbcdca5e5	-0.026934573
55	0x3d72215c	0.059113845
56	0xbead0425	-0.33792225
57	0xbeca3f33	-0.39501342
58	0x3f4441fc	0.76663184
59	0xbbec9d20	-0.007220879
60	0x3d5498f9	0.0519037
61	0x3e5ca262	0.21546319
62	0xbd3b86b0	-0.045782745
63	0xbb0a0f1a	-0.002106613
64	0xbb8f7015	-0.004377375
65	0x3d1fc353	0.039004635
66	0x3e723618	0.23653448
67	0x3ebb6fe4	0.36608803
68	0x3e7959da	0.24350682
69	0x3f6e8a76	0.93180025
70	0x3e9d0e52	0.30674988
71	0xbe12ee2e	-0.14348671
72	0xbe582459	-0.21107616
73	0xbe1c426b	-0.15259711
74	0xbc810cfc	-0.015753262
75	0xbd750127	-0.059815552
76	0xb97c44e7	-0.00024058261
77	0x3d2bb095	0.04191645
78	0xbdbec420	-0.093147516
79	0x3da45456	0.08023898
80	0xbf9c1810	-1.2194843
81	0xbf4d1cbc	-0.8012197
82	0xbce62b09	-0.028096693
83	0x3db31817	0.08744829
84	0xbd59ff29	-0.053221855
85	0x3c3fa5cf	0.011697247
86	0xbe2ac414	-0.1667636
87	0x3e6bdb9e	0.23032996
88	0x3d1ed6ce	0.038779072
89	0x3e6c3b8a	0.23069587
90	0xbe6438dd	-0.22287317
91	0xbe5307c8	-0.20608437
92	0xbe41652a	-0.18886247
93	0xbe01cc89	-0.1267568
94	0xbc51bd05	-0.012801413
95	0xbdef323f	-0.116795056
96	0x3e33dbb4	0.17564279
97	0xbceb8a4c	-0.028752469
98	0x3e6ce287	0.23133288
99	0xbdc68c29	-0.09694702
100	0xbe6f627d	-0.23377414
101	0xbe3de1d1	-0.18543173
102	0xbe373689	-0.17891897
103	0xbe01073d	-0.12600417
104	0xbe7afa93	-0.24509649
105	0xbded146f	-0.11576163
106	0x3e6e0b31	0.23246457
107	0xbcb1f53d	-0.021723384
108	0x3beb9afa	0.0071901055
109	0xbe71b6ec	-0.23604935
110	0x3dfe7998	0.12425536
111	0xbeb51a04	-0.3537141
112	0x3ba79019	0.0051136133
113	0xbf62d709	-0.8860937
114	0xbf3d242f	-0.73883337
115	0xbd7713a0	-0.06032145
116	0xbd78d97a	-0.060754277
117	0xba997937	-0.0011709098
118	0xbde87269	-0.11349947
119	0xbd40fbd1	-0.04711515
120	0x3b791fec	0.0038013412
121	0x3e6e24c7	0.23256217
122	0xbd19ff43	-0.037596952
123	0x3c37c9b2	0.0112175215
124	0xbf5d395c	-0.8641565
125	0xbd5b58aa	-0.053551354
126	0xbe0ffde9	-0.14061703
127	0xbe1408a4	-0.14456421
128	0xbd49c0df	-0.0492562
129	0xbca74e63	-0.02042312
130	0xb995ebc2	-0.00028595148
131	0xbd35e29d	-0.04440557
132	0xbd84dff7	-0.064880304
133	0x3b894092	0.0041886056
134	0xbe1adbdc	-0.15122932
135	0xbde95b93	-0.113944195
136	0x3d18dc85	0.03731968
137	0xbd2568d7	-0.040383186
138	0xbdced4ba	-0.10099168
139	0x3d1a036c	0.03760092
140	0xbe262b61	-0.16227485
141	0xbdada2bb	-0.08478304
142	0x3d79b21c	0.060960874
143	0x3e4998bf	0.19687174
144	0x3e20785c	0.15670913
145	0xbe632023	-0.22180228
146	0x3e23c5e3	0.15993457
147	0x3d898d7b	0.067164384
148	0xbdf173f6	-0.11789696
149	0x3e4fbee5	0.20287664
150	0x3de1d542	0.11027004
151	0x3d16fed3	0.036864113
152	0x3c97e754	0.018542923
153	0x3cec747a	0.028864134
154	0xbdeeb2c8	-0.116551936
155	0xbbf3ba1a	-0.0074379565
156	0xbe55cded	-0.20879336
157	0xbee91337	-0.45522472
158	0xbe9f6b69	-0.31136635
159	0x3dbc0395	0.09180371
160	0xbed636e2	-0.41838747
161	0xbc3f7b2a	-0.011687079
162	0xbc2e44f5	-0.010636558
163	0x3c945ef5	0.018111685
164	0xbd0a80d4	-0.033814266
165	0xbead30af	-0.33826205
166	0xbed8b703	-0.42327127
167	0x3d783a84	0.06060268
168	0x3da6e521	0.081491716
169	0x3d93048b	0.07178601
170	0x3996bbc1	0.00028750117
171	0xbe9d7e36	-0.30760354
172	0x3dfeae28	0.124355614
173	0xbe1ee599	-0.15517272
174	0xbe6b1fb5	-0.22961314
175	0x3da027d8	0.078200996
176	0xbe1c0293	-0.15235357
177	0xbe6e4508	-0.23268521
178	0xbb008068	-0.0019607786
179	0x3dc03910	0.09385884
180	0x3ce09d90	0.027418882
181	0xbe10f1aa	-0.14154688
182	0xbe71b07a	-0.23602477
183	0x3e0d6ebe	0.13811776
184	0x3c8fcfd5	0.017555157
185	0xbde26ace	-0.110555276
186	0xbdc7cf5d	-0.09756348
187	0x3dd38822	0.103287
188	0xbeb710aa	-0.357549
189	0xbe0e5da4	-0.13902909
190	0x3f41e7af	0.75744146
191	0x3f51c072	0.81934273
192	0x3d963c75	0.0733575
193	0x3d6011db	0.05470453
194	0xbdef5a86	-0.11687188
195	0x3dccafcf	0.0999447
196	0xbdc8ac72	-0.09798516
197	0xbdc74b8d	-0.09731207
198	0xbe3fcfee	-0.18731663
199	0xbe75a2e7	-0.23987924
200	0x3df0df5a	0.11761351
201	0xbdcc16bd	-0.099652745
202	0x3d98dadf	0.07463621
203	0xbe473594	-0.19454032
204	0x3e5226f5	0.20522673
205	0x3e284a22	0.1643453
206	0xbbb7062b	-0.005585452
207	0x3d3703e7	0.044681456
208	0x3e1db97a	0.15402785
209	0x3c972485	0.018450031
210	0xbe973180	-0.29529953
211	0x3d8c6616	0.06855409
212	0xbfa33d4b	-1.275308
213	0xbede2442	-0.43387038
214	0x3cfb5c28	0.030683592
215	0x3df5b81c	0.11998007
216	0x3dc750f0	0.097322345
217	0xbdaeb2a7	-0.08530169
218	0xbd1a56c1	-0.03768039
219	0xbdc37046	-0.09542899
220	0xbe28c25a	-0.16480389
221	0xbdaaa0c3	-0.08331444
222	0x3e9ac3ed	0.30227605
223	0xbe7960ca	-0.24353328
224	0x3c8df56d	0.017328942
225	0xbc3c8d65	-0.01150832
226	0x3e7e8be4	0.24858052
227	0x3e73a0ce	0.23791811
228	0xbe44c413	-0.19215421
229	0xbd015df4	-0.03158374
230	0xbda4881d	-0.08033774
231	0x3d557f23	0.0521232
232	0xbdc6095f	-0.09669756
233	0x3e5a73c0	0.21333218
234	0x3ddf074e	0.10890065
235	0x3d0a9fdf	0.03384387
236	0xbe180259	-0.14844646
237	0xbcaa6049	-0.020797865
238	0xbe54fecf	-0.20800327
239	0x3e0651cd	0.13117142
240	0xbe081e2f	-0.13292764
241	0x3e4d2af1	0.20035912
242	0xbdecec27	-0.1156848
243	0xbe2ef1cb	-0.17084424
244	0x3e602f0f	0.21892951
245	0xbf6cbefb	-0.92478913
246	0xbc244914	-0.010027189
247	0x3e12256e	0.14272091
248	0xbe3755f2	-0.1790388
249	0x3c623785	0.013807182
250	0x3c4cfd67	0.012511588
251	0x3dd30892	0.10304369
252	0xbe05e6e0	-0.13076353
253	0x3dd7592b	0.10515054
254	0xbe9b45e2	-0.30326754
255	0xbcfb3f57	-0.030669851

Q1.moduleList.0.linear_1.bias f4 [128]
0	0x3dbf447d	0.09339235
1	0xbe2fcad3	-0.17167215
2	0xbe5c5238	-0.21515739
3	0xbe98b072	-0.29822117
4	0x3da2b8e9	0.07945425
5	0xbe0bdd8f	-0.13658737
6	0xbed02a58	-0.40657306
7	0xbe2cdce3	-0.16881137
8	0x3e0f5bf7	0.13999926
9	0x3d4110e2	0.04713524
10	0xbd05f60a	-0.032705344
11	0xbeaa9e22	-0.3332377
12	0x3e360ef1	0.17779137
13	0xbe86fe9d	-0.2636613
14	0xbd3e3809	-0.046440158
15	0xbdff03dd	-0.12451909
16	0xbc163c3b	-0.0091696335
17	0xbee242de	-0.4419164
18	0xbe036c37	-0.1283425
19	0x3efddce8	0.495826
20	0xbdcef48e	-0.10105239
21	0xbd726c2c	-0.059185192
22	0x3e6c6867	0.23086701
23	0xbec1f233	-0.37880096
24	0x3e7db0b1	0.24774434
25	0x3e7c52ea	0.24641004
26	0x3e4e2dd8	0.20134676
27	0xbec64e38	-0.3873155
28	0xbd8b2355	-0.067938484
29	0x3e04c063	0.12964015
30	0x3efb8f7c	0.49132907
31	0xbd03d1e2	-0.03218258
32	0x3dab42ce	0.08362351
33	0x3ec388f9	0.3819044
34	0xbe92c5c5	-0.2866651
35	0x3ea0e019	0.31420973
36	0x3e19c59c	0.15016788
37	0xbd535f08	-0.0516043
38	0x3e5aed02	0.21379474
39	0xbe5c7a04	-0.2153092
40	0x3cebed65	0.028799722
41	0xbdf619ec	-0.12016663
42	0x3f0b28f2	0.5435935
43	0x3dbb7d75	0.091547884
44	0x3c7bf5e1	0.015378446
45	0x3ea24011	0.31689504
46	0xbc4f228e	-0.012642516
47	0xbefa8b0d	-0.48934212
48	0xbd6817ab	-0.056663197
49	0x3e635ac3	0.22202592
50	0x3dba9fb0	0.09112489
51	0x3eb5b3b8	0.35488677
52	0x3ecd63e9	0.40115288
53	0x3e8a69b0	0.27033758
54	0x3d4c16d7	0.04982647
55	0xbd9af053	-0.075653695
56	0x3cb050f3	0.021522975
57	0xbddaec86	-0.106896445
58	0xbd7d638d	-0.061862517
59	0xbe16bad2	-0.14719704
60	0x3e221d8f	0.15831588
61	0x3e01fe36	0.1269463
62	0x3ccff443	0.025385028
63	0x3e76b50b	0.240925
64	0xbdf33f7a	-0.118773416
65	0x3e6abfff	0.22924803
66	0xbe53d324	-0.20686013
67	0x3ada096b	0.0016634887
68	0xbe93aa88	-0.28841043
69	0x3e2bc76d	0.16775294
70	0x3ee3b2a2	0.44472224
71	0xbe20c917	-0.1570171
72	0xbd9f0099	-0.07763786
73	0xbe6ec9e7	-0.23319207
74	0x3f23b367	0.6394562
75	0x3dfcd9c0	0.1234622
76	0x3d881f6e	0.0664662
77	0xbe323c1a	-0.1740574
78	0x3ddb2b11	0.10701574
79	0x3ecc627e	0.39918894
80	0x3e232f8e	0.1593611
81	0xbeca43a1	-0.39504722
82	0x3ee40fb1	0.44543222
83	0xbb79094d	-0.0037999928
84	0xbcc082aa	-0.023499805
85	0xbe9fa3ee	-0.31179756
86	0xbe236468	-0.1595627
87	0x3e54882e	0.20755073
88	0xbcb39cc3	-0.021925336
89	0x3d77a158	0.060456604
90	0x3dad8813	0.0847322
91	0x3bc55c32	0.0060229534
92	0x3e4f4f71	0.20245148
93	0x3e31ba8c	0.17356318
94	0x3ea23040	0.31677437
95	0xbe3ca9c9	-0.18424143
96	0x3ec85d24	0.3913356
97	0x3ebecafe	0.37264246
98	0x3d3097ea	0.043113627
99	0xbece4417	-0.40286323
100	0x3ddf6928	0.10908729
101	0xbcff7c9d	-0.03118735
102	0x3e7cc062	0.24682763
103	0x3d5abb7b	0.05340145
104	0xbb88ac18	-0.004170906
105	0xbee23d9f	-0.44187638
106	0x3f077c82	0.5292436
107	0x3dca00da	0.09863444
108	0xbd1b1735	-0.03786393
109	0xbdfcf456	-0.12351291
110	0x3e719e33	0.23595504
111	0x3e877451	0.2645593
112	0xbe1eac1b	-0.1549534
113	0xbdc44ed8	-0.09585351
114	0x3e03c48d	0.12867947
115	0x3e9175ba	0.2841013
116	0x3db0fc81	0.08641911
117	0x3db7dd66	0.08977775
118	0xbd88b722	-0.06675555
119	0xbef14aa9	-0.47127274
120	0x3d3ad5db	0.045614105
121	0x3d456aab	0.04819743
122	0x3e5b88fa	0.21438971
123	0xbe88c8e7	-0.26715776
124	0xbde2fe2d	-0.110836364
125	0xbe62ebe9	-0.22160305
126	0x3e1fcf44	0.1560641
127	0x3e2a8f61	0.16656257

Q1.moduleList.1.linear_1.weight f4 [128, 128]
0	0x3d677093	0.056503844
1	0xbd90553c	-0.07047507
2	0xbcac2404	-0.021013267
3	0xbd98937d	-0.07450006
4	0xbd806557	-0.06269329
5	0xbd8d05a4	-0.068858415
6	0xbd0a3363	-0.033740412
7	0xbda1dd8b	-0.07903584
8	0x3d8ee02b	0.069763504
9	0xbd95a69e	-0.0730717
10	0x3c87e349	0.01658787
11	0x3d9040ae	0.07043587
12	0x3a997e49	0.001171061
13	0x3c0ca757	0.008584819
14	0xbd822349	-0.06354386
15	0x3d40e57d	0.047093857
16	0x3d91e7bd	0.07124279
17	0xbcc37bae	-0.023862686
18	0x3ca03e5d	0.019560987
19	0x3d227015	0.03965767
20	0x3d405c1d	0.046962846
21	0x3d23c2d7	0.039980736
22	0x3d759bd8	0.059963077
23	0x3cbdd1a4	0.023171254
24	0x3d1161c4	0.035493627
25	0xbd670758	-0.056403488
26	0x3d525a31	0.051355544
27	0x3d24b0b2	0.040207572
28	0xbd49b8bf	-0.049248453
29	0x3c109f43	0.008827033
30	0x3b8c13aa	0.004274805
31	0xbc83acf3	-0.01607368
32	0xbc68d098	-0.014209889
33	0x3d7fc314	0.0624419
34	0x3cff11cf	0.031136421
35	0xbcde8c73	-0.02716658
36	0x3c81ae3e	0.015830155
37	0x3ce0fafe	0.027463432
38	0xbd5ad472	-0.05342526
39	0xbd930b6b	-0.07179912
40	0x3b9f63a7	0.0048641744
41	0xbd09c0c5	-0.033631105
42	0x3d13953f	0.036031004
43	0xbcd87df0	-0.02642724
44	0xbc8b02d4	-0.016969122
45	0x3d022da8	0.031781822
46	0x3d77fa4d	0.06054144
47	0xbcc72308	-0.024308696
48	0xbc5b2a06	-0.013376718
49	0xbd75185f	-0.059837695
50	0xbd758c2f	-0.059948143
51	0xbd91200a	-0.07086189
52	0xbc8c8933	-0.017155265
53	0xbbd42f02	-0.0064753303
54	0x3d892f76	0.066985056
55	0x3d5cc534	0.053899005
56	0x3c974005	0.018463144
57	0x3d51bb14	0.051203802
58	0xbd6127f6	-0.05496975
59	0x3d511e8a	0.051054515
60	0x3cb4db42	0.022077207
61	0xbcdbd6f0	-0.026835889
62	0xbd2ef83f	-0.042717215
63	0x3d72d8c9	0.059288774
64	0xbd057786	-0.03258469
65	0x3cfa1e5a	0.03053205
66	0xbca71fb6	-0.020400863
67	0x3d3e0ecf	0.04640084
68	0xbd8c476f	-0.068495624
69	0x3d2682e6	0.04065218
70	0x3c096e9d	0.008388189
71	0xbd012999	-0.03153381
72	0x3ce15905	0.027508268
73	0x3ccc53d8	0.024942324
74	0x3d4176ca	0.047232427
75	0xbc0f7826	-0.008756673
76	0x3c1ac511	0.009446398
77	0xbcdef4ef	-0.027216403
78	0x3d565aa2	0.052332528
79	0xbd790642	-0.060796984
80	0xbd4d8b51	-0.05018169
81	0xbd86f4f5	-0.065896906
82	0x3d17ea32	0.03708858
83	0xbd970d02	-0.07375528
84	0xbc97cf10	-0.018531352
85	0xbb8c4296	-0.0042803986
86	0x3d90b416	0.07065599
87	0xbd5425eb	-0.051793974
88	0x3c35c323	0.0110938875
89	0xbd32f8eb	-0.043694418
90	0xbd63650c	-0.055516288
91	0xbd1452ee	-0.0362119
92	0xbd2cd46f	-0.04219478
93	0xb8525982	-5.0151262e-05
94	0xbd95271b	-0.072828494
95	0x3d154695	0.036444265
96	0xbd925dda	-0.07146807
97	0xbd021fb7	-0.031768527
98	0x3c4d1b10	0.012518659
99	0xbd75f8ca	-0.060051717
100	0x3d20a0f7	0.039216008
101	0x3d7eaf6f	0.062179025
102	0xbd3d5e63	-0.046232592
103	0x3d565d6a	0.05233518
104	0xbd832d44	-0.06405118
105	0xbb5bb80f	-0.0033526456
106	0xbda1eb59	-0.07906217
107	0xbbe179ba	-0.006880966
108	0xbcae1c77	-0.021253807
109	0x3cd7e711	0.026355298
110	0x3b7ec0da	0.0038872273
111	0xbc79dc5a	-0.01525029
112	0xbce3025a	-0.027711082
113	0x3c9e701e	0.019340571
114	0xbd04d800	-0.032432556
115	0xbda79319	-0.081823535
116	0x3ce86365	0.028367708
117	0x3bb75888	0.0055952705
118	0x3cb29aa3	0.021802252
119	0xbd622366	-0.05520954
120	0xbba2c90f	-0.0049678157
121	0xbcf7d503	-0.03025294
122	0x3a78819d	0.0009479763
123	0x3d204d41	0.039136175
124	0x3d874bb2	0.066062346
125	0x3ba8492b	0.0051356754
126	0x3d83d0b0	0.06436288
127	0x3d8850fe	0.06656073
128	0x3d0a6896	0.033791147
129	0x3d1d35d0	0.038381398
130	0xbd097119	-0.033555124
131	0x3c43c30d	0.011948359
132	0x3d206dad	0.039167095
133	0xb8a9f218	-8.1036414e-05
134	0x3d1d129b	0.03834782
135	0xbd6da8e3	-0.05802239
136	0xbce4e9e3	-0.027943557
137	0xbd355251	-0.044267956
138	0x3d9208dc	0.07130596
139	0xbc9a6c7e	-0.018850561
140	0xbd06d36a	-0.032916464
141	0xbcc744e4	-0.024324842
142	0x3d3bd71b	0.045859437
143	0x3d0a7164	0.033799544
144	0xbcef14f1	-0.02918479
145	0xbd5b2347	-0.05350044
146	0xbd29b4fd	-0.04143237
147	0xbcd07169	-0.025444703
148	0xbcc86143	-0.02446044
149	0xbd929db2	-0.07158984
150	0x3c1b4084	0.009475831
151	0xbc4d87c6	-0.012544578
152	0x3ad08967	0.001591009
153	0x3cbf121b	0.023324063
154	0xbd03f425	-0.032215256
155	0xbcf037a3	-0.029323405
156	0x3d7b8169	0.061402712
157	0xbd414a2a	-0.04718987
158	0x3d66c788	0.05634263
159	0xbd2791b3	-0.040910434
160	0x3cb0400c	0.021514915
161	0xbcc7f1ed	-0.024407351
162	0xbcfac2a4	-0.03061039
163	0x3c38abd5	0.011271437
164	0x3d93095c	0.071795195
165	0x3a0522ad	0.00050787145
166	0x3d485144	0.048905626
167	0x3ba84104	0.0051347036
168	0x3d856f2c	0.06515345
169	0x3d054868	0.032539755
170	0xbd35b56d	-0.044362474
171	0x3c266742	0.0101564545
172	0x3d53cf70	0.0517115
173	0xbbe2759e	-0.0069109937
174	0x3b8e2280	0.004337609
175	0x3cd3e3a1	0.025865378
176	0xbcab082b	-0.020877918
177	0xbc8260ca	-0.015915293
178	0x3d811c83	0.06304266
179	0xbd13974a	-0.036032952
180	0x3c8c3081	0.017112972
181	0xbd4c9c36	-0.04995366
182	0x3d9458d4	0.07243505
183	0xbcff3261	-0.031151952
184	0xbce3c556	-0.027804058
185	0xbd82200c	-0.06353769
186	0xbb81dda2	-0.0039631883
187	0xbc6ba423	-0.014382395
188	0x3cb826eb	0.022479495
189	0x3d1cc355	0.03827222
190	0xbc826d93	-0.01592139
191	0x3c75040a	0.014954576
192	0xbd30212d	-0.04300039
193	0x3bcb59f6	0.0062057925
194	0x3abe22d6	0.0014506232
195	0xbd0294b4	-0.031880096
196	0xbd91c017	-0.07116716
197	0x3d7d4996	0.061837755
198	0x3d5c7c1b	0.053829294
199	0xbd25a7e9	-0.040443335
200	0xbd47b189	-0.048753295
201	0x3c042205	0.0080647515
202	0xbbb1bbe1	-0.0054240082
203	0xbd346750	-0.04404384
204	0x3b31aaae	0.002710979
205	0xbc88dbb7	-0.01670633
206	0x3d3e368b	0.046438735
207	0x3ccd2266	0.025040817
208	0x3d3cd976	0.046105824
209	0x3d04d766	0.032431982
210	0xbc727cdd	-0.014800278
211	0x3cd90a62	0.026494209
212	0xbd065cfa	-0.032803513
213	0x3d592161	0.05301035
214	0xba8f840c	-0.0010949387
215	0x3d8b24e0	0.06794143
216	0x3c726741	0.014795125
217	0x3cc2c0e5	0.02377362
218	0xbc1c4070	-0.0095368475
219	0xbd288982	-0.041146763
220	0xbd4b9426	-0.049701832
221	0xbd411d78	-0.047147244
222	0xbd34ad30	-0.044110477
223	0x3d812c21	0.06307245
224	0xbd39f251	-0.045397107
225	0xbd59acb4	-0.05314322
226	0xbc8f35d8	-0.01748173
227	0x3d0137b1	0.031547252
228	0xbcf0e10f	-0.029404191
229	0xbca65d8e	-0.020308282
230	0xbd90946e	-0.07059561
231	0xbd50dbee	-0.05099099
232	0x3c370944	0.011171643
233	0x3c1daad2	0.009623246
234	0x3a49bbd3	0.00076955295
235	0xbccb96ec	-0.024852239
236	0x3b52828f	0.0032121276
237	0xbd5c806e	-0.053833418
238	0x3cf77add	0.030209953
239	0xbcf4c28c	-0.029877923
240	0xbd48379e	-0.048881166
241	0xbc9f45cc	-0.019442461
242	0x3d2632a0	0.040575624
243	0xbd12275a	-0.03568206
244	0xbd7bd7aa	-0.06148497
245	0x3cf2a06a	0.029617507
246	0x3c7c6a22	0.015406163
247	0xbd793e61	-0.060850505
248	0x3d5f8319	0.054568384
249	0xbd49d739	-0.049277518
250	0xbd813d55	-0.06310526
251	0xbbf1fdd5	-0.0073849955
252	0xbd522968	-0.05130902
253	0x3c886f70	0.0166547
254	0xbcfb833d	-0.030702228
255	0x3d9410a7	0.07229739

Q1.moduleList.1.linear_1.bias f4 [128]
0	0xbd563144	-0.052293077
1	0xbd631855	-0.055443127
2	0xbd925117	-0.07144373
3	0x3e10c5bc	0.1413793
4	0x3c94c119	0.018158482
5	0xbcdcec1d	-0.026968056
6	0x3cfb1853	0.030651247
7	0x3e20e1f4	0.15711194
8	0xbdf886ba	-0.12135072
9	0xbcf4c4c4	-0.029878981
10	0x3ce19347	0.027536048
11	0x3d6b010e	0.057374053
12	0xbd28719e	-0.04112398
13	0x3e3196de	0.17342708
14	0xbd057c9d	-0.032589544
15	0x3e00733d	0.1254396
16	0xbc3a889c	-0.011385109
17	0xbd0d5f35	-0.034514625
18	0xbcf48c3b	-0.029852023
19	0x3d2401bb	0.040040713
20	0x3db4f5b2	0.08835925
21	0x3e923d28	0.28562284
22	0x3e3adb9e	0.1824784
23	0x3cd48041	0.025940062
24	0x3e6185db	0.22023718
25	0xbd042842	-0.032264955
26	0xbd67d766	-0.056601904
27	0xbe206703	-0.15664296
28	0xbcf3c12a	-0.029755194
29	0x3d459908	0.048241645
30	0x3957b8c7	0.00020572833
31	0x3d373b88	0.044734508
32	0xbd6a9615	-0.057272036
33	0x3c87718c	0.016533636
34	0xbcde3c98	-0.027128503
35	0x3e1b481a	0.15164223
36	0x3d0c410f	0.034241732
37	0xbdead640	-0.11466646
38	0x3cdb8706	0.026797783
39	0x3e811697	0.25212547
40	0xbd6c1f31	-0.057646934
41	0x3dda5ea3	0.10662582
42	0x3d04ec1a	0.032451726
43	0x3e7c9941	0.24667837
44	0x3cebf323	0.02880246
45	0x3d03be6f	0.032164034
46	0xbca40798	-0.020023152
47	0xbc1f62d5	-0.009728153
48	0xbdd446dd	-0.103650786
49	0x3e8687a6	0.26275367
50	0x3b94bec4	0.0045393426
51	0x3eec0dc1	0.46104243
52	0xbe310ae9	-0.17289318
53	0x3d2cc266	0.04217758
54	0xbeaae23d	-0.3337573
55	0x3e265163	0.16241984
56	0x3c8c8b37	0.017156227
57	0xbd1b0e25	-0.037855286
58	0xbd73558f	-0.059407767
59	0x3d1b8d08	0.037976295
60	0x3d8411ff	0.06448745
61	0x3cdbb27b	0.026818505
62	0x3d8e1772	0.069380656
63	0xbe273efd	-0.16332622
64	0x3d6e4561	0.058171634
65	0x3d932f40	0.071867466
66	0x3df27c93	0.11840167
67	0xbd300613	-0.042974543
68	0x3ba20c26	0.004945296
69	0xbd7c44a7	-0.06158891
70	0x3d7cf254	0.06175454
71	0x3dd74d79	0.105128236
72	0xbcf3d83e	-0.029766198
73	0x3e0c22e3	0.13685183
74	0x3d0dd671	0.034628335
75	0xbc96dce5	-0.018415878
76	0x3d73b4ec	0.059498712
77	0xbd829b42	-0.06377269
78	0xbcae92ef	-0.021310298
79	0xbe929115	-0.28626314
80	0x3e8eec13	0.27914485
81	0x3d77b3db	0.060474258
82	0x3c97826e	0.01849481
83	0x3d7195ba	0.05898068
84	0xbd0e7f79	-0.034789536
85	0x3d5d6c64	0.054058447
86	0x3eb90cca	0.3614257
87	0x3cea19a8	0.028576687
88	0xbe810f25	-0.25206867
89	0xbcafc340	-0.021455407
90	0xbcde09ee	-0.027104344
91	0x3d05bc1f	0.03265011
92	0xbda8f2bd	-0.08249424
93	0x3d0c2d96	0.03422316
94	0xbd8bbe36	-0.06823389
95	0xbdab699d	-0.083697535
96	0xb9b9b0ca	-0.00035417668
97	0xbed06b08	-0.40706658
98	0x39996905	0.0002926068
99	0x3c4591e5	0.01205871
100	0xbe4c92ed	-0.19977923
101	0x3d8dea41	0.06929446
102	0xbd8f2914	-0.06990257
103	0x3c2338fb	0.009962316
104	0xbd5a3bc3	-0.05327965
105	0xba341249	-0.000686918
106	0xbd39e49e	-0.045384042
107	0xbe4ede08	-0.20201886
108	0x3e9309ce	0.28718418
109	0xbe8c0348	-0.27346253
110	0x3e4c1dc8	0.19933236
111	0x3e56509a	0.20929185
112	0xbe11e91e	-0.14249083
113	0x3d3e0790	0.04639393
114	0x3e82d7fa	0.25555402
115	0x3d503548	0.050832063
116	0x3d2d6a78	0.042337865
117	0xbd63deb6	-0.055632316
118	0xbde9587d	-0.11393831
119	0x3d202242	0.03909517
120	0xbe849c6f	-0.259006
121	0x3de63c07	0.11241918
122	0x3d3d0b09	0.046153102
123	0x3db33b99	0.08751602
124	0x3bc7fbb0	0.0061030015
125	0xbced9003	-0.028999334
126	0x3d22899c	0.039682016
127	0xbcfdc7be	-0.030979034

Q1.moduleList.2.linear_1.weight f4 [128, 128]
0	0x3d6635fe	0.056203835
1	0x3c921ebd	0.017836923
2	0x3c5ec0cf	0.013595774
3	0xbd9bd96d	-0.0760983
4	0x3d699267	0.057024386
5	0x3d3fbdf1	0.046812
6	0xbd8a4b01	-0.06752587
7	0x3cafe4ff	0.021471499
8	0xbf1895c3	-0.5960352
9	0xbe37d118	-0.17950857
10	0x3d7ebf81	0.06219435
11	0x3c91c2eb	0.01779314
12	0xbd032d0e	-0.03202539
13	0x3d74693f	0.059670683
14	0x3d4be3ac	0.04977767
15	0xbbcf9408	-0.0063347854
16	0xbc6eff98	-0.0145873055
17	0xbcecb0dc	-0.028892927
18	0x3d410390	0.047122538
19	0xbd3fbad5	-0.046809036
20	0xbc760579	-0.015015953
21	0x3d2baff7	0.04191586
22	0x3dccc57d	0.099986054
23	0x3cccf359	0.025018381
24	0x3c92fd54	0.017943062
25	0x3d7d22bd	0.061800707
26	0xbd87e64b	-0.06635722
27	0xbd948b41	-0.07253123
28	0x3d3cdeae	0.0461108
29	0xb915d6cf	-0.0001428977
30	0x3d71668b	0.058935683
31	0xbde4f49b	-0.11179467
32	0xbe46deae	-0.19420883
33	0xbd68e4d9	-0.05685887
34	0xbd7babbe	-0.061443083
35	0x3da62891	0.08113206
36	0xbd2675e1	-0.04063976
37	0x3d8c2f88	0.06845003
38	0x3d36446c	0.044498846
39	0x3c034631	0.00801234
40	0xbd93aa1a	-0.07210179
41	0xbd20bc1f	-0.039241906
42	0x3b6f8b1d	0.0036551424
43	0x3c510450	0.012757376
44	0x3cb38612	0.021914516
45	0x3c4a1bbc	0.012335714
46	0x3d2350d0	0.03987199
47	0xbc8ba6c6	-0.017047297
48	0x3d59fac8	0.05321768
49	0x3da0402e	0.07824741
50	0xbbf33e9d	-0.0074232356
51	0x3d42f715	0.047598917
52	0xbbe638d8	-0.0070258193
53	0x3d699357	0.05702528
54	0xbed3e0ef	-0.41382548
55	0x3d2b25e6	0.04178419
56	0xbd33ef29	-0.043929253
57	0xbbbc0a44	-0.0057385284
58	0xbd8d225a	-0.06891318
59	0x3d3aecce	0.04563599
60	0x3d8a5fa9	0.06756527
61	0xbdb9f0fe	-0.09079169
62	0x3c785eb1	0.015159295
63	0xbe4d5c73	-0.20054798
64	0x3dd00877	0.101578645
65	0x3d668e30	0.056287944
66	0x3bcd6923	0.006268637
67	0xbeae07c8	-0.33990312
68	0xbd67b133	-0.056565475
69	0xbd154800	-0.036445618
70	0xbad1a213	-0.0015993736
71	0xbe88ff1f	-0.26757142
72	0x3d8f2fba	0.06991525
73	0xbb123d2c	-0.0022314293
74	0xbbd2c59a	-0.0064322473
75	0x3ba73278	0.005102452
76	0xbcc92fdf	-0.02455896
77	0x3d7db6f8	0.06194207
78	0xbbd3f69c	-0.006468607
79	0xbdcc3d71	-0.099726565
80	0x3be0edd6	0.0068642898
81	0xbd86ef45	-0.06588606
82	0x3bd290d4	0.0064259563
83	0x3ca3ab0a	0.019979019
84	0xbc9b5e86	-0.01896597
85	0x3df269b2	0.11836566
86	0x3d8f3423	0.06992366
87	0xbc618c63	-0.013766381
88	0xbe3fa125	-0.18713816
89	0xbc2254e9	-0.0099079395
90	0x39d8ae34	0.00041328522
91	0x3d36bd27	0.044613983
92	0x3d3c3915	0.045952875
93	0xba99239a	-0.0011683584
94	0xbdf44a0f	-0.11928188
95	0x3c0f2a8c	0.008738171
96	0xbda748e0	-0.08168197
97	0xbefc9bf6	-0.4933774
98	0x3d48b43f	0.04900002
99	0xbd916928	-0.07100135
100	0xbd01b34a	-0.031665124
101	0xbc8786eb	-0.016543826
102	0xbd9b70db	-0.07589885
103	0x3c6ae0ef	0.014335855
104	0xbc923aab	-0.01785024
105	0x3d199b75	0.03750177
106	0xbd2d31ab	-0.042283695
107	0xbe98dc97	-0.29855797
108	0x3cb5f349	0.022210734
109	0xbed984ab	-0.4248403
110	0xbbdb8b9e	-0.0066999933
111	0x3d53ec8c	0.05173926
112	0xbdd72d75	-0.10506717
113	0xbdd4d4d6	-0.10392158
114	0x3d97e9b5	0.07417623
115	0x3c6d1aa7	0.014471686
116	0x3c3eb6cc	0.011640262
117	0x3ccded9f	0.02513772
118	0xbf0051d5	-0.50124866
119	0xbcbecfd8	-0.023292467
120	0xbf2d89b4	-0.67788243
121	0x3e01da26	0.12680873
122	0xbd8882d9	-0.06665582
123	0x3b79a1fb	0.0038090933
124	0x3d77d541	0.06050611
125	0x3d10424a	0.03521947
126	0xbd6a7638	-0.05724165
127	0x3d52d7ea	0.051475443
128	0xbbd96aa0	-0.006635025
129	0xbd5eb76d	-0.054374147
130	0xbce62669	-0.028094487
131	0x3d3bf21b	0.045885187
132	0x3cac211e	0.021011885
133	0x3d90d0be	0.070710644
134	0x3d89c103	0.06726267
135	0xbd3a130f	-0.045428332
136	0x3d8fb13a	0.07016225
137	0x3cacda8e	0.021100309
138	0x3cefd9a5	0.029278586
139	0xbdeb5cff	-0.11492347
140	0xbc559d8c	-0.01303805
141	0xbd9d104d	-0.07669125
142	0xbc143f1d	-0.0090482505
143	0xbd23d74a	-0.040000238
144	0xbc5d349b	-0.013501312
145	0x3c0c5398	0.008564852
146	0xbd830c32	-0.063988104
147	0xbd7592a3	-0.059954297
148	0x3d2a1ae5	0.041529555
149	0x3c7791aa	0.015110413
150	0xbd82a98a	-0.06379993
151	0xbd95b9ca	-0.07310827
152	0x3cfec245	0.031098494
153	0x3d80b7e2	0.06285073
154	0x3cbabec4	0.022796042
155	0xbd63f8ca	-0.055657186
156	0x3c7f657d	0.015588162
157	0xbc861b1f	-0.016370354
158	0xbdf1be4f	-0.118038766
159	0xbb3549b3	-0.0027662336
160	0x3bf1da48	0.0073807575
161	0xbd0713cb	-0.03297786
162	0x3cf681c7	0.03009118
163	0xbb928a8a	-0.0044720815
164	0x3d90be9d	0.070676066
165	0xbd0b6d60	-0.034039855
166	0x3bfadd41	0.00765577
167	0x3d74756a	0.059682287
168	0x3d3d1ae9	0.04616824
169	0x3da4c0d1	0.08044589
170	0xbd8bd08b	-0.06826886
171	0xbcfcbf87	-0.030853046
172	0x3c9a0ced	0.018804992
173	0xbca1a301	-0.019731047
174	0x3cac6bee	0.021047559
175	0xbd29af18	-0.041426748
176	0xbdc03798	-0.09385604
177	0xbd413a17	-0.04717454
178	0x3d1072da	0.03526578
179	0x3d3b0f53	0.04566891
180	0xbb842649	-0.0040328843
181	0xbb793d3a	-0.0038030879
182	0xbd8b1d21	-0.06792665
183	0x3d762be3	0.060100447
184	0xbd95a57d	-0.07306955
185	0xbd7a84c5	-0.061161775
186	0x3d89cb13	0.067281865
187	0xbd1d5b32	-0.03841705
188	0xbd796be7	-0.06089392
189	0xbc32841f	-0.010895758
190	0xbd5ff327	-0.054675248
191	0x3d2fc8ba	0.042916037
192	0x3c5a4062	0.013321014
193	0x3d09e516	0.03366574
194	0x3d6d564d	0.05794363
195	0xbd55a755	-0.052161533
196	0xbc10d473	-0.008839714
197	0x3d197df9	0.037473653
198	0xbc8d8f10	-0.017280132
199	0x3d1f30fd	0.03886508
200	0xbd747608	-0.059682876
201	0x3d3e95ba	0.04652951
202	0xbc7c814f	-0.015411689
203	0xbcbe0692	-0.023196492
204	0xbd841463	-0.06449201
205	0xbcd47905	-0.025936613
206	0x3d53a283	0.051668655
207	0xbcb4ef28	-0.022086695
208	0xbd6240c2	-0.05523754
209	0x3ab6acbe	0.0013936979
210	0x3d7e6fb1	0.062118236
211	0xbcda31e3	-0.026635116
212	0x3d293b1d	0.04131614
213	0x3d925261	0.07144619
214	0xbdde93d4	-0.1086804
215	0x3a8997e9	0.0010497543
216	0x3c9f0bbb	0.019414773
217	0xbcc8e663	-0.02452392
218	0xbd9011e9	-0.07034666
219	0xbd19c80a	-0.037544288
220	0x3cd5a735	0.026080707
221	0xbd164752	-0.03668911
222	0x3d53c82d	0.051704574
223	0xbdab82ac	-0.08374533
224	0xbc9add07	-0.018904222
225	0xbca9f65f	-0.020747362
226	0xbd8cba0e	-0.068714246
227	0xbd8a69c8	-0.067584574
228	0xbd011ef4	-0.03152366
229	0x3c9d78ba	0.019222606
230	0x3d748d05	0.0597048
231	0x3d556f26	0.052107953
232	0xbb779e13	-0.0037783429
233	0x3d64cc5f	0.055858966
234	0xbcce9f84	-0.025222547
235	0x3c6872ed	0.014187557
236	0xbc83d04e	-0.016090538
237	0xbd8ee6b2	-0.069775954
238	0xbcb52c28	-0.022115782
239	0xbdb41a91	-0.0879413
240	0x3d6e8c81	0.058239464
241	0x3d903210	0.07040799
242	0xbd9004d3	-0.0703217
243	0x3c3a1317	0.01135709
244	0x3d782575	0.060582597
245	0xbdaab17d	-0.083346345
246	0xbd09bdc1	-0.03362823
247	0x3b6b7a38	0.0035931002
248	0xbcb98ad6	-0.02264921
249	0xbd85a6f6	-0.06525986
250	0xbd4052a2	-0.046953805
251	0xbc1de2ed	-0.009636623
252	0xbcb7f977	-0.022457821
253	0x3d7f9047	0.062393453
254	0xbd5188ea	-0.051155962
255	0x3d18c17b	0.037293892

Q1.moduleList.2.linear_1.bias f4 [128]
0	0x3da34743	0.079725765
1	0xbd88b075	-0.066742815
2	0x3d4549b8	0.048166007
3	0xbdfaedaf	-0.12252366
4	0xbe549589	-0.20760168
5	0x3d20232f	0.039096054
6	0x3dba8a71	0.09108437
7	0x3daa55ca	0.08317144
8	0x3df604b7	0.12012618
9	0xbdd43eae	-0.10363518
10	0x3e04db73	0.12974338
11	0x3d236fd2	0.039901562
12	0x3dae9327	0.08524161
13	0x3e78c8fc	0.2429542
14	0x3db07502	0.086160675
15	0x3b430a98	0.0029760953
16	0xbd82ea75	-0.063923754
17	0xbcc23335	-0.023706058
18	0xbde63d3e	-0.1124215
19	0x3e88e77c	0.2673911
20	0x3c79adce	0.015239192
21	0xbb3e004d	-0.0028991878
22	0xbbaa0470	-0.0051885173
23	0x3cf55332	0.029946897
24	0x3cdefa5a	0.027218986
25	0x3c85dcc0	0.016340613
26	0xbce18a98	-0.027531907
27	0xbd4f8c5a	-0.05067096
28	0x3d87ecfe	0.066369995
29	0x3d21897c	0.039437756
30	0xbd6ef50d	-0.058339167
31	0xbd8c798f	-0.06859123
32	0x3e1e02f1	0.1543081
33	0xbd8f7e30	-0.0700649
34	0xbcdf68c5	-0.027271638
35	0x3c604cfb	0.013690229
36	0x3e28ec32	0.16496351
37	0x3d83ebff	0.06441497
38	0xbdbe37d6	-0.092879936
39	0xbdb0c798	-0.086318195
40	0x3cca5e60	0.024703205
41	0xbd32ef2f	-0.043685135
42	0x3d0b6ba5	0.034038205
43	0xbebc170e	-0.3673634
44	0xbdec1864	-0.1152809
45	0xbcd8945d	-0.026437933
46	0x3dd990cf	0.10623323
47	0x3c83ecac	0.016104065
48	0xbd720de0	-0.059095263
49	0xbe0f5ec3	-0.14000992
50	0x3bc2412e	0.00592818
51	0x3e29b877	0.16574274
52	0x3c6b85f2	0.014375197
53	0xbda1ffcd	-0.07910118
54	0x3d3e585c	0.046470985
55	0xbd88e76b	-0.066847645
56	0xbe4e10fa	-0.20123664
57	0xbdd47920	-0.10374665
58	0x3dcb7e6a	0.09936221
59	0xbd41529f	-0.047197934
60	0xbd37a7a2	-0.0448376
61	0x3e5e1c4e	0.21690485
62	0xbd102576	-0.035191976
63	0xbd6dc891	-0.058052603
64	0x3d313f79	0.043273423
65	0xbc0962be	-0.008385358
66	0xbe09baac	-0.13450116
67	0x3e2769ce	0.16348955
68	0x3dccfa5c	0.1000869
69	0xbdbfea19	-0.093708225
70	0x3dd8e47a	0.105904534
71	0x3d16902d	0.03675859
72	0xbe78e6b5	-0.24306758
73	0x3d19ccfd	0.037549008
74	0xbdcb85ea	-0.099376515
75	0xbcb5fa9e	-0.02221423
76	0x3ada887d	0.0016672757
77	0x3d2b720e	0.041856818
78	0x3cfdc1e7	0.030976249
79	0x3ca422e0	0.020036161
80	0x3c290826	0.010316884
81	0x3b6e40d3	0.0036354556
82	0xbc295298	-0.010334633
83	0xbd7645d3	-0.060125183
84	0xbd7288d8	-0.059212536
85	0x3d14c19d	0.036317457
86	0x3d125c2d	0.035732437
87	0xbe1bfcb4	-0.15233117
88	0xbdeeb8ec	-0.11656365
89	0x3d0f5699	0.034994695
90	0xbd7643ec	-0.06012337
91	0x3e393056	0.18084845
92	0x3e1c99d0	0.1529305
93	0xbd085c74	-0.033291295
94	0xbd5044eb	-0.050846975
95	0x3d9e8ecc	0.0774208
96	0xbde6c357	-0.11267727
97	0xbd0b39ba	-0.0339906
98	0xbdada3c7	-0.08478504
99	0xbd3bad3d	-0.04581951
100	0x3e387f67	0.1801735
101	0xbd93c0ee	-0.07214533
102	0x3df2fef8	0.11865038
103	0xbcb254b5	-0.021768907
104	0xbbe06315	-0.006847749
105	0xbcf58960	-0.029972732
106	0x3d096be2	0.03355015
107	0x3cd6e508	0.026232257
108	0xbed948c6	-0.42438334
109	0x3e50dfca	0.20397869
110	0xbb8a42b8	-0.0042193793
111	0xbe0fe2e6	-0.14051399
112	0xbd8b5938	-0.068041265
113	0x3c8af20e	0.016961124
114	0x3db69e7d	0.08916948
115	0x3e3c43c1	0.18385221
116	0x3ddf9de1	0.10918785
117	0x3cb286e1	0.02179283
118	0xbd13adc3	-0.036054384
119	0xbd851cd9	-0.06499643
120	0xbd211728	-0.039328724
121	0x3dba17df	0.09086584
122	0x3dc5bffb	0.09655758
123	0xbe56e843	-0.20987038
124	0xbe13ae2f	-0.14421915
125	0x3dd7f7c5	0.10545305
126	0xbd47129c	-0.04860173
127	0x3d852389	0.065009184

Q1.moduleList.3.linear_1.weight f4 [1, 128]
0	0xbeb5809d	-0.35449687
1	0xbd3c4609	-0.04596523
2	0xbdc65587	-0.09684282
3	0x3d07b64a	0.03313283
4	0x3d6f83ce	0.058475308
5	0x3e29b915	0.1657451
6	0xbd28d96f	-0.041222986
7	0x3eb25eaa	0.34837848
8	0xbd7ee851	-0.062233273
9	0x3e004577	0.12526499
10	0xbcb0e730	-0.021594614
11	0xbd60d3e5	-0.05488958
12	0x3ea30034	0.31836092
13	0xbd4d4aa2	-0.050120004
14	0xbc92747c	-0.01787781
15	0xbcbd6699	-0.023120211
16	0xbcfac33f	-0.030610679
17	0x3becf57a	0.0072314115
18	0x3e078251	0.13233306
19	0xbdd9dfe1	-0.10638405
20	0xbd0944df	-0.033512946
21	0xbdefbcfa	-0.11705966
22	0x3ce87ab8	0.02837883
23	0xbd2d40c2	-0.042298086
24	0xbd410519	-0.047124002
25	0x3c6a5026	0.014301335
26	0x3e011405	0.12605293
27	0xbab9edf4	-0.0014185295
28	0xbd5cff35	-0.053954322
29	0xbcfab357	-0.030603094
30	0x3d755ed5	0.059904892
31	0xbe68019b	-0.22656862
32	0xbd77d5ba	-0.06050656
33	0x3d4b9ace	0.04970818
34	0xbdbf642a	-0.09345277
35	0xbc7220d5	-0.014778336
36	0x3e5a9d3d	0.21349044
37	0xbdef7fa4	-0.116942674
38	0xbda899a0	-0.08232427
39	0xbd814df0	-0.063136935
40	0xbd876a62	-0.06612088
41	0x3dc1ff7e	0.094725594
42	0xbd1aba6d	-0.037775446
43	0x3e15bbcc	0.1462242
44	0x3e6d41d1	0.23169638
45	0xbd504456	-0.05084642
46	0xbd23a60f	-0.039953288
47	0x3db57a21	0.08861185
48	0x3d57f5ae	0.052724533
49	0x3d3d428b	0.04620604
50	0xbd56502b	-0.052322548
51	0xbcf9dbd2	-0.030500326
52	0xbddf76c3	-0.10911324
53	0x3d0ecde3	0.034864318
54	0x3d470e1d	0.048597444
55	0xbcecd965	-0.028912256
56	0x3e9d3e4c	0.3071159
57	0xbef8246a	-0.48465282
58	0xbd5961a2	-0.053071626
59	0xbebb4850	-0.36578608
60	0x3d4f0391	0.05054051
61	0x3df42757	0.11921566
62	0xbdfdd883	-0.12394812
63	0x3dc376ad	0.0954412
64	0xbdbe32fa	-0.09287067
65	0xbeb09c53	-0.34494266
66	0x3d318e2d	0.04334848
67	0xbd801137	-0.062532835
68	0x3d84a1c7	0.06476169
69	0x3d58c004	0.052917495
70	0x3da73851	0.081650384
71	0x3ce55b32	0.027997587
72	0x3dabf1fc	0.08395764
73	0x3de33458	0.11093968
74	0xbeac16b3	-0.33611068
75	0x3ad79640	0.0016447976
76	0x3e12cdd5	0.14336331
77	0xbd6272f2	-0.0552854
78	0xbc95b449	-0.018274443
79	0xbd64ae8d	-0.055830527
80	0x3c262409	0.010140427
81	0xbe226928	-0.15860426
82	0x3d6f03ba	0.058353163
83	0x3d5518fd	0.052025784
84	0xbd182173	-0.037141275
85	0xbc52285b	-0.012827004
86	0xbd05a315	-0.03262623
87	0x3db8bcab	0.090203606
88	0x3d5924fe	0.053013794
89	0x3ea7c995	0.32770982
90	0x3da474a4	0.0803006
91	0x3e44c2a8	0.1921488
92	0x3e135bd6	0.14390501
93	0x3da2634d	0.07929096
94	0xbbcba898	-0.0062151663
95	0xbdbef6de	-0.0932443
96	0x3d964be9	0.073386975
97	0x3dab21a1	0.083560236
98	0x3c818061	0.015808286
99	0x3d97e63f	0.07416963
100	0x3e8f6fda	0.28015023
101	0x3c859394	0.016305722
102	0xbd132072	-0.035919614
103	0xbdbf0581	-0.09327222
104	0x3d70d40a	0.058795966
105	0xbcea90c7	-0.028633488
106	0x3ac77041	0.0015215949
107	0xbdc1af60	-0.09457278
108	0x3e0b5d75	0.1360987
109	0x3e89a070	0.26880217
110	0x3d0f7368	0.03502217
111	0x3bfd0802	0.007721902
112	0xbb47bd13	-0.0030477687
113	0xbd66309c	-0.0561987
114	0xbdc463c0	-0.09589338
115	0x3e912bb2	0.2835365
116	0x3d53654e	0.051610284
117	0xbda990fc	-0.08279607
118	0x3ca343f5	0.019929865
119	0x3e1b302f	0.151551
120	0xbeec9495	-0.4620711
121	0xbd957b11	-0.07298864
122	0xbdc56d5d	-0.0964
123	0x3dadd16f	0.08487212
124	0x3e488c74	0.19584829
125	0xbda69e08	-0.08135611
126	0xbcdf59f3	-0.02726457
127	0xbd4a1a37	-0.049341407

Q2.moduleList.0.linear_1.weight f4 [128, 11]
0	0x3d68c6e8	0.056830317
1	0xbe5b6886	-0.21426591
2	0xbe988250	-0.2978692
3	0xbf675929	-0.9037042
4	0xbde28af0	-0.110616565
5	0x3dabb1d0	0.083835244
6	0x3e945c4c	0.28976667
7	0xbd93e8df	-0.07222151
8	0xbd6fa5a9	-0.058507595
9	0xbcc22cf8	-0.023703083
10	0xbd9d41ae	-0.07678543
11	0xbe106c9d	-0.14103933
12	0xbd091a98	-0.033472627
13	0xbe48e7ae	-0.19619629
14	0xbe40442e	-0.18776008
15	0x3cebb391	0.028772147
16	0xbe158869	-0.14602818
17	0xbd680c34	-0.056652263
18	0xbe4d5397	-0.20051418
19	0x3d24dd5b	0.040250164
20	0x3deaeeef	0.11471354
21	0x3d0cdcb8	0.03439018
22	0xbddaa977	-0.10676854
23	0x3d356c2a	0.044292606
24	0x3d6c95b3	0.05775995
25	0xbd044012	-0.032287665
26	0xbe46c1a2	-0.19409803
27	0xbdfca119	-0.123354144
28	0xbe1d26ba	-0.15346804
29	0xbdfede0f	-0.12444698
30	0x3bf53823	0.0074834987
31	0x3e6d21f8	0.2315749
32	0x3dbd0b5b	0.092306815
33	0xbd172aba	-0.03690598
34	0xbd02a709	-0.03189758
35	0xbe050564	-0.12990338
36	0xbe24bf76	-0.16088662
37	0xbf3ebf0f	-0.7451028
38	0x3d8f8a60	0.07008815
39	0x3e249e80	0.16076088
40	0x3d97ae82	0.074063316
41	0x3b287309	0.0025703332
42	0xbd82013b	-0.06347891
43	0xbdc82696	-0.09772985
44	0xbdd46d1f	-0.10372376
45	0x3e6af7ba	0.22946063
46	0xbe4081c3	-0.187995
47	0xbf65bc6c	-0.89740634
48	0xbf45a7ae	-0.77208984
49	0x3dddfaf3	0.108388804
50	0x3dcb5314	0.09927955
51	0xbd1cdbb6	-0.03829547
52	0xbe082253	-0.13294344
53	0x3ca0ba02	0.019619945
54	0xbcdca5e5	-0.026934573
55	0x3d72215c	0.059113845
56	0xbead0425	-0.33792225
57	0xbeca3f33	-0.39501342
58	0x3f4441fc	0.76663184
59	0xbbec9d20	-0.007220879
60	0x3d5498f9	0.0519037
61	0x3e5ca262	0.21546319
62	0xbd3b86b0	-0.045782745
63	0xbb0a0f1a	-0.002106613
64	0xbb8f7015	-0.004377375
65	0x3d1fc353	0.039004635
66	0x3e723618	0.23653448
67	0x3ebb6fe4	0.36608803
68	0x3e7959da	0.24350682
69	0x3f6e8a76	0.93180025
70	0x3e9d0e52	0.30674988
71	0xbe12ee2e	-0.14348671
72	0xbe582459	-0.21107616
73	0xbe1c426b	-0.15259711
74	0xbc810cfc	-0.015753262
75	0xbd750127	-0.059815552
76	0xb97c44e7	-0.00024058261
77	0x3d2bb095	0.04191645
78	0xbdbec420	-0.093147516
79	0x3da45456	0.08023898
80	0xbf9c1810	-1.2194843
81	0xbf4d1cbc	-0.8012197
82	0xbce62b09	-0.028096693
83	0x3db31817	0.08744829
84	0xbd59ff29	-0.053221855
85	0x3c3fa5cf	0.011697247
86	0xbe2ac414	-0.1667636
87	0x3e6bdb9e	0.23032996
88	0x3d1ed6ce	0.038779072
89	0x3e6c3b8a	0.23069587
90	0xbe6438dd	-0.22287317
91	0xbe5307c8	-0.20608437
92	0xbe41652a	-0.18886247
93	0xbe01cc89	-0.1267568
94	0xbc51bd05	-0.012801413
95	0xbdef323f	-0.116795056
96	0x3e33dbb4	0.17564279
97	0xbceb8a4c	-0.028752469
98	0x3e6ce287	0.23133288
99	0xbdc68c29	-0.09694702
100	0xbe6f627d	-0.23377414
101	0xbe3de1d1	-0.18543173
102	0xbe373689	-0.17891897
103	0xbe01073d	-0.12600417
104	0xbe7afa93	-0.24509649
105	0xbded146f	-0.11576163
106	0x3e6e0b31	0.23246457
107	0xbcb1f53d	-0.021723384
108	0x3beb9afa	0.0071901055
109	0xbe71b6ec	-0.23604935
110	0x3dfe7998	0.12425536
111	0xbeb51a04	-0.3537141
112	0x3ba79019	0.0051136133
113	0xbf62d709	-0.8860937
114	0xbf3d242f	-0.73883337
115	0xbd7713a0	-0.06032145
116	0xbd78d97a	-0.060754277
117	0xba997937	-0.0011709098
118	0xbde87269	-0.11349947
119	0xbd40fbd1	-0.04711515
120	0x3b791fec	0.0038013412
121	0x3e6e24c7	0.23256217
122	0xbd19ff43	-0.037596952
123	0x3c37c9b2	0.0112175215
124	0xbf5d395c	-0.8641565
125	0xbd5b58aa	-0.053551354
126	0xbe0ffde9	-0.14061703
127	0xbe1408a4	-0.14456421
128	0xbd49c0df	-0.0492562
129	0xbca74e63	-0.02042312
130	0xb995ebc2	-0.00028595148
131	0xbd35e29d	-0.04440557
132	0xbd84dff7	-0.064880304
133	0x3b894092	0.0041886056
134	0xbe1adbdc	-0.15122932
135	0xbde95b93	-0.113944195
136	0x3d18dc85	0.03731968
137	0xbd2568d7	-0.040383186
138	0xbdced4ba	-0.10099168
139	0x3d1a036c	0.03760092
140	0xbe262b61	-0.16227485
141	0xbdada2bb	-0.08478304
142	0x3d79b21c	0.060960874
143	0x3e4998bf	0.19687174
144	0x3e20785c	0.15670913
145	0xbe632023	-0.22180228
146	0x3e23c5e3	0.15993457
147	0x3d898d7b	0.067164384
148	0xbdf173f6	-0.11789696
149	0x3e4fbee5	0.20287664
150	0x3de1d542	0.11027004
151	0x3d16fed3	0.036864113
152	0x3c97e754	0.018542923
153	0x3cec747a	0.028864134
154	0xbdeeb2c8	-0.116551936
155	0xbbf3ba1a	-0.0074379565
156	0xbe55cded	-0.20879336
157	0xbee91337	-0.45522472
158	0xbe9f6b69	-0.31136635
159	0x3dbc0395	0.09180371
160	0xbed636e2	-0.41838747
161	0xbc3f7b2a	-0.011687079
162	0xbc2e44f5	-0.010636558
163	0x3c945ef5	0.018111685
164	0xbd0a80d4	-0.033814266
165	0xbead30af	-0.33826205
166	0xbed8b703	-0.42327127
167	0x3d783a84	0.06060268
168	0x3da6e521	0.081491716
169	0x3d93048b	0.07178601
170	0x3996bbc1	0.00028750117
171	0xbe9d7e36	-0.30760354
172	0x3dfeae28	0.124355614
173	0xbe1ee599	-0.15517272
174	0xbe6b1fb5	-0.22961314
175	0x3da027d8	0.078200996
176	0xbe1c0293	-0.15235357
177	0xbe6e4508	-0.23268521
178	0xbb008068	-0.0019607786
179	0x3dc03910	0.09385884
180	0x3ce09d90	0.027418882
181	0xbe10f1aa	-0.14154688
182	0xbe71b07a	-0.23602477
183	0x3e0d6ebe	0.13811776
184	0x3c8fcfd5	0.017555157
185	0xbde26ace	-0.110555276
186	0xbdc7cf5d	-0.09756348
187	0x3dd38822	0.103287
188	0xbeb710aa	-0.357549
189	0xbe0e5da4	-0.13902909
190	0x3f41e7af	0.75744146
191	0x3f51c072	0.81934273
192	0x3d963c75	0.0733575
193	0x3d6011db	0.05470453
194	0xbdef5a86	-0.11687188
195	0x3dccafcf	0.0999447
196	0xbdc8ac72	-0.09798516
197	0xbdc74b8d	-0.09731207
198	0xbe3fcfee	-0.18731663
199	0xbe75a2e7	-0.23987924
200	0x3df0df5a	0.11761351
201	0xbdcc16bd	-0.099652745
202	0x3d98dadf	0.07463621
203	0xbe473594	-0.19454032
204	0x3e5226f5	0.20522673
205	0x3e284a22	0.1643453
206	0xbbb7062b	-0.005585452
207	0x3d3703e7	0.044681456
208	0x3e1db97a	0.15402785
209	0x3c972485	0.018450031
210	0xbe973180	-0.29529953
211	0x3d8c6616	0.06855409
212	0xbfa33d4b	-1.275308
213	0xbede2442	-0.43387038
214	0x3cfb5c28	0.030683592
215	0x3df5b81c	0.11998007
216	0x3dc750f0	0.097322345
217	0xbdaeb2a7	-0.08530169
218	0xbd1a56c1	-0.03768039
219	0xbdc37046	-0.09542899
220	0xbe28c25a	-0.16480389
221	0xbdaaa0c3	-0.08331444
222	0x3e9ac3ed	0.30227605
223	0xbe7960ca	-0.24353328
224	0x3c8df56d	0.017328942
225	0xbc3c8d65	-0.01150832
226	0x3e7e8be4	0.24858052
227	0x3e73a0ce	0.23791811
228	0xbe44c413	-0.19215421
229	0xbd015df4	-0.03158374
230	0xbda4881d	-0.08033774
231	0x3d557f23	0.0521232
232	0xbdc6095f	-0.09669756
233	0x3e5a73c0	0.21333218
234	0x3ddf074e	0.10890065
235	0x3d0a9fdf	0.03384387
236	0xbe180259	-0.14844646
237	0xbcaa6049	-0.020797865
238	0xbe54fecf	-0.20800327
239	0x3e0651cd	0.13117142
240	0xbe081e2f	-0.13292764
241	0x3e4d2af1	0.20035912
242	0xbdecec27	-0.1156848
243	0xbe2ef1cb	-0.17084424
244	0x3e602f0f	0.21892951
245	0xbf6cbefb	-0.92478913
246	0xbc244914	-0.010027189
247	0x3e12256e	0.14272091
248	0xbe3755f2	-0.1790388
249	0x3c623785	0.013807182
250	0x3c4cfd67	0.012511588
251	0x3dd30892	0.10304369
252	0xbe05e6e0	-0.13076353
253	0x3dd7592b	0.10515054
254	0xbe9b45e2	-0.30326754
255	0xbcfb3f57	-0.030669851

Q2.moduleList.0.linear_1.bias f4 [128]
0	0x3dbf447d	0.09339235
1	0xbe2fcad3	-0.17167215
2	0xbe5c5238	-0.21515739
3	0xbe98b072	-0.29822117
4	0x3da2b8e9	0.07945425
5	0xbe0bdd8f	-0.13658737
6	0xbed02a58	-0.40657306
7	0xbe2cdce3	-0.16881137
8	0x3e0f5bf7	0.13999926
9	0x3d4110e2	0.04713524
10	0xbd05f60a	-0.032705344
11	0xbeaa9e22	-0.3332377
12	0x3e360ef1	0.17779137
13	0xbe86fe9d	-0.2636613
14	0xbd3e3809	-0.046440158
15	0xbdff03dd	-0.12451909
16	0xbc163c3b	-0.0091696335
17	0xbee242de	-0.4419164
18	0xbe036c37	-0.1283425
19	0x3efddce8	0.495826
20	0xbdcef48e	-0.10105239
21	0xbd726c2c	-0.059185192
22	0x3e6c6867	0.23086701
23	0xbec1f233	-0.37880096
24	0x3e7db0b1	0.24774434
25	0x3e7c52ea	0.24641004
26	0x3e4e2dd8	0.20134676
27	0xbec64e38	-0.3873155
28	0xbd8b2355	-0.067938484
29	0x3e04c063	0.12964015
30	0x3efb8f7c	0.49132907
31	0xbd03d1e2	-0.03218258
32	0x3dab42ce	0.08362351
33	0x3ec388f9	0.3819044
34	0xbe92c5c5	-0.2866651
35	0x3ea0e019	0.31420973
36	0x3e19c59c	0.15016788
37	0xbd535f08	-0.0516043
38	0x3e5aed02	0.21379474
39	0xbe5c7a04	-0.2153092
40	0x3cebed65	0.028799722
41	0xbdf619ec	-0.12016663
42	0x3f0b28f2	0.5435935
43	0x3dbb7d75	0.091547884
44	0x3c7bf5e1	0.015378446
45	0x3ea24011	0.31689504
46	0xbc4f228e	-0.012642516
47	0xbefa8b0d	-0.48934212
48	0xbd6817ab	-0.056663197
49	0x3e635ac3	0.22202592
50	0x3dba9fb0	0.09112489
51	0x3eb5b3b8	0.35488677
52	0x3ecd63e9	0.40115288
53	0x3e8a69b0	0.27033758
54	0x3d4c16d7	0.04982647
55	0xbd9af053	-0.075653695
56	0x3cb050f3	0.021522975
57	0xbddaec86	-0.106896445
58	0xbd7d638d	-0.061862517
59	0xbe16bad2	-0.14719704
60	0x3e221d8f	0.15831588
61	0x3e01fe36	0.1269463
62	0x3ccff443	0.025385028
63	0x3e76b50b	0.240925
64	0xbdf33f7a	-0.118773416
65	0x3e6abfff	0.22924803
66	0xbe53d324	-0.20686013
67	0x3ada096b	0.0016634887
68	0xbe93aa88	-0.28841043
69	0x3e2bc76d	0.16775294
70	0x3ee3b2a2	0.44472224
71	0xbe20c917	-0.1570171
72	0xbd9f0099	-0.07763786
73	0xbe6ec9e7	-0.23319207
74	0x3f23b367	0.6394562
75	0x3dfcd9c0	0.1234622
76	0x3d881f6e	0.0664662
77	0xbe323c1a	-0.1740574
78	0x3ddb2b11	0.10701574
79	0x3ecc627e	0.39918894
80	0x3e232f8e	0.1593611
81	0xbeca43a1	-0.39504722
82	0x3ee40fb1	0.44543222
83	0xbb79094d	-0.0037999928
84	0xbcc082aa	-0.023499805
85	0xbe9fa3ee	-0.31179756
86	0xbe236468	-0.1595627
87	0x3e54882e	0.20755073
88	0xbcb39cc3	-0.021925336
89	0x3d77a158	0.060456604
90	0x3dad8813	0.0847322
91	0x3bc55c32	0.0060229534
92	0x3e4f4f71	0.20245148
93	0x3e31ba8c	0.17356318
94	0x3ea23040	0.31677437
95	0xbe3ca9c9	-0.18424143
96	0x3ec85d24	0.3913356
97	0x3ebecafe	0.37264246
98	0x3d3097ea	0.043113627
99	0xbece4417	-0.40286323
100	0x3ddf6928	0.10908729
101	0xbcff7c9d	-0.03118735
102	0x3e7cc062	0.24682763
103	0x3d5abb7b	0.05340145
104	0xbb88ac18	-0.004170906
105	0xbee23d9f	-0.44187638
106	0x3f077c82	0.5292436
107	0x3dca00da	0.09863444
108	0xbd1b1735	-0.03786393
109	0xbdfcf456	-0.12351291
110	0x3e719e33	0.23595504
111	0x3e877451	0.2645593
112	0xbe1eac1b	-0.1549534
113	0xbdc44ed8	-0.09585351
114	0x3e03c48d	0.12867947
115	0x3e9175ba	0.2841013
116	0x3db0fc81	0.08641911
117	0x3db7dd66	0.08977775
118	0xbd88b722	-0.06675555
119	0xbef14aa9	-0.47127274
120	0x3d3ad5db	0.045614105
121	0x3d456aab	0.04819743
122	0x3e5b88fa	0.21438971
123	0xbe88c8e7	-0.26715776
124	0xbde2fe2d	-0.110836364
125	0xbe62ebe9	-0.22160305
126	0x3e1fcf44	0.1560641
127	0x3e2a8f61	0.16656257
