experiments/robust_pre_ctrl/v1/model/central/central-950000.pth (torch, 281715 bytes, 14 tensors)

Q1.moduleList.0.linear_1.weight f4 [128, 9]
0	0xbbe02ec3	-0.006841512
1	0x3ec45dfd	0.38352957
2	0xbe8b3817	-0.2719123
3	0xbea32bd6	-0.31869382
4	0xbf036dd6	-0.5133947
5	0x3da0ea86	0.07857232
6	0xbbfc6c4e	-0.0077033406
7	0x3e4e7974	0.20163518
8	0xbd85734d	-0.065161325
9	0x3da4e159	0.08050794
10	0xbdbc3491	-0.09189714
11	0xbd7489a3	-0.059701573
12	0xbe94d5ac	-0.2906927
13	0xbe4e46c3	-0.20144181
14	0xbe005183	-0.12531094
15	0x3c38b56e	0.011273725
16	0x3df5e015	0.12005631
17	0x3e3aeac4	0.18253618
18	0xbe36cf1d	-0.17852445
19	0xbea71505	-0.32633224
20	0x3e09be2d	0.13451453
21	0x3f91774b	1.136453
22	0x3f12e822	0.57385457
23	0x3e6e78b5	0.23288234
24	0xbda01e9e	-0.0781834
25	0x3c34cbe1	0.011034937
26	0x3e78e0b7	0.24304472
27	0xbe908a56	-0.28230542
28	0xbe442980	-0.19156456
29	0xbd9dba0f	-0.077015035
30	0xbdf28437	-0.11841624
31	0x3e86a11b	0.2629479
32	0xbe49e43e	-0.19715974
33	0xbe0f5d10	-0.14000344
34	0xbe59907a	-0.2124652
35	0xbe91eb76	-0.28499955
36	0xbe35e2fd	-0.1776237
37	0x3e85f3fc	0.26162708
38	0x3e0aff40	0.13573933
39	0x3e17019b	0.14746706
40	0x3c832af6	0.016011696
41	0xbe1fb45f	-0.1559615
42	0x3d52e1ca	0.05148486
43	0xbe91799d	-0.28413096
44	0xbe612a0f	-0.219887
45	0xbe28388a	-0.16427818
46	0x3e93bf54	0.2885691
47	0x3e0f658a	0.14003578
48	0x3f88d457	1.0689801
49	0x3f1a7f02	0.6035005
50	0x3e36edce	0.17864153
51	0x3ea8d3bf	0.3297405
52	0x3e0fc49e	0.14039847
53	0x3cc1891c	0.02362495
54	0x3e345700	0.17611313
55	0xbe69f772	-0.22848299
56	0x3d894b2c	0.06703791
57	0xbfb02f17	-1.3764371
58	0xbf54d326	-0.83134687
59	0xbe392231	-0.18079449
60	0x3ea24aae	0.316976
61	0x3bda59aa	0.006663521
62	0xbd949404	-0.07254794
63	0x3da22630	0.0791744
64	0x3e1e661f	0.15468644
65	0xbccccd80	-0.025000334
66	0xbf7f5d86	-0.9975208
67	0xbf2c7993	-0.6737301
68	0x3e34d70e	0.17660162
69	0x3ea5a687	0.32353613
70	0xbe4f05fb	-0.20217125
71	0xbd99b177	-0.07504552
72	0x3e34d266	0.17658386
73	0x3ec81719	0.39080122
74	0x3e82a25b	0.25514492
75	0x3f0ef139	0.55836827
76	0xbe3f4155	-0.18677266
77	0xbe60134e	-0.21882364
78	0xbceed1b7	-0.029152734
79	0xbd2453fb	-0.040119153
80	0xbe655023	-0.22393851
81	0x3e7281b0	0.23682284
82	0x3e3725c2	0.17885497
83	0xbe997082	-0.2996865
84	0x3eef474c	0.46734083
85	0x3ea990aa	0.33118182
86	0xbd7d2ab7	-0.061808314
87	0xbe2dee9e	-0.16985556
88	0x3dfb6085	0.12274269
89	0xbb73e81c	-0.0037217205
90	0x3df72e36	0.12069361
91	0x3e2e6722	0.1703153
92	0x3e66e425	0.22547968
93	0x3f82a8b7	1.0207738
94	0x3edf3396	0.43594044
95	0xbe39090b	-0.18069856
96	0x3e514666	0.20437011
97	0x3d910e95	0.070828594
98	0xbcf26429	-0.029588776
99	0xbe336415	-0.17518647
100	0x3e9291d0	0.2862687
101	0x3e51f393	0.20503072
102	0xbe07dda0	-0.13268137
103	0xbd9cced9	-0.076566406
104	0xbe94686f	-0.28985927
105	0xbbb32fe5	-0.005468356
106	0xbe6a76b7	-0.22896849
107	0xbe7003f1	-0.23439004
108	0xbd3c201b	-0.045929056
109	0x3dada5cb	0.08478888
110	0xbe312c20	-0.17301989
111	0x3fa4ed12	1.2884848
112	0x3f234fc1	0.6379357
113	0x3e8109b8	0.25202727
114	0x3e48daa9	0.19614662
115	0xbe3c9fba	-0.18420306
116	0xbd627d7a	-0.055295445
117	0x3c60f88e	0.013731135
118	0x3d35d802	0.044395454
119	0x3d93cd7e	0.07216929
120	0x3df41c81	0.11919499
121	0x3c954efb	0.018226137
122	0xbe180445	-0.14845379
123	0x3e137161	0.1439872
124	0xbe957098	-0.29187465
125	0xbe38b633	-0.18038253
126	0xbd88e189	-0.066836424
127	0xbe592f65	-0.21209486
128	0xbddb000f	-0.106933706
129	0xbcc808e3	-0.0244183
130	0x3e36a210	0.1783526
131	0x3daa1a49	0.08305795
132	0xbe344327	-0.17603742
133	0x3d2f44a1	0.04279006
134	0x3c8c24f5	0.017107466
135	0xbd4e789e	-0.050408
136	0x3c857f7c	0.01629614
137	0xbd4ec8f9	-0.05048463
138	0xbf5ae57d	-0.8550642
139	0xbeaa78d0	-0.33295298
140	0x3e839c26	0.2570507
141	0x3e493852	0.1965039
142	0x3e8ee995	0.27912584
143	0xbda4712c	-0.08029398
144	0xbe8be6a6	-0.27324408
145	0xbe13b7ef	-0.14425634
146	0x3e543597	0.20723568
147	0xbb013993	-0.0019718155
148	0xbe1ad88c	-0.15121669
149	0xbe6e7c17	-0.23289524
150	0xbe91cf4c	-0.28478467
151	0xbe838ef7	-0.2569501
152	0xbd7c60ef	-0.06161588
153	0x3e304191	0.17212512
154	0x3eb5c313	0.35500392
155	0xbe95f31c	-0.2928704
156	0xbc534653	-0.012895185
157	0xbe421b11	-0.18955638
158	0xbd31e727	-0.043433335
159	0xbe2b80d0	-0.16748357
160	0xbd9b6738	-0.07588047
161	0x3d48a91b	0.048989397
162	0xbe90a8dc	-0.2825383
163	0xbe8f1c27	-0.27951166
164	0xbcba4bc6	-0.02274121
165	0xbea9f092	-0.33191353
166	0xbf3667f5	-0.71252376
167	0x3dfd3df1	0.1236533
168	0xbe7422e0	-0.23841429
169	0x3cff9be8	0.031202272
170	0x3d371b13	0.044703554
171	0xbe0a4bf8	-0.13505542
172	0x3e83f653	0.25773868
173	0x3dbd3dbc	0.092402905
174	0xbe942a73	-0.28938636
175	0x3e3bb01e	0.18328902
176	0xbd4980b6	-0.049195014
177	0xbe0250ef	-0.12726186
178	0x3e688d24	0.22710091
179	0xbe7c5974	-0.24643499
180	0x3c8e9b80	0.017408133
181	0x3dfdce68	0.123928845
182	0x3e46f310	0.19428658
183	0x3f037893	0.51355857
184	0xbc0f23c3	-0.008736554
185	0x3dbdb187	0.09262376
186	0xbda18bd4	-0.07887998
187	0xbd7f86b6	-0.06238433
188	0xbe90d85a	-0.28290063
189	0x3e396332	0.18104246
190	0x3e7d3f44	0.24731165
191	0x3e1cb8dd	0.15304895
192	0x3f81279c	1.0090213
193	0x3eb651d3	0.35609302
194	0xbe5855bc	-0.21126455
195	0xbe7a2692	-0.24428776
196	0x3d90e0e6	0.07074146
197	0x3cb601d5	0.02221767
198	0xbe39b6f5	-0.18136199
199	0xbbd96b07	-0.006635073
200	0x3c51b836	0.012800267
201	0x3e48d6e6	0.19613227
202	0xbe6b54f1	-0.22981621
203	0xbe55f12a	-0.20892778
204	0xbe34eaa4	-0.17667633
205	0x3e59f355	0.2128423
206	0xbde0002d	-0.109375335
207	0x3e7600b9	0.24023713
208	0x3db9a64d	0.090649225
209	0x3c5c7b23	0.013457092
210	0x3f982c12	1.1888449
211	0x3f65ef9a	0.8981873
212	0x3cc0fe45	0.023558745
213	0xbdfb1d13	-0.12261405
214	0x3c42fe35	0.011901428
215	0x3d577ba1	0.052608136
216	0xbe70b30c	-0.23505801
217	0xbe6868ee	-0.22696277
218	0x3e6d28af	0.23160051
219	0xbfa21681	-1.2663118
220	0xbf02ce76	-0.51096284
221	0x3e9875fe	0.2977752
222	0x3db1c976	0.08681004
223	0xbd096def	-0.033552106
224	0xbe4269cd	-0.18985672
225	0x3e0c6423	0.13710074
226	0xbeaacdaf	-0.3336005
227	0xbdb3bcca	-0.08776243
228	0x3f27643b	0.65387315
229	0x3f177c9e	0.59174526
230	0xba337a25	-0.0006846509
231	0x3e762519	0.24037589
232	0x3d72da3d	0.05929016
233	0x3e995ec9	0.29955128
234	0x3e1a7cfd	0.15086742
235	0xbea0ed47	-0.31431028
236	0x3d98e7e6	0.07466106
237	0x3f770b50	0.96501637
238	0x3f3499b2	0.7054702
239	0x3d3c88be	0.046028845
240	0x3d60710e	0.054795317
241	0x3e707a09	0.23484053
242	0xbe32ccb3	-0.17460899
243	0x3d03004e	0.031982712
244	0x3e81bc72	0.25339085
245	0xbe805cb0	-0.25070715
246	0x3fc6e06c	1.5537238
247	0x3f11f088	0.57007647
248	0x3d3cc1be	0.046083204
249	0x3d10142c	0.035175487
250	0xbe0ebb07	-0.13938533
251	0x3e0f9845	0.1402293
252	0x3e6ecef8	0.2332114
253	0xbe6094ae	-0.21931717
254	0xbe3f9c99	-0.18712081
255	0xbf96bcf0	-1.1776409

Q1.moduleList.0.linear_1.bias f4 [128]
0	0xbe96ff24	-0.29491532
1	0x3b92f19b	0.004484368
2	0x3e8d8ff7	0.276489
3	0xbe85760f	-0.26066634
4	0xbe0af2c6	-0.13569173
5	0x3e173db8	0.14769638
6	0xbd9ebc3f	-0.07750749
7	0x3e2436d4	0.1603654
8	0xbeae4a18	-0.34040904
9	0xbe0cc02e	-0.13745186
10	0xbe4d086e	-0.20022747
11	0x3e8369ba	0.256666
12	0x3c6a7129	0.014309206
13	0xbe636819	-0.22207679
14	0x3d979f3b	0.07403418
15	0x3d14cb70	0.036326826
16	0xbdffba9b	-0.12486764
17	0xbe0776d6	-0.13228926
18	0xbd983a22	-0.07432963
19	0x3e65afa7	0.22430287
20	0xbe9884dc	-0.29788864
21	0xbeb09410	-0.34487963
22	0xbdc03346	-0.0938478
23	0xbd9c9446	-0.076454684
24	0x3e2326b3	0.15932731
25	0xbd20f935	-0.039300162
26	0xbdd21098	-0.10257071
27	0xbe5e26be	-0.21694466
28	0x3d8f7816	0.070053264
29	0xbe4250c4	-0.18976122
30	0x3e7b46d7	0.24538742
31	0xbed471c7	-0.41493055
32	0xbe0a43f2	-0.13502482
33	0xbe7d1a0d	-0.24716969
34	0xbdacaf93	-0.084319256
35	0x3e9fe002	0.31225592
36	0x3ec802e0	0.39064693
37	0xbecce248	-0.4001639
38	0xbe23481a	-0.15945473
39	0x3d1bdeb6	0.03805419
40	0x3e572b43	0.21012597
41	0x3e7ee115	0.2489055
42	0xbdbf3e71	-0.09338082
43	0xbe4aa1c6	-0.19788274
44	0x3e29310e	0.16522619
45	0xbdd5bcf0	-0.104364276
46	0x3de90c24	0.11379269
47	0xbe383ccf	-0.17991947
48	0x3e224ac0	0.15848827
49	0x3e8c1215	0.27357545
50	0x3e563aa5	0.20920809
51	0xbe391489	-0.1807424
52	0xbe04f9ce	-0.12985918
53	0xbd2e241a	-0.042514898
54	0xbe18debd	-0.14928718
55	0x3e957a92	0.29195076
56	0xbc098780	-0.008394122
57	0xbe8f7863	-0.28021535
58	0xbda5f568	-0.08103448
59	0xbe087640	-0.13326359
60	0x3e1f40ec	0.1555211
61	0xbe8c19ca	-0.27363425
62	0xbe30458b	-0.17214029
63	0xbe9ba7e9	-0.30401543
64	0x3e062d02	0.13103107
65	0x3e3b8843	0.18313698
66	0xbdada365	-0.08478431
67	0x3c8c32f5	0.017114142
68	0x3e5cd5b1	0.21565892
69	0x3e113084	0.14178663
70	0xbdd76607	-0.10517507
71	0xbc986a84	-0.018605478
72	0xbd05ae20	-0.03263676
73	0x3e89c5e2	0.26908785
74	0xbe55cdb3	-0.2087925
75	0x3e2ff184	0.17181975
76	0x3e06036b	0.13087241
77	0xbeab410c	-0.33448064
78	0x3e894a06	0.26814288
79	0x3e98ff94	0.2988249
80	0xbde655b8	-0.11246818
81	0xbdae7751	-0.085188515
82	0x3dbd7f39	0.092527814
83	0xbdd9375c	-0.10606262
84	0x3e1b5e65	0.15172727
85	0x3d88116e	0.066439494
86	0x3e6082bf	0.21924876
87	0xbe81ed23	-0.25376233
88	0xbe85d102	-0.26136023
89	0x3dfbe4bc	0.12299487
90	0x3e5e4806	0.21707162
91	0xbea6e8d8	-0.3259952
92	0xbe9f3d5e	-0.31101507
93	0xbe9da7d5	-0.30792108
94	0xbeaf1fcc	-0.34203947
95	0xbe375a43	-0.17905526
96	0x3e9989fa	0.2998808
97	0xbd778ddc	-0.060438022
98	0x3e32eda7	0.1747347
99	0x3e7cd8e8	0.24692118
100	0x3c688cdb	0.014193739
101	0xbe74807d	-0.2387714
102	0x3e59c8b5	0.2126797
103	0x3ded70b1	0.1159376
104	0x3eb1278b	0.3460048
105	0xbe99a85c	-0.3001126
106	0x3ded580f	0.115890615
107	0x3e8536b6	0.26018304
108	0xbe937bf7	-0.28805515
109	0x3d027673	0.031851243
110	0x3e39806d	0.18115397
111	0xbe62ae84	-0.22136885
112	0x3dcc59e0	0.0997808
113	0x3e09a9dd	0.13443704
114	0x3dc4a5ee	0.09601961
115	0x3e9adfd2	0.30248886
116	0x3e264e6c	0.16240853
117	0x3e722939	0.23648538
118	0xbd1b52f2	-0.0379209
119	0x3e82bebc	0.25536144
120	0xbe56db27	-0.20982037
121	0xbe2822b8	-0.16419494
122	0xbd5375f7	-0.051626172
123	0xbdb927ae	-0.090407714
124	0x3e925a34	0.28584445
125	0x3e12f856	0.14352545
126	0x3e48998e	0.19589826
127	0x3e8fe97d	0.28107825

Q1.moduleList.1.linear_1.weight f4 [128, 128]
0	0xbe0421bd	-0.12903495
1	0xbc1916f9	-0.009343856
2	0x3d7ef573	0.062245797
3	0x3cabeb15	0.02098612
4	0x3d29f309	0.041491542
5	0xbd815dfc	-0.06316754
6	0xbe1f6e4a	-0.15569416
7	0x3d6490a1	0.05580199
8	0xbc848227	-0.016175343
9	0xbd5eb6e9	-0.054373655
10	0xbd43973a	-0.047751643
11	0x3d5fc6fc	0.054633126
12	0xbcfc841d	-0.030824715
13	0xbc84335c	-0.016137771
14	0x3d24af29	0.04020611
15	0xbd8a66bc	-0.06757876
16	0x3cf803c1	0.030275228
17	0xbd3c8359	-0.0460237
18	0x3d945048	0.07241875
19	0xbda970be	-0.08273457
20	0xbbf02991	-0.007329174
21	0xbdc045f9	-0.09388346
22	0x3d29dac7	0.041468408
23	0x3d88f2ef	0.06686961
24	0x3d8b66e5	0.06806735
25	0x3d37c9b1	0.044870082
26	0xbcddbf78	-0.027068838
27	0xbe1b38cf	-0.1515839
28	0xbd93e5f3	-0.07221594
29	0xbb7414ad	-0.003724377
30	0x3da03a64	0.07823637
31	0xbd41c78f	-0.047309455
32	0xbdc7ec30	-0.09761846
33	0xbd6fd6c8	-0.05855444
34	0xbd4c395c	-0.04985939
35	0x3d7ac157	0.06121954
36	0xbd93d209	-0.072177954
37	0xbd5db4cc	-0.0541275
38	0x3d783d61	0.06060541
39	0x3cbbba6b	0.02291604
40	0x3ca54105	0.020172605
41	0x3c6c161c	0.014409568
42	0xbc7ad098	-0.015308522
43	0xbe0bec82	-0.1366444
44	0xbd812c5d	-0.0630729
45	0x3d594146	0.053040765
46	0x3b14c5a5	0.0022700813
47	0xbe1f6b75	-0.15568335
48	0xbd551c5a	-0.05202899
49	0xbd343cfa	-0.044003464
50	0xbccbe2f0	-0.024888486
51	0xbcc6c469	-0.024263578
52	0x3cdae4e1	0.026720466
53	0xbd308fd0	-0.0431059
54	0xbd5bb9a4	-0.053643838
55	0xbce1a25a	-0.027543236
56	0x3d32308e	0.043503337
57	0xbd0380f2	-0.032105394
58	0x3d26d6c3	0.040732156
59	0x3d08b32b	0.033373993
60	0xbd41ebad	-0.0473439
61	0x3ce85fb0	0.02836594
62	0x3a49fd6c	0.00077053043
63	0x3d9b9e78	0.07598585
64	0xbceedb2f	-0.02915725
65	0x3b914203	0.004432918
66	0x3d8bfdf3	0.06835546
67	0xbd457fd0	-0.048217595
68	0x3c272f81	0.010204197
69	0x3d928eea	0.07156165
70	0xbd0c3fb0	-0.034240425
71	0x3d455feb	0.048187178
72	0x3d92a265	0.071598805
73	0x3da4829d	0.08032725
74	0xbcdbd82e	-0.026836481
75	0x3da043a4	0.078254014
76	0xbd4f01e1	-0.0505389
77	0xbd1fd43f	-0.039020773
78	0xbdf3b2ea	-0.118993595
79	0x3c8b950a	0.01703884
80	0x3d2acada	0.04169736
81	0x3d9cff92	0.07665934
82	0xbce9247a	-0.028459776
83	0x3c393aeb	0.011305551
84	0xbd298c21	-0.041393403
85	0xbc9c685a	-0.019092727
86	0x3cd6ba11	0.02621177
87	0xbde15950	-0.11003363
88	0xbdca6887	-0.09883218
89	0x3d754a28	0.059885174
90	0xbcb6ec71	-0.02232954
91	0x3baa59db	0.0051987
92	0xbd7fed2d	-0.062482048
93	0x3b13ae61	0.0022534358
94	0xbbe362b8	-0.0069392584
95	0x3d82eabb	0.063924275
96	0x3c0624a1	0.008187444
97	0x3cd03d16	0.025419753
98	0xbc13324e	-0.008984162
99	0x3ca313b8	0.019906864
100	0x3da85e4d	0.082211114
101	0xbd7418c3	-0.059593927
102	0xbc13f94b	-0.009031604
103	0xbcfbddb3	-0.030745363
104	0x3dcd5061	0.10025097
105	0x3d8d61f1	0.069034465
106	0xbb886999	-0.004162979
107	0x3e0cada0	0.13738108
108	0xbd545311	-0.05183703
109	0x3d6c3fd7	0.05767807
110	0xbcf0ecd4	-0.029409803
111	0x3d9b9912	0.07597555
112	0x3d3c56a8	0.04598108
113	0x3d90a757	0.070631675
114	0xbdbc5406	-0.09195714
115	0xbd56c364	-0.052432433
116	0x3ccbe99e	0.02489167
117	0xbcb77ca3	-0.022398299
118	0x3d25cece	0.040480427
119	0xbbed73da	-0.0072464766
120	0x3c571f3e	0.013130007
121	0xbd6493bc	-0.055804953
122	0xbd7bd40d	-0.061481524
123	0x3cf859ff	0.030316351
124	0x3c99943e	0.018747445
125	0x3be5a115	0.007007728
126	0x3d607828	0.05480209
127	0xbda202d0	-0.07910693
128	0x3ca444ed	0.020052398
129	0xbd3605b4	-0.044439033
130	0xbd1a10ce	-0.037613682
131	0xbc96e38f	-0.018419055
132	0x3d675caa	0.056484856
133	0x3c657c5f	0.014006703
134	0x3e579fd7	0.21057068
135	0x3bb0f3f0	0.0054001734
136	0x3ac54eb1	0.0015053359
137	0xbdb94b8d	-0.09047613
138	0xbe06d084	-0.1316548
139	0x3c6c0a8f	0.014406814
140	0xbc9d15de	-0.019175466
141	0xbd81b9ee	-0.063342914
142	0xbdf296fa	-0.11845203
143	0xbd431c8c	-0.047634646
144	0xbda3b16f	-0.07992827
145	0xbb331e58	-0.0027331319
146	0x3cb13f2f	0.021636574
147	0x3d4845f7	0.04889485
148	0xbcf72b0c	-0.030171894
149	0x3bcaf090	0.006193228
150	0xbd855b57	-0.06511562
151	0xbba2fe0e	-0.0049741333
152	0x3d5dcee6	0.05415239
153	0xbd79ceee	-0.06098836
154	0xbd4e1c0c	-0.050319716
155	0xbe53f383	-0.20698361
156	0x3b952559	0.0045515713
157	0xbda9bf4e	-0.082884416
158	0xbd91d422	-0.07120539
159	0x3d791fdc	0.0608214
160	0xbe0bbdc8	-0.13646615
161	0xbc6e2725	-0.0145357
162	0x3a20110e	0.0006106057
163	0xbd82e7bd	-0.06391857
164	0x3c85ee22	0.016348902
165	0x3c867e1c	0.016417556
166	0xbd3d76b7	-0.046255793
167	0xbbe98e4e	-0.0071275597
168	0xbd102eb1	-0.03520078
169	0xbda47ae7	-0.08031254
170	0x3d672c58	0.056438774
171	0x3e534751	0.20632674
172	0x3d358fb4	0.0443265
173	0xbcd8f760	-0.026485145
174	0xbbc28242	-0.005935938
175	0xbdccdb9e	-0.10002826
176	0x3cca3bca	0.024686713
177	0xbc867549	-0.016413348
178	0xbcea2fd4	-0.02858726
179	0x3ca59a22	0.020215098
180	0xbd378bfc	-0.044811234
181	0x3d5fdfd3	0.054656815
182	0xbca12648	-0.019671574
183	0xbd9b2634	-0.07575646
184	0xbc84c624	-0.016207762
185	0xbd814792	-0.06312479
186	0x3da29c9b	0.079400264
187	0x3d7ab128	0.061204106
188	0x3dc3a52c	0.095529884
189	0xbd197dc5	-0.03747346
190	0x3c61ceef	0.013782247
191	0x3cef6267	0.029221727
192	0x3da4ee2d	0.08053241
193	0x3d886c89	0.066613264
194	0xbd299f7b	-0.041411858
195	0xbd9910d3	-0.07473912
196	0xbda4116b	-0.08011135
197	0xbd0bd144	-0.034135118
198	0x3db82f29	0.0899337
199	0x3c624c88	0.013812192
200	0x3d9f64d7	0.077829055
201	0x3d88adeb	0.06673797
202	0xbc241762	-0.0100153405
203	0xbd4668aa	-0.04843966
204	0x3da02623	0.07819774
205	0x3d70bce2	0.058773883
206	0x3d70afee	0.05876153
207	0xbd3484e0	-0.044072032
208	0x3d856d20	0.065149546
209	0x3bf04ce1	0.0073333834
210	0x3d048e7c	0.032362446
211	0x3cfbefb5	0.03075395
212	0x3e0ac9b8	0.13553512
213	0xbe0406e5	-0.12893255
214	0x3d94784e	0.07249509
215	0x3dacc8aa	0.08436711
216	0xbcb80628	-0.022463873
217	0xbdadcdf8	-0.08486551
218	0x3e252091	0.16125704
219	0x3c27564b	0.010213445
220	0x3d22a72f	0.03971022
221	0x3cf0552c	0.029337488
222	0x3cf4e14a	0.029892582
223	0xbe1a7bb7	-0.15086256
224	0xbcc6e383	-0.024278408
225	0xbc89d65e	-0.016825851
226	0xbcf43708	-0.029811397
227	0x3d5532d5	0.05205043
228	0xbc14b7d8	-0.009077035
229	0x3d6f6d49	0.05845383
230	0x3cef664c	0.029223584
231	0xbc4c21f2	-0.012459265
232	0x3d1497ee	0.036277704
233	0xbd974bfc	-0.0738754
234	0xbc96626e	-0.018357482
235	0xbdcd4e3d	-0.100246884
236	0xbc2c4ca5	-0.01051632
237	0x3aacc93d	0.0013182532
238	0xbc5b1d01	-0.013373614
239	0xbd224fa7	-0.039626744
240	0x3d655c7c	0.055996403
241	0x3d3a2203	0.045442592
242	0xbd15e3f4	-0.036594346
243	0xbd02a811	-0.031898562
244	0x3d543b8d	0.051814605
245	0x3d85cfbc	0.06533763
246	0xbd974a89	-0.07387263
247	0xbc8eb7cf	-0.017421631
248	0xbbcbd7c9	-0.006220792
249	0xbcef02e1	-0.029176177
250	0x3d9b2af3	0.07576551
251	0xbc43421f	-0.01191762
252	0x3da63e57	0.08117359
253	0x39d11b59	0.00039883962
254	0xbc0f51db	-0.008747543
255	0xbda291df	-0.07937979

Q1.moduleList.1.linear_1.bias f4 [128]
0	0x3e524e7b	0.2053775
1	0x3da09da5	0.07842568
2	0x3dea55f6	0.11442177
3	0x3d506ac5	0.050883073
4	0x3da33e1c	0.07970831
5	0x3de2ad04	0.11068156
6	0x3c95fad1	0.018308075
7	0x3ddd480e	0.10804759
8	0xbdec9437	-0.11551707
9	0xbdfc2a74	-0.12312785
10	0x3d452dab	0.048139255
11	0xbc746218	-0.0149159655
12	0x3d3bb2d8	0.045824856
13	0x3d540bd4	0.051769093
14	0x3cb3531f	0.021890221
15	0x3d642c48	0.055706292
16	0xbd42f286	-0.04759457
17	0x3d5b29b7	0.05350658
18	0x3d5a0fdd	0.053237785
19	0xbd8a13c2	-0.0674205
20	0x3db654a7	0.08902865
21	0x3d10d53f	0.035359617
22	0x3d4a963f	0.049459692
23	0x3d8e1e50	0.069393754
24	0xbc5ab73b	-0.01334935
25	0xbcd9704b	-0.026542803
26	0x3c1dd10d	0.009632361
27	0x3d67a637	0.056555
28	0xbd3882af	-0.045046505
29	0x3d48c55b	0.049016338
30	0x3d87e954	0.06636301
31	0x3c31ca73	0.01085149
32	0x3d12d2aa	0.035845436
33	0x3cb7d90e	0.022442367
34	0x3c9dbdf2	0.019255612
35	0x3d9196c2	0.07108833
36	0xbe3858e2	-0.18002656
37	0x3cef616e	0.029221263
38	0xbd6f5dc5	-0.058439035
39	0xbda15c7d	-0.07878969
40	0x3d580f7c	0.052749142
41	0x3d5ef3bd	0.054431666
42	0xbd141934	-0.036156848
43	0xbc9bfb9e	-0.019040879
44	0xbc9b14f7	-0.018930895
45	0x3c90e18d	0.017685676
46	0xbc94925e	-0.0181362
47	0xbda0f8c0	-0.07859945
48	0x3dd789d4	0.105243355
49	0xbdac46bf	-0.08411931
50	0xbd63dcb3	-0.055630397
51	0xbe075f93	-0.13220052
52	0x3e01a76a	0.1266152
53	0x3cc8ed46	0.024527203
54	0xbd5d70d6	-0.054062687
55	0x3d93f60b	0.07224663
56	0xbcbc5be2	-0.022993032
57	0x3d957971	0.07298554
58	0x3cf18aec	0.029485188
59	0xbc9c48e0	-0.019077718
60	0x3d72e8c7	0.059304025
61	0x3e04efc6	0.12982091
62	0x3d7b3813	0.061332773
63	0xbd864499	-0.06556053
64	0xbcf6ba98	-0.030118272
65	0xbd779d3d	-0.06045269
66	0x3d8406c8	0.06446606
67	0x3c8757db	0.016521385
68	0xbd74e40a	-0.059787787
69	0xbc44a6fa	-0.012002701
70	0x3d9e0cf9	0.07717318
71	0x3e8742f0	0.26418257
72	0x3a2e628d	0.00066522585
73	0xbda5d765	-0.08097724
74	0xbd16e0de	-0.036835544
75	0x3d2a07f3	0.041511487
76	0x3e39b691	0.1813605
77	0x3d818a95	0.063252605
78	0x3de38297	0.111088924
79	0xbcec98da	-0.028881479
80	0x3d37cc17	0.04487237
81	0xbbf4da46	-0.0074723093
82	0x3dafb658	0.08579701
83	0xbdbbee61	-0.091763265
84	0xbd9df743	-0.07713177
85	0xbd83baaa	-0.06432088
86	0x3e051fc3	0.13000397
87	0x3da39e25	0.07989148
88	0xbd8199fa	-0.06328197
89	0xbcb0a51f	-0.02156311
90	0xbd0ef2da	-0.03489957
91	0x3e055e67	0.13024293
92	0x3d2065e7	0.03915968
93	0x3e0d5a6f	0.13804029
94	0x3d63a0ce	0.055573277
95	0x3df0eafc	0.1176357
96	0xbd7ee254	-0.062227562
97	0xbd50f555	-0.051015217
98	0xbe0629c5	-0.13101871
99	0xbd2aeb7f	-0.041728493
100	0xbd09ae95	-0.03361376
101	0x3e36875d	0.17825074
102	0xbd20550c	-0.039143607
103	0x3d80d7a5	0.06291131
104	0x3d6c4993	0.057687353
105	0x3d6f8d92	0.05848462
106	0x3e5af192	0.21381214
107	0x3d5ea0ce	0.054352574
108	0x3c5896b8	0.013219528
109	0xbd5b7463	-0.053577792
110	0x3e0c5d92	0.13707569
111	0x3da24580	0.07923412
112	0x3d54ee3b	0.051985007
113	0xbdf40deb	-0.11916717
114	0xbd9d4edf	-0.07681059
115	0x3d4a7f0d	0.04943757
116	0xbcb0f0a6	-0.021599125
117	0xbbbae0a2	-0.005703048
118	0x3e133196	0.14374384
119	0xbc824263	-0.015900796
120	0x3d2da7da	0.042396404
121	0xbcb2be83	-0.021819359
122	0x3d4eb8fd	0.050469387
123	0xbd426752	-0.047461815
124	0x3d143a6f	0.03618854
125	0xbb5dedbf	-0.0033863632
126	0xbd0a53d5	-0.033771355
127	0xbd03c44f	-0.032169636

Q1.moduleList.2.linear_1.weight f4 [128, 128]
0	0xbd78b46a	-0.06071893
1	0x3dcddf5e	0.100523695
2	0x3ea726f4	0.32646906
3	0xbd37c346	-0.04486396
4	0x3c7c6aa2	0.015406283
5	0x3da2f2c4	0.0795646
6	0x3d754a63	0.059885394
7	0x3d8b0536	0.06788103
8	0xbdb333ad	-0.08750091
9	0xbcab6a34	-0.020924665
10	0x3c0d58f9	0.00862717
11	0x3d317e8d	0.04333358
12	0x3d8c349b	0.06845971
13	0x3ce0512b	0.027382454
14	0xbd970323	-0.07373645
15	0x3c9f5f2b	0.01945456
16	0xbcbc3f9f	-0.022979556
17	0x3c761b0a	0.015021095
18	0x3c89399c	0.016751103
19	0x3da75daf	0.081721656
20	0xbc29a154	-0.010353405
21	0xbd206d2d	-0.03916662
22	0x3d9751ac	0.073886245
23	0x3a939940	0.0011260882
24	0x3d16fdb7	0.036863055
25	0x3cb3f94c	0.02196946
26	0xbc6cd8a5	-0.014455949
27	0xbda3b225	-0.07992963
28	0x3d737beb	0.05944435
29	0x3e0de955	0.1385854
30	0x3d20c204	0.039247528
31	0xbc8251d9	-0.015908169
32	0x3d1148f7	0.035469975
33	0xbd46cf9e	-0.048537843
34	0x3cb62e4e	0.022238877
35	0x3d897714	0.067121655
36	0xbd9dede2	-0.07711388
37	0x3ae2c01b	0.0017299684
38	0x3d25971f	0.040427323
39	0x3c27a414	0.01023199
40	0xbad8dc5c	-0.0016545164
41	0x3c66a89d	0.0140782865
42	0xbb8dffdf	-0.0043334807
43	0xbc281e12	-0.010261076
44	0x3d7262e1	0.05917633
45	0x3d2075e3	0.039174926
46	0x3d819819	0.063278385
47	0x3bec034c	0.0072025415
48	0x3d22c53a	0.03973887
49	0xbd4f83c8	-0.050662786
50	0x3d3821d2	0.04495413
51	0x3d8763fa	0.06610866
52	0x3d1fe7af	0.03903931
53	0x3cec5bdf	0.028852401
54	0x3cb668b2	0.02226672
55	0xbd4abcd8	-0.0494965
56	0xb925f876	-0.00015828185
57	0xbd9b21b4	-0.07574788
58	0x3c953365	0.018212983
59	0x3d816380	0.06317806
60	0xbd4de3f8	-0.050266236
61	0xbc383256	-0.01124247
62	0x3d6bc6d0	0.05756265
63	0x3d7ce091	0.0617376
64	0x3d531e5a	0.051542617
65	0xbd2ad731	-0.04170913
66	0xbaefc8cf	-0.0018294099
67	0xbd285cf4	-0.041104272
68	0x3da39cda	0.079889014
69	0x3b6997f3	0.0035643547
70	0x3c3e57d9	0.011617624
71	0x3d420045	0.04736354
72	0x3b92be98	0.004478287
73	0x3ce4e89b	0.027942946
74	0xbc493864	-0.012281511
75	0x3c61701d	0.01375964
76	0xbd8cd65b	-0.068768226
77	0xbcd120ca	-0.02552833
78	0x3d308c53	0.043102574
79	0x3d02ec39	0.03196356
80	0x3d9c21cd	0.076236345
81	0x3d61443a	0.054996707
82	0x3d70ec88	0.058819324
83	0xbccd5130	-0.025063127
84	0x3d4cfbf9	0.050044987
85	0x3dc8f619	0.098125644
86	0x3c99bae3	0.018765872
87	0xbce18c5a	-0.027532745
88	0xbd241ec2	-0.040068395
89	0xbd88c8da	-0.066789344
90	0xbd52c432	-0.051456638
91	0xbb27a4e0	-0.002558045
92	0x3d9214d0	0.07132876
93	0xbc1e8c7e	-0.009677051
94	0x3ab1bd85	0.001356051
95	0x3d1018ff	0.035180088
96	0x3cfb6671	0.030688496
97	0xbd44b219	-0.04802141
98	0xbdb8d4a6	-0.090249345
99	0xbda15e11	-0.0787927
100	0x3dd35aa8	0.10320026
101	0x3d9d1d39	0.076715894
102	0xbcf74b1a	-0.030187178
103	0x3d4b6377	0.049655404
104	0x3d04869d	0.03235494
105	0xbd8ca6cc	-0.068677515
106	0xbc913090	-0.017723352
107	0xbd9516b5	-0.07279722
108	0x3d0f547a	0.034992673
109	0x3ceb1d27	0.028700424
110	0x3c97e4fd	0.018541807
111	0xbc22bd7e	-0.009932874
112	0x3c055b36	0.008139422
113	0xbd6741b2	-0.056459136
114	0xbd96857f	-0.07349681
115	0xbcdff80c	-0.027339958
116	0x3cf86906	0.030323517
117	0xbc73ec18	-0.014887832
118	0x3ce0c731	0.027438732
119	0xbd27a5bc	-0.04092954
120	0xbd831ee0	-0.06402373
121	0xbd3e75f1	-0.046499196
122	0xbc2fdc98	-0.010733746
123	0x3d9a55c1	0.075358875
124	0xbcf08797	-0.02936153
125	0xbc2ed29c	-0.01067033
126	0xbd8727b8	-0.065993726
127	0xbd538b67	-0.051646616
128	0xbda1cc57	-0.07900303
129	0xbd71174b	-0.058860105
130	0xbcbe5fbb	-0.023239007
131	0xbcb22974	-0.021748282
132	0xbd80c2cc	-0.062871546
133	0xbc4af9f3	-0.012388694
134	0x3d8b4ce7	0.06801777
135	0xbd8eff26	-0.069822595
136	0x3d4e328c	0.050341174
137	0xbd7def63	-0.061995875
138	0x3c6f4608	0.014604099
139	0x3a4dacef	0.00078458985
140	0xbd850ffa	-0.06497188
141	0xbd479111	-0.04872233
142	0xbd1cefd0	-0.03831464
143	0xbd7b258a	-0.061315097
144	0x3bc0d6d3	0.005884984
145	0xbd8388fc	-0.06422612
146	0x3d8a310f	0.067476384
147	0x3b9670d6	0.004591088
148	0xbd8bfec2	-0.068357006
149	0xbd04348f	-0.032276686
150	0x3d905310	0.07047093
151	0xbb590988	-0.0033117253
152	0x3d17ccb3	0.03706045
153	0x3d631410	0.055439055
154	0xbd28cb86	-0.04120972
155	0x3d8dbbc7	0.06920581
156	0xbd49850a	-0.04919914
157	0xbd96807f	-0.073487274
158	0x3d2bb7c1	0.04192329
159	0xbd8aa229	-0.06769211
160	0xbd608000	-0.05480957
161	0xbd887b0f	-0.066640966
162	0x3ce65b51	0.028119715
163	0xbb85fd6c	-0.004089048
164	0x3d7e04aa	0.062016167
165	0xbd111d5b	-0.035428386
166	0x3b7ee8c7	0.003889607
167	0x3d215c3e	0.03939461
168	0xbc57d0ed	-0.01317237
169	0xbbb95bd4	-0.0056566987
170	0xbd523762	-0.05132235
171	0x3d43cb86	0.047801517
172	0x3cc0f5ac	0.023554645
173	0xbc62586d	-0.013815028
174	0xbd0b9d9c	-0.034085855
175	0x3d5bf503	0.05370046
176	0xbd9961ea	-0.07489379
177	0x3d0ab4b7	0.03386375
178	0x3d66a15b	0.056306224
179	0xbd0cd5e4	-0.03438367
180	0x3cc9667c	0.024585001
181	0x3cb127a4	0.021625347
182	0x3c362e58	0.011119448
183	0xbd0df1f3	-0.03465457
184	0xbc9ebd13	-0.019377267
185	0xbc9e03eb	-0.019288978
186	0x3cfe4fe4	0.031043954
187	0xbda3b1c5	-0.07992891
188	0xbb83576c	-0.0040082242
189	0x3c911f3f	0.017715095
190	0x3cc70e08	0.024298683
191	0xbd33a9fe	-0.04386329
192	0xbcebeabd	-0.028798455
193	0x3d443771	0.047904436
194	0x3c9a3edf	0.018828807
195	0x3da43c6f	0.08019339
196	0xbcecf411	-0.028924974
197	0x3d3747e4	0.044746295
198	0xbc981ed5	-0.01856939
199	0x3ba97691	0.005171605
200	0xbaebef93	-0.0018000476
201	0xbd9cc461	-0.07654644
202	0x3d060c9b	0.032726865
203	0x3cb5eaa0	0.022206604
204	0xbd9dc539	-0.07703633
205	0xbb35d0b8	-0.0027742814
206	0x3c30f70b	0.010801087
207	0x3d850589	0.06495196
208	0x3da33e0f	0.07970821
209	0xbc6a4558	-0.014298759
210	0xbcb0f2b8	-0.021600112
211	0xbc93f21b	-0.01805978
212	0xbd72e5ac	-0.059301063
213	0x3d219351	0.039447132
214	0x3d9396e8	0.072065175
215	0x3d8df750	0.06931937
216	0xbd8ffb44	-0.07030347
217	0xbd989a2d	-0.07451282
218	0xbd74365c	-0.059622154
219	0xbc8b88bf	-0.017032979
220	0xbcab0050	-0.020874172
221	0xbdab2436	-0.08356516
222	0xbd9017e0	-0.07035804
223	0xbd91e071	-0.07122887
224	0xbcbe4142	-0.023224477
225	0x3aabd0be	0.0013108475
226	0x3d8fbacf	0.07018053
227	0xbd9bdcd2	-0.076104775
228	0x3d2f9119	0.042862985
229	0xbd23dd5a	-0.04000602
230	0x3da377a6	0.079818055
231	0xbd8a3015	-0.06747452
232	0xbd923bdb	-0.07140323
233	0xbc434142	-0.011917414
234	0x3cd33fa1	0.025787177
235	0xbd87364b	-0.066021524
236	0xbc9a8740	-0.01886332
237	0xbd81afd9	-0.063323684
238	0x3d262af1	0.040568296
239	0xbd1d1bb9	-0.038356517
240	0xbd1fd122	-0.039017804
241	0xbd8e7ec9	-0.06957776
242	0x3c8f655f	0.017504392
243	0x3d97cea3	0.0741246
244	0x3c584a6e	0.013201339
245	0x3d013363	0.031543147
246	0x3d634916	0.055489622
247	0xbbb24b7c	-0.0054411273
248	0xb9d2b72b	-0.00040190792
249	0x3d8d26f3	0.068921946
250	0xbcddbc7c	-0.027067415
251	0xbd9774de	-0.073953375
252	0x3c29d3ae	0.01036541
253	0x3d0c9d94	0.034329966
254	0x3cda03af	0.026613085
255	0x3d751eed	0.059843946

Q1.moduleList.2.linear_1.bias f4 [128]
0	0xbd921a77	-0.07133954
1	0x3ca1e658	0.019763157
2	0xbd598d3e	-0.053113215
3	0xbe179ee3	-0.14806704
4	0x3d891212	0.066929
5	0xbbfd249e	-0.0077253124
6	0xbd9c7861	-0.07640148
7	0x3da822b5	0.08209745
8	0x3c41c3fd	0.011826512
9	0xbe02bd21	-0.1276746
10	0xbe43942e	-0.19099495
11	0x3db7d1f4	0.08975592
12	0x3d8ec3b8	0.06970924
13	0xbda3611f	-0.07977509
14	0xbd4bc20c	-0.049745604
15	0x3d015eb0	0.03158444
16	0xbcb68905	-0.022282133
17	0x3dda3b99	0.106558986
18	0xbdd4ef7f	-0.10397243
19	0xbd6836f2	-0.056693025
20	0x3d8553d8	0.065101326
21	0xbd1adfae	-0.037810974
22	0xbda98772	-0.08277787
23	0xbd0c5215	-0.034257967
24	0xbbe88d1f	-0.007096901
25	0xbdd67572	-0.1047162
26	0x3c9b80a1	0.018982233
27	0xbe12e2c8	-0.14344323
28	0xbd72c67a	-0.059271313
29	0xbd900cbf	-0.07033681
30	0x3d525c02	0.051357277
31	0xbd2f41a5	-0.042787213
32	0xbce87b1f	-0.028379021
33	0x3e163194	0.1466735
34	0x3e48a8d5	0.19595654
35	0x3d27f88c	0.041008517
36	0x3d9cce4b	0.07656535
37	0xbb90a2bd	-0.004413931
38	0x3d6a3b13	0.057185244
39	0xbb52d1b0	-0.003216844
40	0x3db0bef7	0.08630174
41	0x3db5a144	0.088686496
42	0xbd20ea36	-0.03928586
43	0xbdce09e2	-0.10060479
44	0x3e0f9b0c	0.1402399
45	0x3b019d3b	0.0019777555
46	0xbde8607d	-0.11346529
47	0x3d99bf31	0.0750717
48	0x3d5441b4	0.051820472
49	0xbcb522f3	-0.022111392
50	0xbd1861e8	-0.037202746
51	0x3e314f47	0.17315398
52	0xbe5854b6	-0.21126065
53	0x3a198879	0.0005856823
54	0xbcb04bb3	-0.021520471
55	0xbcd48dc9	-0.025946515
56	0x3d6fe7d3	0.058570694
57	0x3ce447fd	0.027866358
58	0xbd2130de	-0.039353244
59	0x3e209e30	0.15685344
60	0xbe10c17f	-0.14136313
61	0xbd86180f	-0.065475576
62	0xbdbabfac	-0.0911859
63	0x3d0f3f4b	0.03497247
64	0xbccb9696	-0.024852078
65	0x3e065af4	0.13120633
66	0xbdba6393	-0.091010235
67	0xbe51c388	-0.20484746
68	0xbe03ae52	-0.12859467
69	0xbe5e0671	-0.21682145
70	0xbd97ab7e	-0.074057564
71	0xbaf21396	-0.0018468972
72	0x3b85b37b	0.0040802336
73	0x3d4cd2f4	0.050005868
74	0xbb8e5cf5	-0.0043445774
75	0xbd65eda4	-0.056134835
76	0x3d4d4166	0.050111197
77	0xbe11289a	-0.14175645
78	0x3dc4e753	0.09614434
79	0xbd565710	-0.052329123
80	0xba92df7e	-0.0011205522
81	0x3e3216f5	0.1739157
82	0xbb7df50b	-0.0038750793
83	0x3e1125d6	0.1417459
84	0xbad757b7	-0.0016429339
85	0x3c894199	0.016754912
86	0x3ce13e2b	0.027495464
87	0x3d38b786	0.045096897
88	0x3dcc7bba	0.099845365
89	0x3bbe23da	0.0058026137
90	0x3e42899d	0.18997808
91	0xbce618e7	-0.028088046
92	0xbc2afad4	-0.010435779
93	0x3c1355d0	0.008992627
94	0x3da1a4b6	0.07892744
95	0x3e035fcb	0.12829511
96	0x3c11c157	0.0088961935
97	0x3d6facef	0.05851453
98	0x3bc1dd99	0.005916309
99	0xbc9bb5c1	-0.019007565
100	0xbc892426	-0.01674087
101	0x3de8480e	0.11341868
102	0x3d2a0780	0.04151106
103	0x3bc8266f	0.0061080973
104	0x3d3e7119	0.046494577
105	0x3e3a3d38	0.18187416
106	0xbe29a0b4	-0.1656521
107	0xbd11ea89	-0.03562406
108	0x3db0b1a3	0.086276315
109	0x3cbd01b5	0.023072103
110	0x3988e37f	0.0002610944
111	0x3e1e6a51	0.15470244
112	0x3d9ae89e	0.075638995
113	0x3d3d3978	0.046197385
114	0x3d5fb3cc	0.054614827
115	0x3c564106	0.013077026
116	0x3dce935a	0.10086699
117	0x3df0696c	0.117388576
118	0x3d0e8df2	0.03480334
119	0x3e4a7aad	0.1977336
120	0xbcb9d06e	-0.022682395
121	0x3ceeb3ba	0.029138435
122	0xbdd37ea9	-0.10326893
123	0x3e4a4d7a	0.19756117
124	0x3d4eb736	0.050467692
125	0x3dbb0ec8	0.09133679
126	0x3e06b915	0.1315654
127	0x3dc00359	0.093756385

Q1.moduleList.3.linear_1.weight f4 [1, 128]
0	0x3e1ec00a	0.15502945
1	0x3d6bbbc5	0.057552118
2	0xbc0651ee	-0.0081982445
3	0x3d8eb130	0.069673896
4	0xbd2795dc	-0.0409144
5	0x3c643732	0.013929175
6	0xbcd633b4	-0.0261477
7	0xbd2381a6	-0.039918564
8	0xbdc083e2	-0.09400155
9	0x3e0421f7	0.12903582
10	0x3d0c5bf5	0.034267385
11	0xbd3af231	-0.045641128
12	0xbc8f6482	-0.01750398
13	0xbd242a19	-0.04007921
14	0x3a08923d	0.00052097795
15	0xbc866c04	-0.016408928
16	0xbe3935ed	-0.18086977
17	0xbd869457	-0.06571262
18	0x3da6d16c	0.08145413
19	0xbdfb12ce	-0.12259446
20	0x3c42c5dd	0.011887995
21	0x3d3c390c	0.04595284
22	0x3d679f4c	0.0565484
23	0xbd2f00c3	-0.042725336
24	0xbd3ba800	-0.045814514
25	0x3d92c327	0.071661286
26	0x3be171c3	0.0068800165
27	0x3d8adaf3	0.067800425
28	0x3b399d18	0.0028322395
29	0xbce38883	-0.027775055
30	0xbbcf1b16	-0.0063203676
31	0x3dda712e	0.106661186
32	0x3d5807d8	0.052741855
33	0xbd3e6b7c	-0.046489224
34	0xbd7f182b	-0.062278908
35	0x3d14cb2d	0.036326576
36	0xbd0b9428	-0.03407684
37	0x3ea96a6d	0.3308901
38	0xbda8272b	-0.08210596
39	0xbdd5c513	-0.104379795
40	0xbe29baef	-0.16575216
41	0xbdd3451d	-0.10315917
42	0x3d3be71b	0.045874696
43	0x3db25f9c	0.08709642
44	0xbd4e6bd2	-0.050395794
45	0xbdc0f3d8	-0.094215095
46	0x3deba42a	0.11505921
47	0x3e9b2a9d	0.3030595
48	0xbd0d7c01	-0.034542087
49	0xbd18fa34	-0.037347987
50	0xbed21d0b	-0.41037783
51	0xbd298e3e	-0.04139542
52	0x3d4b7d87	0.04968026
53	0x3d56f65d	0.052481044
54	0x3c23f55b	0.010007228
55	0xbd8b20b2	-0.067933455
56	0xbdb105c7	-0.0864368
57	0x3d2b89a8	0.041879326
58	0xbd0b39ae	-0.033990555
59	0xbcf20908	-0.029545322
60	0x3d424150	0.047425568
61	0x3d1634ce	0.036671452
62	0x3c01783c	0.007902201
63	0x3c4065bc	0.011743005
64	0xbdabda41	-0.08391238
65	0xbd9787ae	-0.07398926
66	0x3e031ec8	0.12804711
67	0x3dbc5183	0.091952346
68	0x3d81c7ae	0.06336914
69	0x3e28c0bf	0.16479777
70	0x3d2d0fd2	0.042251416
71	0xbd93f727	-0.07224875
72	0x3dd0593a	0.101732686
73	0xbcb5be0c	-0.022185348
74	0x3dfce1c0	0.12347746
75	0x3dbf689e	0.09346126
76	0xbcf0c084	-0.029388674
77	0x3d78be8d	0.0607286
78	0xbd966859	-0.073441215
79	0x3d424dfd	0.047437657
80	0xbd83b7d0	-0.06431544
81	0xbd6c4035	-0.05767842
82	0x3d876e25	0.06612805
83	0xbd99da02	-0.07512285
84	0xb818f028	-3.6463287e-05
85	0xbc84dbef	-0.016218154
86	0xbcb716c8	-0.02234973
87	0x3c273369	0.010205128
88	0xbd5e9ba6	-0.054347657
89	0xbd5f99c4	-0.05459
90	0xbd7eb9ae	-0.062188797
91	0x3d8cd8a5	0.06877259
92	0xbe293dd0	-0.16527486
93	0xbd0d5370	-0.0345034
94	0xbd1c67bb	-0.038184863
95	0xbd57ae51	-0.052656475
96	0xbdfbd565	-0.12296561
97	0x3d431a7f	0.04763269
98	0xbe96d759	-0.29461172
99	0x3e960b0f	0.29305312
100	0x3d77c148	0.06048706
101	0xbdb19573	-0.08671083
102	0x3f02ebdf	0.5114116
103	0x3ec4f8b5	0.38470998
104	0xbed6921b	-0.41908345
105	0xbd47c9b5	-0.048776347
106	0x3e8d1d7a	0.2756155
107	0x3dda6c50	0.1066519
108	0xbd308c41	-0.043102507
109	0xbd2184b7	-0.039433207
110	0x3d580538	0.052739352
111	0xbdf8de10	-0.1215173
112	0x3e722594	0.23647147
113	0x3ddcb2d3	0.107762955
114	0xbd41a3f8	-0.047275513
115	0x3ca2c4db	0.019869259
116	0xbd29b100	-0.041428566
117	0x3efa6159	0.48902395
118	0xbc3577f5	-0.011075963
119	0xbd0c2daf	-0.034223255
120	0x39d112e1	0.00039877652
121	0xbd177b69	-0.036982927
122	0x3d67cd44	0.05659224
123	0xbde1a9d4	-0.1101872
124	0xbdf65ea0	-0.12029767
125	0xbd59f099	-0.053207967
126	0xbd87c69b	-0.06629678
127	0xbcdda550	-0.027056366

Q2.moduleList.0.linear_1.weight f4 [128, 9]
0	0xbbe02ec3	-0.006841512
1	0x3ec45dfd	0.38352957
2	0xbe8b3817	-0.2719123
3	0xbea32bd6	-0.31869382
4	0xbf036dd6	-0.5133947
5	0x3da0ea86	0.07857232
6	0xbbfc6c4e	-0.0077033406
7	0x3e4e7974	0.20163518
8	0xbd85734d	-0.065161325
9	0x3da4e159	0.08050794
10	0xbdbc3491	-0.09189714
11	0xbd7489a3	-0.059701573
12	0xbe94d5ac	-0.2906927
13	0xbe4e46c3	-0.20144181
14	0xbe005183	-0.12531094
15	0x3c38b56e	0.011273725
16	0x3df5e015	0.12005631
17	0x3e3aeac4	0.18253618
18	0xbe36cf1d	-0.17852445
19	0xbea71505	-0.32633224
20	0x3e09be2d	0.13451453
21	0x3f91774b	1.136453
22	0x3f12e822	0.57385457
23	0x3e6e78b5	0.23288234
24	0xbda01e9e	-0.0781834
25	0x3c34cbe1	0.011034937
26	0x3e78e0b7	0.24304472
27	0xbe908a56	-0.28230542
28	0xbe442980	-0.19156456
29	0xbd9dba0f	-0.077015035
30	0xbdf28437	-0.11841624
31	0x3e86a11b	0.2629479
32	0xbe49e43e	-0.19715974
33	0xbe0f5d10	-0.14000344
34	0xbe59907a	-0.2124652
35	0xbe91eb76	-0.28499955
36	0xbe35e2fd	-0.1776237
37	0x3e85f3fc	0.26162708
38	0x3e0aff40	0.13573933
39	0x3e17019b	0.14746706
40	0x3c832af6	0.016011696
41	0xbe1fb45f	-0.1559615
42	0x3d52e1ca	0.05148486
43	0xbe91799d	-0.28413096
44	0xbe612a0f	-0.219887
45	0xbe28388a	-0.16427818
46	0x3e93bf54	0.2885691
47	0x3e0f658a	0.14003578
48	0x3f88d457	1.0689801
49	0x3f1a7f02	0.6035005
50	0x3e36edce	0.17864153
51	0x3ea8d3bf	0.3297405
52	0x3e0fc49e	0.14039847
53	0x3cc1891c	0.02362495
54	0x3e345700	0.17611313
55	0xbe69f772	-0.22848299
56	0x3d894b2c	0.06703791
57	0xbfb02f17	-1.3764371
58	0xbf54d326	-0.83134687
59	0xbe392231	-0.18079449
60	0x3ea24aae	0.316976
61	0x3bda59aa	0.006663521
62	0xbd949404	-0.07254794
63	0x3da22630	0.0791744
64	0x3e1e661f	0.15468644
65	0xbccccd80	-0.025000334
66	0xbf7f5d86	-0.9975208
67	0xbf2c7993	-0.6737301
68	0x3e34d70e	0.17660162
69	0x3ea5a687	0.32353613
70	0xbe4f05fb	-0.20217125
71	0xbd99b177	-0.07504552
72	0x3e34d266	0.17658386
73	0x3ec81719	0.39080122
74	0x3e82a25b	0.25514492
75	0x3f0ef139	0.55836827
76	0xbe3f4155	-0.18677266
77	0xbe60134e	-0.21882364
78	0xbceed1b7	-0.029152734
79	0xbd2453fb	-0.040119153
80	0xbe655023	-0.22393851
81	0x3e7281b0	0.23682284
82	0x3e3725c2	0.17885497
83	0xbe997082	-0.2996865
84	0x3eef474c	0.46734083
85	0x3ea990aa	0.33118182
86	0xbd7d2ab7	-0.061808314
87	0xbe2dee9e	-0.16985556
88	0x3dfb6085	0.12274269
89	0xbb73e81c	-0.0037217205
90	0x3df72e36	0.12069361
91	0x3e2e6722	0.1703153
92	0x3e66e425	0.22547968
93	0x3f82a8b7	1.0207738
94	0x3edf3396	0.43594044
95	0xbe39090b	-0.18069856
96	0x3e514666	0.20437011
97	0x3d910e95	0.070828594
98	0xbcf26429	-0.029588776
99	0xbe336415	-0.17518647
100	0x3e9291d0	0.2862687
101	0x3e51f393	0.20503072
102	0xbe07dda0	-0.13268137
103	0xbd9cced9	-0.076566406
104	0xbe94686f	-0.28985927
105	0xbbb32fe5	-0.005468356
106	0xbe6a76b7	-0.22896849
107	0xbe7003f1	-0.23439004
108	0xbd3c201b	-0.045929056
109	0x3dada5cb	0.08478888
110	0xbe312c20	-0.17301989
111	0x3fa4ed12	1.2884848
112	0x3f234fc1	0.6379357
113	0x3e8109b8	0.25202727
114	0x3e48daa9	0.19614662
115	0xbe3c9fba	-0.18420306
116	0xbd627d7a	-0.055295445
117	0x3c60f88e	0.013731135
118	0x3d35d802	0.044395454
119	0x3d93cd7e	0.07216929
120	0x3df41c81	0.11919499
121	0x3c954efb	0.018226137
122	0xbe180445	-0.14845379
123	0x3e137161	0.1439872
124	0xbe957098	-0.29187465
125	0xbe38b633	-0.18038253
126	0xbd88e189	-0.066836424
127	0xbe592f65	-0.21209486
128	0xbddb000f	-0.106933706
129	0xbcc808e3	-0.0244183
130	0x3e36a210	0.1783526
131	0x3daa1a49	0.08305795
132	0xbe344327	-0.17603742
133	0x3d2f44a1	0.04279006
134	0x3c8c24f5	0.017107466
135	0xbd4e789e	-0.050408
136	0x3c857f7c	0.01629614
137	0xbd4ec8f9	-0.05048463
138	0xbf5ae57d	-0.8550642
139	0xbeaa78d0	-0.33295298
140	0x3e839c26	0.2570507
141	0x3e493852	0.1965039
142	0x3e8ee995	0.27912584
143	0xbda4712c	-0.08029398
144	0xbe8be6a6	-0.27324408
145	0xbe13b7ef	-0.14425634
146	0x3e543597	0.20723568
147	0xbb013993	-0.0019718155
148	0xbe1ad88c	-0.15121669
149	0xbe6e7c17	-0.23289524
150	0xbe91cf4c	-0.28478467
151	0xbe838ef7	-0.2569501
152	0xbd7c60ef	-0.06161588
153	0x3e304191	0.17212512
154	0x3eb5c313	0.35500392
155	0xbe95f31c	-0.2928704
156	0xbc534653	-0.012895185
157	0xbe421b11	-0.18955638
158	0xbd31e727	-0.043433335
159	0xbe2b80d0	-0.16748357
160	0xbd9b6738	-0.07588047
161	0x3d48a91b	0.048989397
162	0xbe90a8dc	-0.2825383
163	0xbe8f1c27	-0.27951166
164	0xbcba4bc6	-0.02274121
165	0xbea9f092	-0.33191353
166	0xbf3667f5	-0.71252376
167	0x3dfd3df1	0.1236533
168	0xbe7422e0	-0.23841429
169	0x3cff9be8	0.031202272
170	0x3d371b13	0.044703554
171	0xbe0a4bf8	-0.13505542
172	0x3e83f653	0.25773868
173	0x3dbd3dbc	0.092402905
174	0xbe942a73	-0.28938636
175	0x3e3bb01e	0.18328902
176	0xbd4980b6	-0.049195014
177	0xbe0250ef	-0.12726186
178	0x3e688d24	0.22710091
179	0xbe7c5974	-0.24643499
180	0x3c8e9b80	0.017408133
181	0x3dfdce68	0.123928845
182	0x3e46f310	0.19428658
183	0x3f037893	0.51355857
184	0xbc0f23c3	-0.008736554
185	0x3dbdb187	0.09262376
186	0xbda18bd4	-0.07887998
187	0xbd7f86b6	-0.06238433
188	0xbe90d85a	-0.28290063
189	0x3e396332	0.18104246
190	0x3e7d3f44	0.24731165
191	0x3e1cb8dd	0.15304895
192	0x3f81279c	1.0090213
193	0x3eb651d3	0.35609302
194	0xbe5855bc	-0.21126455
195	0xbe7a2692	-0.24428776
196	0x3d90e0e6	0.07074146
197	0x3cb601d5	0.02221767
198	0xbe39b6f5	-0.18136199
199	0xbbd96b07	-0.006635073
200	0x3c51b836	0.012800267
201	0x3e48d6e6	0.19613227
202	0xbe6b54f1	-0.22981621
203	0xbe55f12a	-0.20892778
204	0xbe34eaa4	-0.17667633
205	0x3e59f355	0.2128423
206	0xbde0002d	-0.109375335
207	0x3e7600b9	0.24023713
208	0x3db9a64d	0.090649225
209	0x3c5c7b23	0.013457092
210	0x3f982c12	1.1888449
211	0x3f65ef9a	0.8981873
212	0x3cc0fe45	0.023558745
213	0xbdfb1d13	-0.12261405
214	0x3c42fe35	0.011901428
215	0x3d577ba1	0.052608136
216	0xbe70b30c	-0.23505801
217	0xbe6868ee	-0.22696277
218	0x3e6d28af	0.23160051
219	0xbfa21681	-1.2663118
220	0xbf02ce76	-0.51096284
221	0x3e9875fe	0.2977752
222	0x3db1c976	0.08681004
223	0xbd096def	-0.033552106
224	0xbe4269cd	-0.18985672
225	0x3e0c6423	0.13710074
226	0xbeaacdaf	-0.3336005
227	0xbdb3bcca	-0.08776243
228	0x3f27643b	0.65387315
229	0x3f177c9e	0.59174526
230	0xba337a25	-0.0006846509
231	0x3e762519	0.24037589
232	0x3d72da3d	0.05929016
233	0x3e995ec9	0.29955128
234	0x3e1a7cfd	0.15086742
235	0xbea0ed47	-0.31431028
236	0x3d98e7e6	0.07466106
237	0x3f770b50	0.96501637
238	0x3f3499b2	0.7054702
239	0x3d3c88be	0.046028845
240	0x3d60710e	0.054795317
241	0x3e707a09	0.23484053
242	0xbe32ccb3	-0.17460899
243	0x3d03004e	0.031982712
244	0x3e81bc72	0.25339085
245	0xbe805cb0	-0.25070715
246	0x3fc6e06c	1.5537238
247	0x3f11f088	0.57007647
248	0x3d3cc1be	0.046083204
249	0x3d10142c	0.035175487
250	0xbe0ebb07	-0.13938533
251	0x3e0f9845	0.1402293
252	0x3e6ecef8	0.2332114
253	0xbe6094ae	-0.21931717
254	0xbe3f9c99	-0.18712081
255	0xbf96bcf0	-1.1776409

Q2.moduleList.0.linear_1.bias f4 [128]
0	0xbe96ff24	-0.29491532
1	0x3b92f19b	0.004484368
2	0x3e8d8ff7	0.276489
3	0xbe85760f	-0.26066634
4	0xbe0af2c6	-0.13569173
5	0x3e173db8	0.14769638
6	0xbd9ebc3f	-0.07750749
7	0x3e2436d4	0.1603654
8	0xbeae4a18	-0.34040904
9	0xbe0cc02e	-0.13745186
10	0xbe4d086e	-0.20022747
11	0x3e8369ba	0.256666
12	0x3c6a7129	0.014309206
13	0xbe636819	-0.22207679
14	0x3d979f3b	0.07403418
15	0x3d14cb70	0.036326826
16	0xbdffba9b	-0.12486764
17	0xbe0776d6	-0.13228926
18	0xbd983a22	-0.07432963
19	0x3e65afa7	0.22430287
20	0xbe9884dc	-0.29788864
21	0xbeb09410	-0.34487963
22	0xbdc03346	-0.0938478
23	0xbd9c9446	-0.076454684
24	0x3e2326b3	0.15932731
25	0xbd20f935	-0.039300162
26	0xbdd21098	-0.10257071
27	0xbe5e26be	-0.21694466
28	0x3d8f7816	0.070053264
29	0xbe4250c4	-0.18976122
30	0x3e7b46d7	0.24538742
31	0xbed471c7	-0.41493055
32	0xbe0a43f2	-0.13502482
33	0xbe7d1a0d	-0.24716969
34	0xbdacaf93	-0.084319256
35	0x3e9fe002	0.31225592
36	0x3ec802e0	0.39064693
37	0xbecce248	-0.4001639
38	0xbe23481a	-0.15945473
39	0x3d1bdeb6	0.03805419
40	0x3e572b43	0.21012597
41	0x3e7ee115	0.2489055
42	0xbdbf3e71	-0.09338082
43	0xbe4aa1c6	-0.19788274
44	0x3e29310e	0.16522619
45	0xbdd5bcf0	-0.104364276
46	0x3de90c24	0.11379269
47	0xbe383ccf	-0.17991947
48	0x3e224ac0	0.15848827
49	0x3e8c1215	0.27357545
50	0x3e563aa5	0.20920809
51	0xbe391489	-0.1807424
52	0xbe04f9ce	-0.12985918
53	0xbd2e241a	-0.042514898
54	0xbe18debd	-0.14928718
55	0x3e957a92	0.29195076
56	0xbc098780	-0.008394122
57	0xbe8f7863	-0.28021535
58	0xbda5f568	-0.08103448
59	0xbe087640	-0.13326359
60	0x3e1f40ec	0.1555211
61	0xbe8c19ca	-0.27363425
62	0xbe30458b	-0.17214029
63	0xbe9ba7e9	-0.30401543
64	0x3e062d02	0.13103107
65	0x3e3b8843	0.18313698
66	0xbdada365	-0.08478431
67	0x3c8c32f5	0.017114142
68	0x3e5cd5b1	0.21565892
69	0x3e113084	0.14178663
70	0xbdd76607	-0.10517507
71	0xbc986a84	-0.018605478
72	0xbd05ae20	-0.03263676
73	0x3e89c5e2	0.26908785
74	0xbe55cdb3	-0.2087925
75	0x3e2ff184	0.17181975
76	0x3e06036b	0.13087241
77	0xbeab410c	-0.33448064
78	0x3e894a06	0.26814288
79	0x3e98ff94	0.2988249
80	0xbde655b8	-0.11246818
81	0xbdae7751	-0.085188515
82	0x3dbd7f39	0.092527814
83	0xbdd9375c	-0.10606262
84	0x3e1b5e65	0.15172727
85	0x3d88116e	0.066439494
86	0x3e6082bf	0.21924876
87	0xbe81ed23	-0.25376233
88	0xbe85d102	-0.26136023
89	0x3dfbe4bc	0.12299487
90	0x3e5e4806	0.21707162
91	0xbea6e8d8	-0.3259952
92	0xbe9f3d5e	-0.31101507
93	0xbe9da7d5	-0.30792108
94	0xbeaf1fcc	-0.34203947
95	0xbe375a43	-0.17905526
96	0x3e9989fa	0.2998808
97	0xbd778ddc	-0.060438022
98	0x3e32eda7	0.1747347
99	0x3e7cd8e8	0.24692118
100	0x3c688cdb	0.014193739
101	0xbe74807d	-0.2387714
102	0x3e59c8b5	0.2126797
103	0x3ded70b1	0.1159376
104	0x3eb1278b	0.3460048
105	0xbe99a85c	-0.3001126
106	0x3ded580f	0.115890615
107	0x3e8536b6	0.26018304
108	0xbe937bf7	-0.28805515
109	0x3d027673	0.031851243
110	0x3e39806d	0.18115397
111	0xbe62ae84	-0.22136885
112	0x3dcc59e0	0.0997808
113	0x3e09a9dd	0.13443704
114	0x3dc4a5ee	0.09601961
115	0x3e9adfd2	0.30248886
116	0x3e264e6c	0.16240853
117	0x3e722939	0.23648538
118	0xbd1b52f2	-0.0379209
119	0x3e82bebc	0.25536144
120	0xbe56db27	-0.20982037
121	0xbe2822b8	-0.16419494
122	0xbd5375f7	-0.051626172
123	0xbdb927ae	-0.090407714
124	0x3e925a34	0.28584445
125	0x3e12f856	0.14352545
126	0x3e48998e	0.19589826
127	0x3e8fe97d	0.28107825
